models/Classifier_FC_128.pth (torch, 495483 bytes, 39 tensors)

network.0.weight f4 [64, 128]
000000 f0 c3 2c bb 18 8f 00 00 50 7f a3 3b 4f c2 5d b9
       -0.0026361905 5.1332e-41 0.004989542 -0.00021148588
000010 4c 26 65 39 00 ff 90 bc fd bb 5e b9 04 f3 a6 bc
       0.00021853409 -0.017699718 -0.00021241601 -0.02037955
000020 e5 a7 00 80 b9 0f 51 bb 03 f4 7c bb b8 90 00 00
       -6.0229e-41 -0.003190024 -0.003859759 5.1915e-41
000030 ae 17 97 3c 28 d5 a5 bc 11 ad 3c b9 a7 8d 1e bd
       0.018443909 -0.020243242 -0.0001799355 -0.03870931
000040 29 3f a2 ba 3c d1 82 bc 6b 8e 00 80 aa 90 00 00
       -0.0012378442 -0.015968911 -5.109e-41 5.1896e-41
000050 9a 9f 80 bb 42 bf 48 3b 86 4b 83 3b b3 49 86 3b
       -0.003925276 0.0030631577 0.004006806 0.004098141
000060 37 8c 00 00 da 88 00 00 81 a7 00 80 2f 8f 00 80
       5.03e-41 4.9093e-41 -6.0089e-41 -5.1365e-41
000070 a1 8c 00 00 cf 78 40 bc 93 8c 00 80 ab 3c 02 00
       5.0448e-41 -0.011747553 -5.0429e-41 2.05435e-40
000080 dd 88 00 80 af 63 45 bc 6e 93 00 00 ea 41 af bc
       -4.9097e-41 -0.012047692 5.2888e-41 -0.021393735
000090 4f ad e8 3b 14 e9 23 bc 00 99 92 3c fb 8f 00 00
       0.007100738 -0.010004301 0.017895222 5.165e-41
0000a0 66 c5 06 bd 24 07 0a 3c 80 dd 6f bb 35 e3 aa bc
       -0.032903098 0.008424554 -0.003660053 -0.020860294
0000b0 9e 9a a5 bc 38 bd 6b bc f8 3c 09 bc 32 91 ca bb
       -0.020215329 -0.014388375 -0.0083763525 -0.0061818594
0000c0 31 14 e0 bc 2e 90 00 00 ae b0 2f bd fd 7b 86 3b
       -0.027353378 5.1722e-41 -0.042893104 0.004104136
0000d0 b3 90 00 80 44 8a 00 00 2b 2e a1 ba 79 4c 5e bb
       -5.1908e-41 4.96e-41 -0.0012297084 -0.0033920093
0000e0 3d 13 43 bc 4e 2a f6 bb 99 23 ff bb 1a 8b 00 00
       -0.011906442 -0.0075123673 -0.007786226 4.99e-41
0000f0 89 93 46 bb 82 92 00 80 40 fb 45 3a 0e 89 00 00
       -0.003030034 -5.2557e-41 0.0007552393 4.9166e-41
000100 0d 31 38 bd c8 b2 4f ba 95 67 51 ba 73 6f 9f b6
       -0.044968653 -0.0007923064 -0.0007988152 -4.7515437e-06
000110 23 dd 10 bb 71 b5 00 bc ff 35 85 b9 24 81 46 bb
       -0.0022104464 -0.007855759 -0.00025407967 -0.0030289376
000120 15 89 00 80 d2 8c 00 00 c5 d8 92 bc b5 69 ee b9
       -4.9176e-41 5.0517e-41 -0.01792563 -0.00045473655
000130 3a 90 00 00 94 12 12 bd b9 98 00 80 7e 91 00 80
       5.1739e-41 -0.03566225 -5.4787e-41 -5.2193e-41
000140 ba 2a 72 3c d9 8f 00 80 9f 08 eb bb b1 0f 94 b9
       0.014780695 -5.1603e-41 -0.0071726586 -0.0002824045
000150 45 90 00 00 4e af 00 00 3a 0b 8c bb 4b e2 57 bc
       5.1754e-41 6.2887e-41 -0.0042737992 -0.013176511
000160 3e a6 76 3c e0 b5 64 bd 3d 91 00 80 9d 89 00 00
       0.015054284 -0.055837512 -5.2102e-41 4.9366e-41
000170 69 8f 00 80 e6 90 8d bd 8d 8e 00 00 66 81 ab 3c
       -5.1446e-41 -0.06912403 5.1138e-41 0.020935725
000180 fb dc 49 ba 1c de 15 b9 72 8b b8 bb a9 cb 83 3b
       -0.000770047 -0.0001429249 -0.0056318576 0.004022081
000190 cf 01 2d bd 2e 45 11 bc 7d 92 c4 bc d6 8d 00 80
       -0.042238053 -0.008866591 -0.023995632 -5.0881e-41
0001a0 9c 8d 00 00 8c 4f 1a bd 88 0f 2f bc 99 44 61 bc
       5.08e-41 -0.037673518 -0.010684855 -0.013749265
0001b0 f9 6b e6 bb b2 8f a6 bb f6 4a 63 bb 75 f0 67 bc
       -0.0070319143 -0.005083048 -0.0034682131 -0.0141564505
0001c0 56 98 00 80 80 d5 ba 3b e0 78 78 bc d7 08 5f bc
       -5.4648e-41 0.0057017207 -0.015165538 -0.013612947
0001d0 77 79 22 bb a1 5c 01 bc 3e 8a 00 80 92 38 a8 ba
       -0.0024791637 -0.00789562 -4.9592e-41 -0.0012834242
0001e0 64 68 2f bd f4 05 02 bd f8 ec 80 b9 2a 94 6d b8
       -0.042824164 -0.03174396 -0.00024590618 -5.664319e-05
0001f0 a7 40 fb bc d7 3d 3f bc 0d 84 c9 bb ee e3 19 bc
       -0.030670477 -0.011672459 -0.006149775 -0.009392722
000200 52 da 80 bc 87 8b 00 80 ca 56 73 bd a3 02 f7 bc
       -0.015729103 -5.0053e-41 -0.05940894 -0.030152624
000210 65 1d fb 3c e5 e3 0a bd 68 f0 c3 bc 3a 2e 28 bd
       0.030653665 -0.033908743 -0.023918346 -0.04105971
000220 5f 90 00 80 42 d9 0a 3d a6 4d 29 3c 83 90 00 80
       -5.179e-41 0.0338986 0.010333454 -5.1841e-41
000230 3e 19 f2 bc bc 6c 8a bd ae 10 17 bb 90 62 81 3d
       -0.029553052 -0.06759021 -0.0023050713 0.063176274
000240 35 a1 0a 3c ee e6 c2 bd d4 8c 00 80 ea 88 00 00
       0.008461286 -0.095167026 -5.052e-41 4.9116e-41
000250 d6 11 06 3c 8a 0b 0e 3d c7 be 04 bd 28 1a 73 bd
       0.008182963 0.034678973 -0.032408502 -0.059351116
000260 5e 8d 00 80 2c 8c 00 80 7c 8b 00 00 c7 8b 00 80
       -5.0713e-41 -5.0284e-41 5.0038e-41 -5.0143e-41
000270 84 92 00 80 f0 96 b7 bc 39 8b 00 80 aa 8c 00 80
       -5.256e-41 -0.02241084 -4.9944e-41 -5.0461e-41
000280 24 01 01 80 5b 7e c1 3c e1 ae 00 80 eb 7e be 3c
       -9.2245e-41 0.023619821 -6.2735e-41 0.023253879
000290 81 93 8e bd eb fb a0 bd 9a 70 e5 3c 06 8c 00 80
       -0.06961728 -0.078605495 0.028007794 -5.0231e-41
0002a0 25 ed 8a bd f6 ae 71 3d 2f ab e1 3c dd 50 a5 3c
       -0.06783513 0.059004746 0.027547447 0.02018016
0002b0 69 ff 19 3d a5 0b 2b 3a 5e b2 7d bc f3 3e b3 3c
       0.037597094 0.00065248675 -0.015484421 0.021880602
0002c0 d8 10 0e bd 82 8b 00 00 54 ec 53 bd c5 6f 6f 3c
       -0.034684032 5.0046e-41 -0.051739052 0.01461405
0002d0 a7 90 00 00 f6 8c 00 80 06 c8 43 bb e4 fe 4a 3d
       5.1891e-41 -5.0567e-41 -0.0029873862 0.04955949
0002e0 cf 95 68 bd 2b 52 66 3c dd 88 c1 3b 7e 8d 00 80
       -0.056783494 0.014057676 0.005906208 -5.0758e-41
0002f0 74 2e 97 3c 3b 8c 00 80 12 4e 26 3d c1 88 00 00
       0.018454768 -5.0305e-41 0.040601797 4.9058e-41
000300 d9 df 16 bd 14 20 1b bd 0a 2e cd 3a b5 89 40 bd
       -0.03683457 -0.03787239 0.001565398 -0.047006328
000310 fb 68 e6 3c 23 02 b4 ba d8 fd ea bc 6e ef 5e bc
       0.02812623 -0.0013733547 -0.028685495 -0.013606889
000320 56 8a 00 00 48 8c 00 00 a1 eb 77 3c 42 7e 59 bd
       4.9626e-41 5.0323e-41 0.015131862 -0.053098924
000330 b8 a1 00 80 ba 90 c6 bc 06 b7 05 00 ec 8e 00 00
       -5.8014e-41 -0.024238933 5.24834e-40 5.1271e-41
000340 0b 57 a2 bc a3 9e 00 00 19 54 58 bd 48 03 37 3d
       -0.019816896 5.6908e-41 -0.052814577 0.044680864
000350 82 6c 00 80 bd a6 00 80 4a bc 38 3d 76 1f 1a bd
       -3.8925e-41 -5.9814e-41 0.04510144 -0.03762766
000360 5c ef 2d 3d 05 7d 00 bd 39 8c 00 80 26 8c 00 80
       0.0424646 -0.031369228 -5.0302e-41 -5.0276e-41
000370 12 32 01 80 9b 40 0c bb 1f 89 00 80 82 12 87 bd
       -1.09797e-40 -0.0021400813 -4.919e-41 -0.06595327
000380 85 3b 44 3d 2a c3 5f 3c 27 d4 75 bd 47 02 d3 bc
       0.047908325 0.013657371 -0.060016777 -0.025757922
000390 f6 18 a3 bd 17 f9 ae bd 16 76 4b bd dd 8f 00 80
       -0.07963745 -0.08543604 -0.049673162 -5.1608e-41
0003a0 ca 8e 00 80 8b 64 b4 bd 6f bc 89 bd 28 db 8e bc
       -5.1223e-41 -0.088082395 -0.06725394 -0.017438486
0003b0 b2 05 71 bd 31 c6 70 3c 64 71 a5 bc a9 04 7c bd
       -0.058843322 0.01469569 -0.02019567 -0.06152788
0003c0 75 99 00 00 76 98 26 bd b9 59 19 bd 2e d5 74 bd
       5.505e-41 -0.04067274 -0.03743908 -0.059773616
0003d0 de 61 94 3c b0 72 94 bd 19 a5 00 80 73 03 1d 3d
       0.018113073 -0.072484374 -5.9226e-41 0.038333368
0003e0 95 33 64 bd c2 5c 44 bc 74 5b 5c bc 4b 68 01 bd
       -0.055713255 -0.011985006 -0.0134495385 -0.031593602
0003f0 0a e1 73 bd b5 00 27 3c 7f 37 a6 bd 90 eb 4a bd
       -0.059540786 0.01019304 -0.08116054 -0.049541056

network.0.bias f4 [64]
000000 a3 0b d1 ae e9 13 b6 bb 2a f4 1b b7 70 3d 02 bd
       -9.506287e-11 -0.0055565727 -9.295569e-06 -0.031796873
000010 1e 22 c2 bc 85 f2 45 35 a9 76 da 3b 28 1d f5 2a
       -0.023697909 7.374113e-07 0.0066669774 4.3540974e-13
000020 23 8f 9a 3d 3f 85 6d 31 f3 ce a7 bc 53 4f ee bc
       0.075468324 3.456378e-09 -0.020484423 -0.02909056
000030 1f a3 7c bc bc 44 65 3d dc c0 3b 3d 4a a1 a0 bc
       -0.0154197505 0.055973753 0.045838222 -0.019608159
000040 f8 84 84 b8 af e4 06 bd 44 3a d3 3c 67 6c 73 bd
       -6.319018e-05 -0.032932933 0.02578462 -0.059429552
000050 14 99 85 81 72 1e d5 b9 72 31 9b bc 2b 0b 6c bc
       -4.907614e-38 -0.0004064921 -0.018944476 -0.0144069595
000060 58 63 7a b9 e4 97 9f 3b 9b 4a 00 39 b9 2c 9a bd
       -0.00023878866 0.0048704017 0.00012234824 -0.075280614
000070 26 8a 00 80 82 4c 7a 3d 65 7c 8a 3d ea 14 e1 3c
       -4.9558e-41 0.06110812 0.067620076 0.027475793
000080 0e 69 01 bd 20 ed 11 ba be c8 32 b5 e5 52 4d 3b
       -0.03159433 -0.00055666454 -6.6602286e-07 0.0031329927
000090 64 c5 f8 37 5f 44 57 bc 47 a3 d8 bd 82 38 e4 3c
       2.9655821e-05 -0.0131388595 -0.10578018 0.027858976
0000a0 7d c9 7f 9a f8 67 b2 ae 21 92 24 bc 8f ea 42 23
       -5.2895525e-23 -8.1129714e-11 -0.0100446055 1.0566431e-17
0000b0 2a fa 03 3c ad da 95 bd 6b 05 5d bd 26 3b 82 3c
       0.008055249 -0.073171 -0.053960245 0.015897345
0000c0 a0 d0 02 b8 a3 dd 23 b2 b0 bb 98 bc c6 e1 06 b9
       -3.1188712e-05 -9.538243e-09 -0.018644184 -0.00012863343
0000d0 6e 5a 81 38 5d a3 a3 3c 26 8a 62 b8 76 2a ec bd
       6.168043e-05 0.019975359 -5.401126e-05 -0.11531536
0000e0 dc 6e 4d bb 4b ba 7e bd d7 d8 d4 af cf e2 38 3b
       -0.0031346595 -0.06218938 -3.871665e-10 0.002821136
0000f0 22 9f b5 bd a8 fb ae bc 07 54 ce 3d 15 2d 5e bc
       -0.08868243 -0.021360233 0.10074621 -0.013560553

network.3.weight f4 [64, 64]
000000 a5 39 98 39 c2 d3 84 3d 45 14 ce bc d4 90 0d 3d
       0.00029034648 0.06485702 -0.02515615 0.034561947
000010 4e 67 ee 3b 72 24 40 3d ea 4d cf 3d 56 7c db b2
       0.0072754985 0.046909757 0.10122283 -2.5551497e-08
000020 19 62 db 3c 7f 99 b0 b5 b6 dd 3f bd f7 50 88 bd
       0.026780175 -1.3157695e-06 -0.0468423 -0.06656068
000030 df 01 a5 bb 98 50 4f bd 26 af 26 bc be e9 3c be
       -0.0050356234 -0.05061397 -0.010173595 -0.1844854
000040 21 99 64 b9 58 30 86 bd 0f 0b 24 bd ab 3e 95 bd
       -0.0002180082 -0.065521896 -0.04004961 -0.072873436
000050 ac 90 00 80 4d f1 6b 3c 17 7c dc 3b b4 7a 22 be
       -5.1898e-41 0.014400792 0.00672866 -0.1586712
000060 46 c1 ec 3b 96 fa bf 3d 9b fb 01 bd 80 24 96 bd
       0.0072251884 0.09373967 -0.03173409 -0.073311806
000070 bc 88 00 80 8b c9 b2 3d 49 82 0f 3e ad 55 fc 3d
       -4.9051e-41 0.087298475 0.14014544 0.12321029
000080 9a 24 c6 bc 60 84 60 3c 5f da 01 3d 92 61 29 3d
       -0.024187375 0.013703436 0.031702396 0.041352816
000090 75 a9 6c bd e5 b7 62 3c e0 97 38 bd 81 b2 c9 bc
       -0.057778794 0.013837789 -0.045066714 -0.02462125
0000a0 d3 d9 49 3a 68 e3 dc 2d 52 64 c0 bb 0b c6 f6 3b
       0.00077 2.5112093e-11 -0.005871334 0.007530933
0000b0 bb a0 0b 3e 7f 2d af bd d9 bf 28 bd e1 c2 74 bc
       0.13635533 -0.085535996 -0.041198585 -0.014939041
0000c0 4c 71 54 bc 24 01 1f 3a e8 69 ee bc 15 12 85 3d
       -0.012966465 0.00060655386 -0.029103234 0.064975895
0000d0 4b 68 b2 39 71 1a a2 bd 48 f6 90 bb fc 19 23 be
       0.0003402851 -0.079151995 -0.0044238903 -0.15927881
0000e0 0b f7 03 bd 59 d6 a8 bd 85 2e d3 b8 e1 ef 5f bd
       -0.03221802 -0.082440086 -0.00010069929 -0.054672126
0000f0 28 e3 07 be 5c 13 e4 3d 5b a2 e9 bb 07 04 28 be
       -0.13270247 0.11136505 -0.00712995 -0.16407786
000100 c4 07 0c bb 58 19 1f bd a6 45 eb bb 57 8a bd 3c
       -0.0021366933 -0.03884253 -0.0071799336 0.023137255
000110 c7 33 07 3e 45 24 a7 3d fd b4 a2 bd 08 8e ac 35
       0.13203345 0.08161215 -0.07944677 1.2856335e-06
000120 c2 80 29 bd c4 94 c8 3a da 58 63 3b 02 5e 2b 3d
       -0.04138256 0.0015303125 0.003469041 0.0418377
000130 53 8f e8 bd 41 29 6b 3d a5 03 10 bd 77 bd f2 3d
       -0.11355462 0.05741239 -0.035159726 0.11852544
000140 53 fc 6b 3b 93 6e 0a 3e 0f d7 2e bd e2 1b 9b bb
       0.0036008551 0.13518743 -0.042685565 -0.0047335485
000150 8e bc 63 8b 67 cf db bc 40 13 96 bd e9 d8 6e bd
       -4.3860463e-32 -0.026832296 -0.073278904 -0.05831233
000160 68 71 cd bb 4b 75 45 3d 08 9d 5a bd 02 71 30 3e
       -0.0062696226 0.048207562 -0.053372413 0.17230609
000170 9d a6 00 00 1a 60 b3 bd 39 c0 40 3d 7d de ad bc
       5.977e-41 -0.08758564 0.047058318 -0.021224255
000180 27 ce 1f 3c c8 17 8d bd 6f 08 0a 3d a4 32 af bd
       0.00975374 -0.068893015 0.03369945 -0.08554581
000190 07 fb 40 3d 25 8c d8 bd d9 97 10 3e 0d a9 32 bd
       0.0471144 -0.105736054 0.14120425 -0.04361825
0001a0 4d 2d 1b 3c 84 bb 83 af f8 4a 95 3c 01 f2 4b bc
       0.00947125 -2.3962e-10 0.018224224 -0.012447835
0001b0 f0 ea d7 bc a9 27 ec 3d 2e d6 5a 3d 3f ff 24 3d
       -0.026357144 0.11531002 0.053426914 0.040282484
0001c0 73 51 20 bc 8d 9d a9 bb c1 cc cd bd 16 ac d3 3c
       -0.009785044 -0.005176252 -0.10048819 0.025838893
0001d0 70 c3 9f ba 58 bb a2 3b d5 21 24 bc 36 86 aa 3d
       -0.0012188982 0.004966181 -0.010017832 0.0832638
0001e0 cd be 9e bd ac 36 ee 3d d7 71 1d bb 23 b3 16 bd
       -0.07751236 0.116315216 -0.0024024153 -0.03679193
0001f0 a8 b4 16 be b2 60 a5 bd 26 d7 44 3d e4 1f 42 bc
       -0.14717352 -0.08075084 0.048056744 -0.011848424
000200 39 89 31 37 a9 0a c1 3d 17 f0 f5 3c 60 9f 06 3d
       1.0581972e-05 0.094258614 0.03002171 0.032866836
000210 ff ff 22 bc 90 2f 88 3d 76 37 09 bc 2e d4 d3 38
       -0.00994873 0.06649697 -0.008375039 0.000101007856
000220 f6 5d 7f 3c fb d3 8b 3c ce ed de bc b4 05 31 bb
       0.015586367 0.017068854 -0.027213003 -0.0027011456
000230 fb bf 00 bd e0 f4 99 3d ec 68 14 bb e7 9c 0d be
       -0.031433087 0.07517409 -0.0022645546 -0.13829385
000240 0d 33 b8 bb 0e 1a ec 3d c3 3b a3 bd 5f 8d fa 3b
       -0.00562132 0.11528407 -0.07970383 0.0076462473
000250 73 8c 00 00 c1 6a db 3a 14 9e 4e bd cf 89 21 bd
       5.0384e-41 0.0016740189 -0.050443724 -0.039438065
000260 ad 4a bd bb 8b f5 97 3d 96 73 b0 3c f4 b2 6c 3e
       -0.0057767243 0.074198805 0.02153949 0.2311514
000270 0e 8c 00 80 7f 4b 1e 3c 3b cb 11 bc eb 38 8b 3c
       -5.0242e-41 0.009661554 -0.008898552 0.016994914
000280 97 ed 08 3c d7 bd f0 3c 5d 25 bd 3c 65 93 dd bb
       0.008357427 0.029387398 0.023089105 -0.0067619556
000290 c1 dc b6 3d d3 a2 b7 bd 3e 92 06 bd 67 db a1 3d
       0.08928824 -0.08966603 -0.03285431 0.07903176
0002a0 98 b9 62 bb 13 0d 93 35 7a 28 85 3c 29 f8 7b bc
       -0.0034595486 1.0956159e-06 0.016254652 -0.01537899
0002b0 c0 05 0b bd ba d5 9e 3d 41 16 89 bd 9d 39 78 bb
       -0.03394103 0.07755609 -0.06693698 -0.0037876137
0002c0 77 8b c3 bc 6f 40 15 bb 23 e4 a5 bc 03 ee a4 bb
       -0.023870213 -0.0022774 -0.020250386 -0.005033256
0002d0 d6 62 c5 3b 76 fb 94 bd 7e ee 94 bc 37 9e d7 bc
       0.006023745 -0.07274525 -0.018180128 -0.02632056
0002e0 45 c3 a7 bd 27 54 c6 bd a8 2e a8 3b 16 d0 b6 3c
       -0.081915416 -0.096840195 0.005132515 0.02231602
0002f0 13 e6 dd 3d 08 70 5d bd bc 0a 6c bd c5 58 da 3d
       0.10834899 -0.05406192 -0.057627425 0.10661463
000300 9d 67 d2 38 eb c6 ad 3a 85 8f 8c b9 3b 71 b3 bb
       0.0001003288 0.0013258135 -0.0002680981 -0.0054761446
000310 54 aa 7b bc fc e6 81 b9 3f 77 d1 3d 29 27 61 2f
       -0.015360434 -0.00024776894 0.102278225 2.0477543e-10
000320 6d 91 19 bd d4 cd 25 b5 43 86 c3 3d 1f 39 b4 3d
       -0.037492204 -6.176681e-07 0.09547093 0.087999575
000330 f9 3e 29 3c 52 00 ae bd 39 ab c6 3d fc 70 16 be
       0.010329955 -0.08496155 0.09700627 -0.14691538
000340 70 9f 18 3c cd 31 44 bd 25 eb 95 bd 53 c3 62 bc
       0.009315357 -0.047899056 -0.07320241 -0.013840514
000350 f2 3a 6e 8b 37 21 b3 3b 96 55 30 3d e5 3e a5 3b
       -4.5881478e-32 0.005466606 0.04305037 0.005042898
000360 fe 6f 3e 33 f7 6b 82 3d 55 12 ce bc 85 c2 e8 bd
       4.433968e-08 0.06368249 -0.025155226 -0.11365227
000370 ec 8e 00 00 e1 4d 2f 3d 9c 2a b2 3d 78 bd 07 3e
       5.1271e-41 0.04279888 0.08699533 0.1325587
000380 85 f7 be bd d5 70 54 bd 44 55 85 37 82 6d 26 bd
       -0.09324554 -0.051865418 1.589454e-05 -0.04063178
000390 ff 41 96 3b 16 8a 98 bd c6 cf b9 bd 5d 28 4b bd
       0.004585504 -0.07448213 -0.09072833 -0.04959904
0003a0 17 7e ae b4 55 8e 00 80 b6 4e 68 3d a0 a1 f3 3b
       -3.2501768e-07 -5.1059e-41 0.05671569 0.0074350387
0003b0 e5 11 71 3d f7 16 9a bd d8 48 f0 bc 43 48 92 bc
       0.058854956 -0.075239114 -0.02933161 -0.017856723
0003c0 cb df 1c 3a 74 41 cc 92 3e 30 e7 3d da 7a ae 3b
       0.00059842755 -1.2890345e-27 0.11288498 0.0053247036
0003d0 19 a4 0f 38 fb 8b e7 3d 18 e9 9f 3b af 27 40 be
       3.4246685e-05 0.11305996 0.004880082 -0.18765138
0003e0 84 26 09 ba 65 7c 5f bd d5 c8 12 ae c6 e7 83 bd
       -0.00052318745 -0.05456199 -3.337493e-11 -0.06440692
0003f0 96 7b 20 be d1 4b 3f 3c 56 75 ad 3d 23 3c 34 be
       -0.15672144 0.011675791 0.08469646 -0.17601065

network.3.bias f4 [64]
000000 55 c5 66 3e 9b d4 1d be 62 66 c6 bd 1e ab 2e 3e
       0.22536214 -0.15413134 -0.09687497 0.17057464
000010 7c b4 0a 3e ad 18 30 bd 80 28 07 3d bb 27 b7 bc
       0.13545412 -0.042992283 0.03299761 -0.022357812
000020 67 d6 67 3e eb fd 9e 3c 61 cc 9c bc 9d bb 04 3d
       0.22640382 0.019408187 -0.019140424 0.032405484
000030 1f 93 11 3e 4c 77 ae 3d 2a 43 0c be 1c 85 47 3e
       0.14216278 0.08518848 -0.13697496 0.19484371
000040 df e9 5c bc 2c 94 d5 3d d2 6f 3e bd 2d b1 60 bd
       -0.013483494 0.10428652 -0.04649336 -0.054856468
000050 9d dd 8b 3d 4b b9 fa 3b 65 49 b7 3c ad 4b 87 3d
       0.06829379 0.007651483 0.022373864 0.06606231
000060 11 73 9a 3d b8 65 28 bd 96 d1 0b be ab fb 38 3e
       0.075414784 -0.04111263 -0.1365417 0.18064754
000070 79 66 e6 3d f1 f3 8e 3e 3a 38 28 bd 80 b2 5d 3d
       0.11250014 0.27920488 -0.041069247 0.05412531
000080 99 ff e5 bd ff 43 d7 bd 08 2f b3 bd 45 3a 7b bd
       -0.11230392 -0.10511016 -0.08749205 -0.061334867
000090 61 14 21 3d 55 35 1d bd c5 dd 88 bc cd 1d 0a 3e
       0.039326075 -0.03838094 -0.01670731 0.1348793
0000a0 f4 b2 20 bd eb 12 39 bd 98 c9 27 3e ba c2 a9 3d
       -0.039233163 -0.045184057 0.16385496 0.08289094
0000b0 34 dd bc 3d 50 5a 5f 3e d2 8a 50 3d e8 08 df 3d
       0.09221879 0.21811795 0.05091364 0.108903706
0000c0 bd 46 d4 3d c9 92 2e 3e 59 c0 8a 3d 22 1a dd bd
       0.10365055 0.17048182 0.06774969 -0.10796
0000d0 b5 de 26 3e cd fb 6e bd 4b 3b 9b 3d 89 aa a1 3d
       0.16295893 -0.058345605 0.075796686 0.07893855
0000e0 e6 71 d4 3c 3c 6e be bd 3f ec 0f 3e e1 71 08 3d
       0.025933217 -0.09298369 0.14054964 0.03331173
0000f0 80 89 62 bb 59 64 16 3b f5 c3 48 3e 9c e8 3e 3e
       -0.003456682 0.0022947995 0.19606002 0.18643421

network.6.weight f4 [1, 64]
000000 f5 0c be 3d fc 94 be bd f8 25 09 be b9 12 96 3d
       0.09279815 -0.0930576 -0.1339339 0.0732779
000010 9c f5 db 3d 82 a2 bf 3d 2d ec b3 3c 1f f4 03 be
       0.10740206 0.09357168 0.021963203 -0.12886094
000020 04 ed df 3d df 39 f7 bd 33 23 ad bd b2 69 11 be
       0.10933879 -0.12071585 -0.08453979 -0.14200476
000030 94 a9 9c 3d 5d 0a 68 3d 66 4f 9e bd 44 2d 5c 3d
       0.07649532 0.05665051 -0.07729988 0.053754106
000040 50 18 a6 bd 64 e8 22 3e f6 ec 8b bd 75 b3 f6 bd
       -0.08110106 0.15908962 -0.06832306 -0.120459475
000050 38 2c a9 3d 5e c9 bc bd 8b 18 c8 bd 8f 70 19 be
       0.08260387 -0.09218095 -0.09770306 -0.14984344
000060 bc 74 eb 3c 31 96 6e bd a2 f4 59 bd c0 90 e4 3d
       0.028742187 -0.058248702 -0.053211816 0.11160421
000070 a4 2d 66 3d 94 00 a0 3d ab 81 94 bd c5 85 a2 bd
       0.05619587 0.0781261 -0.07251295 -0.07935671
000080 53 14 82 bd dc 26 87 bd ef 9b d8 bd 6c 20 82 bd
       -0.06351533 -0.06599209 -0.10576617 -0.0635384
000090 93 68 40 3d a1 9b 19 bd 8f 2a c8 bd d6 fc ca 3d
       0.04697473 -0.037501935 -0.097737424 0.09911506
0000a0 75 6e 72 bd 94 08 b5 bd c7 8e b4 3d 2f 65 63 3d
       -0.05918737 -0.08839527 0.08816295 0.055516418
0000b0 8f b7 90 3d be fc 8d 3d d0 b0 bb 3d 53 ee 3e 3d
       0.07066261 0.06932972 0.09164584 0.046614002
0000c0 ad 38 c3 3d 63 c2 4e 3d b1 a5 03 3d f0 ab c3 bd
       0.095322944 0.05047835 0.032140438 -0.09554279
0000d0 e6 ae 45 3d ee 74 ef bd e6 ec a6 3d da 3f 42 3d
       0.0482625 -0.116922244 0.081506535 0.047424175
0000e0 05 fd 86 bd 06 ee 6a bd c6 1e a4 3d 78 9e 7f 3d
       -0.065912284 -0.057355903 0.08013682 0.062406987
0000f0 3d ec 95 3d 37 07 d2 bd 40 61 9d 3d a9 db c8 3d
       0.073204495 -0.10255282 0.076845646 0.09807522

network2.0.weight f4 [128, 64]
000000 72 ec ad bb 5d 50 fe 3c 33 81 97 bc 3d ca 15 be
       -0.0053077275 0.03104418 -0.018494224 -0.14627929
000010 09 a6 a5 bd 7a e3 35 be 8b 9f 55 3d 71 84 b8 3d
       -0.08088309 -0.17762557 0.052154105 0.09009636
000020 8d 38 8b 3c 52 b0 56 bd 5b 4f 58 bd c0 ec a5 bd
       0.016994739 -0.052414246 -0.052810054 -0.08101797
000030 ed 4f bd bc e8 bd 8b bd 04 06 05 3e 73 1c b4 bd
       -0.0231094 -0.06823331 0.12990576 -0.08794489
000040 f5 f6 fc bd 2f 00 04 bd 18 1a cf bd 11 aa a3 3c
       -0.12351791 -0.032226738 -0.10112399 0.019978555
000050 f2 63 02 be 18 42 f4 3d e2 cc 91 bd 92 c5 7a 3d
       -0.12733439 0.11926669 -0.071191564 0.061223574
000060 4c cc 4b bd f6 5b 8f bd 3f e0 a2 bd 2c 84 2b be
       -0.04975538 -0.06999962 -0.07952928 -0.16749638
000070 37 4e 55 bd 80 8c 4a bc ff 84 86 bd 81 a7 95 3c
       -0.052076545 -0.012362599 -0.06568336 0.018268349
000080 2e 90 02 3d f0 21 c3 bc 6e 37 d2 3c e5 00 d2 bd
       0.03187578 -0.023819894 0.025661197 -0.10254077
000090 27 3b 0a bd 6e b4 d2 bd 9e 97 95 3d 6c a4 c6 3b
       -0.03374782 -0.102883205 0.07304309 0.006062081
0000a0 17 7f 4d 3c 31 fd 45 3d 11 4f 47 bd de 4e a7 3d
       0.012542508 0.048337165 -0.048659388 0.081693396
0000b0 c0 fd 6c 3d 7a f3 ed 3d a4 40 c5 3d 83 74 fc 3c
       0.057859182 0.11618705 0.0963147 0.030817276
0000c0 ca 27 e7 bc 40 7e 80 3d 7e 0b 0a 3d e5 a9 9c 3d
       -0.028217215 0.0627408 0.033702366 0.07649592
0000d0 87 e5 e7 3d 3a bd 99 bd 07 7d 90 bd 50 c0 49 3d
       0.11323076 -0.07506795 -0.07055097 0.04925567
0000e0 cc 92 2a 3e 05 24 37 3e 89 2f 98 bd b3 99 c5 bc
       0.16657561 0.17884834 -0.074309416 -0.024121141
0000f0 95 b7 92 ba dc a2 24 be 11 16 6f bd 44 5e 40 be
       -0.0011193628 -0.16077751 -0.058370654 -0.1878596
000100 65 35 0a be 95 44 ec bd 2c 60 a6 bd bb dd 48 3b
       -0.13496931 -0.115365185 -0.08123812 0.003064974
000110 39 6c 19 bd 26 89 2a 3d 28 59 24 be 7c 47 5a bd
       -0.037456725 0.0416347 -0.16049635 -0.05329083
000120 a2 b1 b9 3d 56 dd e7 3d cd f4 ba bd d0 fe cb 3b
       0.09067084 0.11321513 -0.09128723 0.0062254444
000130 91 d2 8d 3d aa 37 10 bd f2 98 1f bd 53 da 24 3d
       0.06924928 -0.035209335 -0.03896422 0.040247273
000140 ff ed d7 bd 21 98 a0 bd 2c c2 39 ba 71 62 6c bd
       -0.10543441 -0.07841516 -0.0007086124 -0.05771107
000150 61 c4 00 be 67 91 3b 3c a7 46 1b bd 8e c8 9b 3c
       -0.12574913 0.011448241 -0.037909176 0.01901653
000160 04 59 88 bd 30 7c 03 3b c8 5f 62 3c bc cf 94 3d
       -0.066576034 0.0020063035 0.013816781 0.07266185
000170 65 33 04 be 72 e4 3a bd 20 9d 05 3e 4c 58 12 3e
       -0.1291023 -0.04562802 0.1304822 0.14291495
000180 30 c2 fc 3d 37 5a 7b 3d 1e 52 22 3c dc ba f7 bd
       0.12341726 0.061365332 0.009907274 -0.120961875
000190 f5 55 30 bc b2 90 4f 3d 14 e4 2e 3d 59 11 6e 3d
       -0.010762681 0.0506751 0.04269798 0.058122013
0001a0 d0 29 1d bd 6f d7 b5 3b 12 90 e5 bd 37 c2 89 bd
       -0.038369954 0.0055493633 -0.1120912 -0.06726497
0001b0 a7 ed 94 bb d3 1c 3b 3d 4c c3 d2 bd 4c 75 37 bd
       -0.004544932 0.045681786 -0.10291156 -0.044789597
0001c0 4e 6f b7 3d fe 59 03 be 59 9e 77 bc 97 9e 10 be
       0.089567766 -0.12827298 -0.015113437 -0.14122997
0001d0 c4 35 b6 3c ac 4c d7 bd 43 7d 8d 3c a8 00 09 3a
       0.022242434 -0.10512671 0.017271644 0.0005226233
0001e0 5f a2 0c be 91 d8 d7 bc 1b c8 c7 bd 05 f2 15 be
       -0.13733815 -0.026348384 -0.09754964 -0.14643104
0001f0 19 57 e1 bd 7b 13 52 bd 3c f1 b6 3b c4 27 2e bd
       -0.11002941 -0.05128811 0.0055829566 -0.042518392
000200 ca 24 19 be 16 c7 70 bc 84 7f 39 3e 48 0d 05 3d
       -0.1495544 -0.014695903 0.1811505 0.03248337
000210 2f 50 2d 3d fa b2 9f 3d d7 98 91 bd ea ea 6f 3b
       0.042312797 0.07797809 -0.0710923 0.0036608526
000220 89 07 5b 3d 48 59 80 3d 71 09 31 be d7 7a c8 3b
       0.053473983 0.06267029 -0.17288758 0.0061181593
000230 c0 55 51 bd 7d cd 9b bd 46 19 bd 3c 06 6c b0 bc
       -0.05110717 -0.07607553 0.02308334 -0.021535885
000240 2f fe 85 3d ca e2 d4 bd d9 bb 96 3c 9e 71 7e bd
       0.06542622 -0.10394819 0.01840012 -0.062120073
000250 c6 30 46 3d 41 cf 1d 3e 24 2e c2 3d 54 62 72 bd
       0.048386358 0.15411092 0.09481457 -0.059175804
000260 0c a1 5c 3c a5 f0 34 3d f8 06 0c 3e bf ea 5f bc
       0.013466131 0.04417481 0.13674533 -0.013666808
000270 e0 79 d1 3d 96 8e d9 3d 28 6f 27 3d b7 f0 cb 3c
       0.10228324 0.10622899 0.04087749 0.024895055
000280 7f c5 b2 3d ac ae 92 bd f5 77 6c bd 3a 46 15 3d
       0.08729076 -0.07162222 -0.057731587 0.036443926
000290 95 a3 9d bd 58 86 93 bc 57 14 67 3e 0c 7b 29 3e
       -0.076972164 -0.018008396 0.22566353 0.16550845
0002a0 f7 28 f9 bc 5b 96 f5 3c 9c e6 de 3c 4d da 1c 3e
       -0.030415041 0.029978922 0.027209572 0.1531765
0002b0 c8 bb 80 bd 60 2e 1e 3d f9 b1 fb 3d 74 3c ea 3c
       -0.062858164 0.038618445 0.12289805 0.02859328
0002c0 10 98 c3 bd 99 a7 34 bc d7 72 1e 3c de b5 cd 3d
       -0.09550488 -0.0110262865 0.009670935 0.10044454
0002d0 a3 d1 8b bd dd 67 0d 3d a2 2c 2b 3c 96 39 d4 3c
       -0.068270944 0.03452288 0.010447653 0.025906365
0002e0 23 40 92 3c 95 69 27 3c a1 53 53 bd 20 da e1 3d
       0.017852848 0.010218044 -0.051593427 0.11027932
0002f0 6d 5a 0f 3d 1e 47 35 bd e4 eb 90 3c 55 91 f4 3c
       0.034998346 -0.044257276 0.017690606 0.029854456
000300 12 2f 64 3d 1b 6c a9 bd 8e 30 0c be 46 53 4e be
       0.055708952 -0.082725726 -0.13690397 -0.20148954
000310 7d 13 cd bc 54 9b 36 bd 1e 59 c5 3b c3 a1 ff 3c
       -0.025033707 -0.044581726 0.0060225865 0.031205064
000320 a8 e4 58 ba f0 b9 65 bc 4c 4e ee bd 12 93 72 3c
       -0.00082738185 -0.014021382 -0.11636028 0.014805572
000330 8b 59 62 bb 2a 6e 9a 3d 22 8b 0e bd 0b 9f 03 bc
       -0.0034538235 0.075405434 -0.034800656 -0.008033524
000340 5b 61 7a 3d e4 9a d4 ba 92 11 b5 3d c1 9c 8f bb
       0.061128 -0.0016220477 0.08841242 -0.0043827
000350 0e 37 4e bc e1 5b 8d 3d b5 3b a5 bd 01 e7 29 3d
       -0.012586368 0.0690229 -0.08068029 0.041480068
000360 49 14 7b bc 2d 76 fd 3c 5f 67 63 bc 94 e3 ff 3d
       -0.015324661 0.03094014 -0.013879626 0.12494579
000370 ab e2 0d bd 81 af 74 3d 77 17 63 3d f3 d6 45 bd
       -0.034639996 0.059737686 0.0554423 -0.048300695
000380 cb e8 9d bc 88 cb 89 3d d6 d3 a2 bd 5c ea 43 3d
       -0.019276043 0.06728274 -0.07950561 0.047830924
000390 18 f9 e3 bc b4 21 2c bd 40 91 88 bd e4 90 98 bd
       -0.027828738 -0.04202433 -0.06668329 -0.07449511
0003a0 a6 b8 4b 3d 0f f8 52 3d cc d7 7d bd 87 1f 00 be
       0.04973664 0.0515061 -0.061973378 -0.12512027
0003b0 bb f6 a9 3a d4 b4 01 3d c7 42 7d 3d e0 1c d1 bd
       0.0012967208 0.03166659 0.061831262 -0.102105856
0003c0 08 aa 30 be d3 ef 5d be bb 5a 4c bd a3 39 c0 bc
       -0.17252362 -0.21673517 -0.049891215 -0.023464983
0003d0 dd 66 8c 3d d9 b5 d2 3c 13 66 fb 3b 03 66 2b bd
       0.06855557 0.025721477 0.0076720803 -0.041845333
0003e0 57 0a c2 3d fd 78 18 3b b3 49 c5 bd b4 a6 10 3d
       0.094746284 0.0023265474 -0.09633198 0.03531523
0003f0 32 1d d7 3d 09 6d 90 3d 18 e1 13 be 9c 9f 75 3c
       0.105036154 0.07052047 -0.14441335 0.014991667

network2.0.bias f4 [128]
000000 03 aa 29 bd 95 20 cb 3a 75 02 df 3c 81 a8 20 3d
       -0.0414219 0.0015497381 0.027222851 0.039223198
000010 b6 3c 01 be a1 1c 89 3d 4f be 9c 3c 9c 69 1c be
       -0.12620816 0.06694914 0.019133715 -0.15274662
000020 57 1a ae 3d 58 05 8d 3d 92 ad b1 bd 84 04 e4 ba
       0.08501118 0.06885785 -0.08675684 -0.0017396365
000030 a1 c1 ce 3c a5 be 06 bb dc 98 60 bd 4a 75 10 bd
       0.025238814 -0.002056041 -0.054833278 -0.035268106
000040 04 05 ba 3c d6 0c 1e be b8 47 cd bc b7 03 75 bd
       0.02270747 -0.15434584 -0.025058612 -0.059817996
000050 f7 82 1b bd e4 c0 7b ba ae 71 3a 3d 39 d1 fa bd
       -0.037966695 -0.0009603633 0.04551857 -0.12246937
000060 70 5a 5d bd 72 f1 d6 bd 15 6f 02 3e 49 7b b7 bc
       -0.054041326 -0.10495271 0.12737687 -0.022397654
000070 a4 91 85 bc 02 77 70 bd 07 7d e0 bd af 3a be bd
       -0.016304798 -0.058707245 -0.10961347 -0.09288537
000080 6a ae d7 bd 83 bd 6b bd 2f 76 dc 3b ab e0 fd bd
       -0.10531314 -0.05755378 0.006727956 -0.12396368
000090 da c8 81 bd d7 ef b4 3b a2 93 30 bd e1 66 1d bd
       -0.063371375 0.005521755 -0.043109544 -0.03842819
0000a0 7f 0c 20 3d 90 76 40 bc 6e b5 82 bb 5f eb 3e 3d
       0.039074417 -0.0117470175 -0.0039889133 0.046611186
0000b0 7f e1 94 bd f3 77 d9 bc 5d 5d b9 3b 49 96 b2 bb
       -0.072695725 -0.026546454 0.0056568817 -0.0054500443
0000c0 30 cd 8c 3d 5d ff dc bc db b9 cd 3c a8 40 6e bd
       0.06875074 -0.026977235 0.025113037 -0.05816713
0000d0 7a 45 44 3d 8c c7 b9 bd cb 1c b1 3d a2 0e e7 3d
       0.04791782 -0.09071264 0.0864807 0.11282088
0000e0 d6 45 db bd a5 66 ad bd ea 5f f5 3a f1 67 3e bd
       -0.107066795 -0.084668435 0.0018720601 -0.046485845
0000f0 bf 64 d5 bd 8a 55 42 bd 1c 8b 2d 3d 74 fd ac bd
       -0.104196064 -0.047444858 0.042368993 -0.0844678
000100 92 85 31 3c 10 2f 8c bd ec 2c 79 bd e5 68 33 3c
       0.010835068 -0.06844914 -0.060833856 0.010950302
000110 3e 17 19 bd f5 36 d7 bd 4a d2 d8 bd 44 b9 57 bd
       -0.03737568 -0.10508529 -0.105869845 -0.052666917
000120 ad 9c 0b be e0 1e b3 3b 35 8b dc bc 09 2d 38 bd
       -0.13633986 0.005466327 -0.026921848 -0.044964824
000130 f6 41 3f be 32 ea ea bd 18 ff 75 3d 39 d7 77 bd
       -0.18677506 -0.114704505 0.06005773 -0.060507987
000140 01 38 0e bd 0b 44 85 bd 23 ec 68 bd 5a a1 a6 bd
       -0.03472138 -0.06507119 -0.056865823 -0.08136244
000150 82 8a be bc 85 3f e7 3c 7d 49 44 bd 9f 92 a6 bd
       -0.023259405 0.02822853 -0.047921646 -0.081334345
000160 71 5e 13 bd b9 25 72 39 6b b0 16 3d 88 90 2c bd
       -0.03597874 0.00023092971 0.03678934 -0.042130023
000170 fb e2 08 be 8f e4 b4 bd c6 83 10 bc a3 73 28 3e
       -0.13367836 -0.088326566 -0.00882048 0.16450362
000180 e7 89 40 bb 75 76 db 3b 35 fc 7b 3c 97 e2 58 bd
       -0.0029379071 0.006697471 0.015379955 -0.052950468
000190 b3 ae 0a be 40 b9 c7 bd 27 8b ae bb 41 f7 39 3d
       -0.13543205 -0.097521305 -0.005326647 0.045401815
0001a0 f3 1d 97 3d e1 21 c4 bd 86 aa 7c bd c3 f1 8a 3c
       0.07378759 -0.095767744 -0.06168606 0.016960984
0001b0 24 b7 84 3d aa d8 37 3d 8f 38 1b bd 86 49 be 3d
       0.06480244 0.04488436 -0.037895735 0.09291367
0001c0 c2 41 e0 bd e7 b3 9d 3c 21 f6 28 be 3c c6 93 bd
       -0.10950042 0.019250823 -0.1650014 -0.072155446
0001d0 4b 53 05 be 1a 49 20 3d e7 c9 5c 3d a7 e4 0f bd
       -0.13020055 0.039132215 0.053903487 -0.03513017
0001e0 77 64 70 3d 7f ee 9f 3c 82 b8 96 bd 74 16 d8 bc
       0.05868956 0.019522903 -0.07359411 -0.026377894
0001f0 7b c6 0a be e8 fd 10 be 9d 6c 90 bc 6e 75 21 bd
       -0.13552277 -0.14159358 -0.017629916 -0.03941863

network2.3.weight f4 [64, 128]
000000 91 a2 9d bc 3d 8c f6 bd d9 4a e1 3d 64 0c cb bd
       -0.019242557 -0.12038467 0.11000604 -0.09914473
000010 56 e1 07 be 6f 88 d4 3c c3 a7 bc 3c b8 82 bb 3c
       -0.13269553 0.025943963 0.023029214 0.02288948
000020 c1 20 21 bd d6 d3 6c 3c c1 6f b6 bc 72 c0 11 bd
       -0.039337877 0.0144548025 -0.022270085 -0.03558392
000030 2c 29 bf bd 68 2d fe bc de bf 90 3c ab d2 38 3d
       -0.09334025 -0.03102751 0.017669614 0.045122784
000040 4c 9f 9b 3d f1 b2 7e bb 68 df e1 bc 2e 6e 96 3d
       0.07598743 -0.0038863982 -0.027572349 0.07345234
000050 f9 15 be bd 92 f7 9f bb 48 7e 5e 3d 88 cd 96 38
       -0.09281535 -0.0048818076 0.05431965 7.1908406e-05
000060 39 ad bf bd 07 64 a1 bd 24 b2 5d bc bb 30 f5 b9
       -0.093592115 -0.07880407 -0.013531242 -0.00046766349
000070 62 98 80 3d ab 05 a6 3d 1a e9 c0 3c 0a a6 da bd
       0.06279065 0.0810655 0.023548651 -0.10676201
000080 c9 fc 88 bd b2 1d bb 3c 58 15 81 bc 47 6e 4e 3c
       -0.0668884 0.022841308 -0.015757248 0.012599534
000090 77 1a 6b bd 0d 37 6c 3d d1 31 16 3d bf d2 9f bd
       -0.057398286 0.057669688 0.036668602 -0.078038685
0000a0 76 70 b8 bc 79 85 fa 3d d8 0b d5 3d 91 8a d4 3c
       -0.022514563 0.12232489 0.1040265 0.02594498
0000b0 61 bc db ba 3f c1 20 3c b2 cf 11 bc ea 1b 85 bd
       -0.0016764515 0.009811698 -0.008899616 -0.06499465
0000c0 23 f5 8b b9 2c 17 6e 3d d9 2a ba bc 29 ff 0b be
       -0.00026694787 0.058127567 -0.02272551 -0.13671555
0000d0 7e ed b2 bc 54 bd e7 3d cb 39 37 bc 1f ad a3 3c
       -0.02184176 0.11315408 -0.0111832125 0.019980012
0000e0 17 cb 7d bd ef 97 ca bd 22 24 b5 3c 21 1f 17 bd
       -0.06196126 -0.0989226 0.022111956 -0.03689492
0000f0 f2 c5 c0 bd 4a a6 9c bc 65 a4 aa bc e0 e8 5d 3d
       -0.09412755 -0.019122262 -0.020830343 0.054177165
000100 a5 22 39 3d aa e9 2d 3d 45 2f 1c 3c 96 c7 f6 bc
       0.045199055 0.042459168 0.009532754 -0.030124467
000110 60 f0 6f bc 6e 58 4e bd b5 21 44 3d e8 df 00 bd
       -0.014644712 -0.050377302 0.047883708 -0.031463534
000120 25 df 42 bd 30 14 a6 bd 87 52 0f bc ae 9c 29 bc
       -0.04757609 -0.08109319 -0.008747703 -0.010352297
000130 de dd 26 bd 34 22 a1 bd 97 de 10 bd 70 b9 fb bc
       -0.040738933 -0.07867852 -0.03536853 -0.030728072
000140 72 58 04 3d 61 be 20 be cc c6 7c bb e7 6e b6 3d
       0.03231091 -0.15697624 -0.003857064 0.08907872
000150 32 bf 8d bc 85 34 32 3d fd 08 a9 bc 3a 88 48 bd
       -0.017303083 0.043507118 -0.020634169 -0.04895804
000160 57 c6 1d be 77 66 fb bc 32 60 cc 3c d5 9e 86 bd
       -0.15407692 -0.030688507 0.024948213 -0.065732636
000170 fe 84 8c bc b3 d7 8c 3d 99 f4 c7 bc a8 7f 60 3d
       -0.01715326 0.06877079 -0.024408625 0.054809242
000180 a0 dd 1d 3d c3 11 e1 bc 63 ae 5c 3c 5a 13 ad bd
       0.038541436 -0.02747429 0.013469311 -0.08450957
000190 70 ac e7 bd e2 1b 0f 3d 6f ed c5 bd 2e b4 0f bd
       -0.11312187 0.0349387 -0.096644275 -0.035083942
0001a0 47 c2 9e bc 74 5c a7 3d b9 21 3b bd 08 2e 76 bd
       -0.019379748 0.08171931 -0.045686457 -0.060102493
0001b0 f4 6f 32 3d 3d a4 05 bd 80 82 34 bc 41 3f 31 3d
       0.043563798 -0.032627333 -0.011017442 0.043273214
0001c0 63 0a 03 bd d4 9f b1 3d d8 df 3c bd 00 cc 65 3d
       -0.031992327 0.08673063 -0.04611191 0.056102753
0001d0 a9 8d ca 3c 22 01 e9 3d 73 61 ef bc e9 21 93 3d
       0.024725752 0.11377169 -0.029221272 0.07184202
0001e0 f6 5b 3a 3d b0 a4 f6 bc c0 05 ae 3c 23 ed dc bc
       0.045497857 -0.030107826 0.021242976 -0.026968544
0001f0 1c 2f 9b bd 07 8a a4 bc c8 17 e0 3a ee 17 22 bc
       -0.07577345 -0.020085348 0.0017096931 -0.009893401
000200 2d 48 d3 bd c2 b4 86 bc 15 e4 e3 3d 25 f4 c2 3b
       -0.10316501 -0.016443614 0.111274876 0.0059495145
000210 88 fa ac bd 01 ca 55 bc 32 a7 e7 bc 02 d8 14 bd
       -0.084462225 -0.01304865 -0.028277967 -0.036338814
000220 ba 16 ea 3d 52 ec 45 bd 7d 1f b6 3c b7 31 81 3c
       0.11430116 -0.048321076 0.022231812 0.015770776
000230 c4 cf 35 bd 30 a5 be 3c 8b 45 f0 bc da 5a cb ba
       -0.044387594 0.023272127 -0.029330036 -0.0015514747
000240 f7 a9 4a 3b 66 ae 46 3d 33 4a a0 3c 62 05 4d 3c
       0.003092406 0.048506163 0.019566631 0.01251349
000250 75 85 54 3d f7 66 90 bc 11 b6 dd 3d 63 7b aa 3d
       0.051885087 -0.017627222 0.10825742 0.083243154
000260 a1 83 53 bc 19 0c 0a 3d f5 de 46 3c cd 03 30 3d
       -0.012909801 0.033702943 0.012138118 0.042972375
000270 d8 94 98 3d 6b fc 07 3d 75 bd 03 bd 99 bb 83 3d
       0.07450265 0.03319971 -0.032163102 0.06432266
000280 e3 8e a8 3d 51 d3 43 3d 76 61 be bc 0b 1e 11 3d
       0.082303785 0.04780895 -0.023239832 0.03542904
000290 b5 ea c3 3c 5e e1 21 3e 08 2d 8a 3b 63 ef a8 bd
       0.023915628 0.15808627 0.004216794 -0.082487844
0002a0 2c a8 c0 bd 8f 3e d1 3d ee 08 c6 ba 50 77 08 bd
       -0.09407076 0.1021701 -0.0015108862 -0.03331691
0002b0 a6 da 7c 3c 62 cd 02 be 99 43 94 3c 81 e3 36 bd
       0.015432989 -0.1277366 0.01809864 -0.04465056
0002c0 99 fa 88 3c 2a a6 36 3d 3c f2 97 3d 91 6e 10 bd
       0.016721057 0.04459206 0.074192494 -0.035261694
0002d0 88 18 8a bc 32 ed c0 bb 77 e4 8f 3c cc 5f 46 3e
       -0.0168574 -0.005887651 0.017564995 0.19372481
0002e0 69 83 47 b9 c2 82 bf bd 1a 2e ea bd e5 34 95 bc
       -0.00019027073 -0.09351112 -0.114345744 -0.018213699
0002f0 d8 f1 b2 bd cd 39 89 3c 3b e2 af 3d 66 96 39 3d
       -0.08737534 0.016751194 0.08588072 0.045309447
000300 46 00 45 bd b3 88 da bc ce 45 c6 3c bc 95 cb 3d
       -0.048095964 -0.026676511 0.024203207 0.09940669
000310 84 9e 67 bb b9 e9 bd 3d e1 0f 5d 3d fd 6a b6 bd
       -0.0035342285 0.09273095 0.05397022 -0.08907125
000320 4e 4a 0c bd 86 15 f7 3d 6b 43 bb bc 47 cf 60 3d
       -0.03425055 0.12064652 -0.022859296 0.054885175
000330 6c 7c 04 3e 61 b4 86 b9 37 a6 8a 3d 0e 6d 9b 3c
       0.12938088 -0.00025692864 0.06769984 0.0189729
000340 50 a0 a5 bb 94 b0 11 be cb 9e cd 3d ef 8a 9f 3d
       -0.005054511 -0.14227515 0.10040053 0.07790171
000350 65 6e ce 3d 78 4c 93 bd 91 2b 88 bc 17 25 f3 3c
       0.1007965 -0.0719232 -0.016622337 0.029680772
000360 08 3a 91 bd a8 68 88 bb b9 ca b6 3b 30 f0 13 bd
       -0.07091147 -0.0041628666 0.0055783656 -0.036117733
000370 e6 93 cf 3d ff 4a 08 bc c2 80 25 be 4b 20 f6 bc
       0.10135631 -0.008318662 -0.16162398 -0.030044695
000380 1d 4e 87 bd 5b 09 37 3d 4f 60 0a bb de 13 b7 bc
       -0.06606696 0.044686656 -0.0021114533 -0.02234834
000390 b3 ae 85 b9 b4 c7 60 bd 6c b6 a0 bc 30 3b 7a 3d
       -0.00025497898 -0.05487795 -0.019618236 0.0610916
0003a0 05 41 bb 3d e4 ff b0 bc aa fc 44 bc 14 82 da bd
       0.09143261 -0.021606393 -0.01202313 -0.10669342
0003b0 ec 33 1f 3d de ec 3c 3d 8e 5e 97 bd 6a 08 ab bd
       0.038867876 0.04612433 -0.07391082 -0.08351214
0003c0 8c f5 41 bd 17 27 96 3d 4b 87 b8 bc 01 d6 ba 3c
       -0.047353312 0.073316745 -0.02252545 0.022807123
0003d0 cc 2d e8 b9 3e e3 ab 3d 61 e7 28 3e 86 62 49 bd
       -0.0004428461 0.083929524 0.16494514 -0.049166225
0003e0 14 ca c7 bc 79 21 2c 3d 1e a0 1c 3d 18 46 ac 3b
       -0.02438835 0.04202411 0.038238637 0.0052573793
0003f0 98 dd 3a 3c ac 28 99 bd 61 18 2f bd 39 6e b1 bd
       0.011405371 -0.07478461 -0.04274786 -0.086636014

network2.3.bias f4 [64]
000000 aa 54 75 3d 66 7b 7b bc b8 e6 c2 3d a0 6c 2d 3d
       0.059895195 -0.015349245 0.09516662 0.04233992
000010 b3 27 36 bc 48 6b 38 3e 39 a5 05 3e 9c 83 0e 3e
       -0.0111178635 0.18009675 0.13051309 0.13917392
000020 b8 13 19 be 6b 8c fd 3d eb c3 b8 bb 88 f5 2b 3d
       -0.14948928 0.12380298 -0.0056385896 0.041982204
000030 7e 8e 9f bd 7b 27 8f 3d d8 f4 93 3d 2d d5 83 bd
       -0.0779085 0.06989952 0.072244346 -0.064371444
000040 e9 2a 5a 3d 1e 95 93 3d 00 67 ea 3d ce 1b 79 bd
       0.05326358 0.07206176 0.11445427 -0.060817532
000050 ea d3 71 bd 17 5d 0e 3e ab f8 46 3c 59 6f 51 3d
       -0.059039988 0.13902698 0.012144248 0.05113158
000060 dc cd 30 3c bb 29 47 3d 07 b8 ef 3d e9 c2 55 3d
       0.010791268 0.04862378 0.11705022 0.052187834
000070 97 3f f2 3d 4b 6a 08 3e 51 0d dc 3c 98 17 42 bd
       0.11828535 0.13321798 0.026861819 -0.047385782
000080 46 dd ad bc b8 c5 15 3d 01 53 57 3d 3d 6f ab 3c
       -0.021223675 0.036565512 0.052569393 0.020927066
000090 52 67 4e 3d 6f 00 70 bc b1 86 b9 3d e8 cd b1 bd
       0.050391503 -0.014648541 0.090588935 -0.086818516
0000a0 10 13 34 3c 89 06 9a 3d a6 26 db 3d f2 98 cc bd
       0.010990873 0.07520778 0.10700731 -0.099901095
0000b0 f8 f0 f9 3d fb 1e 29 3e a9 b5 b2 3d df 40 1c 3e
       0.12204164 0.16515724 0.08726055 0.15259121
0000c0 14 cb 99 3c 66 e7 48 3d 23 b8 9b bc 49 aa 97 3d
       0.018773593 0.049048804 -0.019008702 0.07405526
0000d0 a8 2b 95 3c 05 64 26 3d 57 79 5a 3e 20 b7 32 bc
       0.018209293 0.04062273 0.2133535 -0.010907918
0000e0 ab 6e e0 3d b5 fb ed bc 0f 8a 2c bd f6 63 d6 bd
       0.10958608 -0.029050687 -0.04212385 -0.10468285
0000f0 68 2b ea bc 4d de f5 bc 78 d9 e1 bd 9e 6d 7a bd
       -0.02858515 -0.030013228 -0.11027807 -0.061139695

network2.6.weight f4 [32, 64]
000000 d8 97 a0 3d 35 5d d8 3c 5a 20 53 3d 7d e7 2c bd
       0.07841462 0.026411632 0.051544525 -0.042212952
000010 95 8d cc bd fc 07 88 3e 63 0d 73 3d a7 e7 41 3e
       -0.09987942 0.26568592 0.05933894 0.18936025
000020 dd 5c 37 3d 10 66 1e bd 5d b6 66 bd 7d 66 7c 3c
       0.044766296 -0.038671553 -0.05632626 0.0154052945
000030 3a 0c 8b 3d 71 99 b2 3d 1a 83 be bd 91 7b ae bd
       0.067894414 0.08720673 -0.093023494 -0.08519662
000040 ae ad cd 3d 24 f6 aa 3d 5a 89 0e 3e 8a a1 06 3e
       0.100428924 0.08347729 0.13919583 0.1314756
000050 ec 42 1a 3c 22 42 ee 3d 97 2d a7 3d bb 1d 24 3e
       0.0094153695 0.116337076 0.081629924 0.16026966
000060 4e af 25 bd b9 a6 bb 3d 47 9f d0 3c 87 25 d9 3d
       -0.040450387 0.09162659 0.025466574 0.10602861
000070 91 b1 83 3d cc 8b 62 bc 8e 38 44 3e e0 65 32 bd
       0.064303525 -0.0138272755 0.19162199 -0.043554187
000080 57 50 03 3e a7 78 99 bc 49 b5 aa 3d 26 a6 1a 3c
       0.12823616 -0.01873429 0.08335359 0.009439027
000090 55 68 3a 3e 79 cf 7a bd f9 66 64 3c 44 44 3f bd
       0.18203862 -0.061233018 0.013940566 -0.046695963
0000a0 5e 2f 40 3c 74 bc 2d 3e 3e 60 30 3e 8d 1c 5d 3d
       0.011730043 0.1696642 0.17224213 0.053982306
0000b0 15 61 b8 3d c1 1a 77 3e a7 47 bc 3d fd 56 8a 3e
       0.09002892 0.241313 0.09193354 0.27019492
0000c0 90 b4 4d bc f5 d2 07 3e 6a 5f 8b bc 02 ca b5 3c
       -0.0125552565 0.13264067 -0.01701327 0.022191051
0000d0 ed b6 05 be ed 34 71 bc e1 a2 81 3e 46 50 b8 bc
       -0.13058062 -0.014722091 0.2531958 -0.022499215
0000e0 3d f6 26 bd f6 89 d7 bd 17 00 dd bc 11 94 75 3d
       -0.040762175 -0.10524361 -0.026977582 0.05995566
0000f0 71 46 db 3d ac d3 53 3d e8 44 b4 3c 2f 36 e7 bd
       0.10706795 0.051715538 0.022005513 -0.112896316
000100 cd b6 9c 3d e1 b5 ae 3d 7c 3c f2 3d 32 85 2f bc
       0.07652054 0.085307844 0.11827943 -0.010712909
000110 b6 e3 56 3d 96 01 ae bd cb 0f 18 3d 40 80 88 3d
       0.052463256 -0.08496396 0.037124436 0.06665087
000120 34 97 a1 3d 43 89 b6 39 32 3c 15 3e cc da d4 3c
       0.07890168 0.00034816013 0.14573744 0.025983237
000130 a6 82 a0 bd e0 36 28 bd 13 66 ce bd 8a 16 b2 3d
       -0.07837419 -0.041067958 -0.10078063 0.08695705
000140 d2 f2 fb 3d 7a d1 e6 3d e0 1b 4b bd 34 2f ae 3d
       0.12302174 0.11270423 -0.04958713 0.08505097
000150 03 95 a3 3c 0b 5e 15 3e 7d 06 f9 3d 5b 88 88 3d
       0.019968515 0.14586656 0.12159441 0.06666633
000160 25 fb 5c 3d ea a6 a5 3c 28 64 d9 bd 3a 09 a8 3d
       0.053950448 0.020221192 -0.106148064 0.08204885
000170 29 e1 0f bd ba 7b e4 bc a9 7f d2 bd d4 94 f7 bc
       -0.03512684 -0.027891029 -0.102782555 -0.030222334
000180 63 c2 83 3d c2 f4 31 3d 43 4a 9d bc 0e 8c 82 bd
       0.06433561 0.04344631 -0.01920045 -0.063743696
000190 cc e4 58 3c 48 2f 9a 3d 7f 79 ce 3d 82 7b 92 3d
       0.013238143 0.075285494 0.10081767 0.071524635
0001a0 81 91 2c 3c b7 e9 f6 bc 64 44 38 bd d2 dd 0a 3d
       0.010532738 -0.03014074 -0.044987097 0.03390295
0001b0 f1 53 8a bd 6a 35 be 3d 9a 4f d4 3d 0c bb 41 bd
       -0.06754292 0.09287532 0.10366745 -0.047297522
0001c0 4f 89 91 bd 41 24 e5 bd 41 7d 19 3e 71 ad e5 3d
       -0.07106268 -0.111885555 0.14989187 0.11214722
0001d0 3f f7 1b bd 69 a4 c0 3d 53 70 86 bc 94 e5 15 3e
       -0.03807759 0.09406359 -0.016410982 0.14638358
0001e0 3d 5c e3 3d 7e f1 92 3c f7 97 ed bc 68 65 34 be
       0.111015774 0.017937418 -0.029003127 -0.17616808
0001f0 17 39 9c bd cc e5 22 3d 6a d5 0a bc ab 9b cd bd
       -0.076280765 0.039769933 -0.008473733 -0.10039457
000200 69 d9 4d 3d 45 c3 d5 3d a9 21 1f bd b7 e5 31 bd
       0.050256167 0.10437635 -0.03885046 -0.043431964
000210 90 ad 85 3c b5 e4 4a 3d c1 b2 22 bd e5 2b 0e 3e
       0.016318113 0.04953452 -0.039721254 0.13883932
000220 4e 65 85 3d 91 1b f3 ba e3 79 49 3d 06 6f 7e 3c
       0.06513463 -0.0018547644 0.049188506 0.0155294
000230 a0 46 03 3e 44 3b 0f 3d a4 2d 25 be 85 61 c3 3d
       0.1281991 0.03496863 -0.16130692 0.09540085
000240 4d 89 20 3e a9 bf 93 3d e2 2e 21 3e 1c 28 c7 3d
       0.15677376 0.07214291 0.1574054 0.09724447
000250 a2 68 91 bd 52 d7 e1 3d a1 84 a6 3b ca 5c be 3d
       -0.07100035 0.11027397 0.0050817286 0.09295042
000260 55 cf 27 3e 33 b6 d1 bb 15 5a a9 bd dd 94 c6 3c
       0.16387685 -0.0063998937 -0.08269135 0.024240905
000270 d6 82 d9 bd 92 eb f0 bd 9a 38 bc bd cf d5 c7 bc
       -0.10620658 -0.117636815 -0.091904834 -0.024393944
000280 6b 0e 4c 3d 70 0e e5 bd a4 7a 42 bd b1 06 1f bd
       0.049818438 -0.11184394 -0.04748024 -0.03882474
000290 dc 63 cc bb 1d f5 8b 3d 1c cd a0 bd cb 75 5d 3d
       -0.00623749 0.06833861 -0.078516215 0.054067414
0002a0 1c 29 50 bd 71 64 96 3d 3e b0 61 3c 04 9f cb 3c
       -0.050820455 0.073433764 0.01377493 0.024856098
0002b0 df 50 aa bd 79 fa 93 3c 93 a8 1b 3d c4 7c 0a bd
       -0.08316206 0.01806377 0.03800256 -0.033810392
0002c0 0b 01 8f ba 53 f4 31 bc 6d 25 11 bd de 6a e6 3d
       -0.0010910345 -0.010861474 -0.035436083 0.11250852
0002d0 b5 c2 cc bd 91 5c 0c bb ad d4 b2 bc 6a ce 55 bd
       -0.09998075 -0.0021417479 -0.021829927 -0.052198805
0002e0 22 49 31 3d 9b 91 46 bd df 9c 45 bd ca e5 88 3d
       0.043282636 -0.048478704 -0.048245307 0.06684454
0002f0 de 09 b2 3c 74 06 73 3d 48 28 8f 3d 9e 5c ee bd
       0.02173322 0.059332326 0.06990105 -0.11638759
000300 5f 34 21 3d c9 90 9f bd 60 55 0b bd f5 99 fc bd
       0.039356586 -0.077912875 -0.034016967 -0.123340525
000310 b3 95 0d bd 23 36 44 3e 6a 04 8b bd 2d f0 f2 3d
       -0.034566592 0.19161277 -0.06787951 0.11862216
000320 2b 2a a9 bd 40 f8 0a bd f9 64 d7 bd bf 24 f7 bd
       -0.08259996 -0.033928156 -0.10517306 -0.12067556
000330 8e 72 0d bd 7d 28 35 bd 22 a6 cd 3c 03 36 d0 bd
       -0.034533076 -0.044228066 0.025103632 -0.10166552
000340 4a 82 d7 bd 01 ce 21 bd 75 2c 98 3c 27 cc c5 bd
       -0.105228975 -0.0395031 0.018575886 -0.096580796
000350 bd 88 49 bc f6 87 fd bb 67 b2 87 bd d3 04 e8 3c
       -0.012300667 -0.007737155 -0.066258244 0.028322613
000360 eb 38 b4 3c 39 13 40 3c 8b ec 14 3e e9 66 b0 bd
       0.021999797 0.011723333 0.14543359 -0.086133786
000370 25 a1 db 3d 76 1b 23 3e 04 3a 8b bb c9 aa 06 be
       0.10724095 0.15928444 -0.0042488594 -0.13151087
000380 7f 05 90 bd 9b 1f 2b 3d e4 23 ad 3c d0 52 23 37
       -0.07032298 0.04177819 0.021135278 9.734838e-06
000390 82 41 b8 bc c2 40 eb bd f0 82 74 bb ac fb 98 bd
       -0.022492174 -0.11486961 -0.003730949 -0.074698776
0003a0 53 e6 2e 3c 01 19 4d 3e 89 a2 09 3e 29 84 81 bd
       0.010675031 0.2002907 0.13440908 -0.06324036
0003b0 54 06 5a bc 5f 24 90 3c 09 6c f6 3d 6d 88 14 3e
       -0.013307173 0.017595468 0.12032325 0.14505167
0003c0 7e 9d 9a 3c df 6b e8 bd 2e c3 29 bc a9 39 74 bd
       0.018873926 -0.113487 -0.010361476 -0.0596253
0003d0 8c 61 47 bd 29 a9 4a 3d d2 12 59 3d c7 7c 0a be
       -0.048677012 0.04947773 0.052996464 -0.13524161
0003e0 ec 7b b1 bd cb 77 e2 3c 0e 4d 01 bd 8e 6d 5e bd
       -0.08666214 0.027645012 -0.031567626 -0.0543037
0003f0 89 38 ba 3d c0 22 ea bd a5 9f 65 bd 42 34 be bd
       0.090928145 -0.11432409 -0.056060452 -0.09287311

network2.6.bias f4 [32]
000000 28 3d 93 3e fa 46 c3 3d fa 06 c1 3c a6 cb be 3e
       0.28757596 0.09535022 0.023562897 0.37264746
000010 3c 35 87 3e b6 e1 94 3e 78 48 06 be ee 6a 48 bd
       0.26407802 0.29078454 -0.13113582 -0.0489301
000020 67 fc e1 bc 55 4e 8d 3d fe 16 f6 3b b5 68 3f bd
       -0.027586175 0.06899706 0.007510065 -0.046730716
000030 5a 67 0b be 0e 96 71 3d 1d 10 2e 3d 92 14 a5 bd
       -0.13613644 0.058980994 0.042495836 -0.08060564
000040 22 77 7b bc 7c 38 e5 bc 38 ef f4 bd 6f ae 98 3e
       -0.015348228 -0.027981035 -0.1195969 0.29820582
000050 be e8 d0 3c d0 a5 10 be b4 62 04 3d 86 1d e2 bc
       0.025501605 -0.14125752 0.032320693 -0.027601968
000060 62 cc 89 bd 65 9d 37 3d fa 70 a3 3e 25 cc 8a 3e
       -0.06728436 0.044827837 0.31922132 0.27108875
000070 86 c4 fd 3d 3a ce d4 3d e6 fb 86 3d fa ed cb bd
       0.123909995 0.10390897 0.065910146 -0.099575
