models/Classifier_FC_32.pth (torch, 412829 bytes, 39 tensors)

network.0.weight f4 [64, 32]
0	0x3c82e64b	0.015978953
1	0x3c401550	0.011723831
2	0x3d5d91b0	0.054094017
3	0xbd396f45	-0.04527213
4	0xbd80c492	-0.06287493
5	0x3d87848e	0.0661708
6	0xafd67694	-3.9010628e-10
7	0xbd92aa37	-0.07161372
8	0x80008b0b	-4.9879e-41
9	0x3e1d13ad	0.15339537
10	0xbe152042	-0.14563087
11	0x8000ad5c	-6.219e-41
12	0x3e1de549	0.15419497
13	0x3d2c3afe	0.042048447
14	0xbd1179c8	-0.03551653
15	0x80008b7e	-5.004e-41
16	0xbe2abc81	-0.16673471
17	0x3dc586fc	0.09644887
18	0x3dc98690	0.09840119
19	0x3e1c159a	0.15242615
20	0x3c80ca9c	0.015721612
21	0xbe67837b	-0.2260875
22	0xbd92346c	-0.07138905
23	0x80008ecb	-5.1224e-41
24	0x3d8c0846	0.068375155
25	0x00008b58	4.9987e-41
26	0x3d8eef24	0.06979206
27	0xbddf5d67	-0.10906487
28	0x3e06799f	0.13132332
29	0xbd8d968c	-0.0691348
30	0x800089bb	-4.9408e-41
31	0xbe36b4f5	-0.17842467
32	0xbe8f5e19	-0.28001478
33	0xbdbac3b6	-0.0911936
34	0x3d1be4ca	0.038059987
35	0xbe3d6646	-0.18496045
36	0x3d2d2efd	0.04228114
37	0x3cf26844	0.029590733
38	0x00009129	5.2074e-41
39	0xbb19a282	-0.002344281
40	0x80008aee	-4.9839e-41
41	0xbe496302	-0.19666675
42	0xbd26686d	-0.040626932
43	0x0000cc45	7.3278e-41
44	0xbdf18655	-0.117932
45	0x3d9d1f4c	0.07671985
46	0xbdac915c	-0.084261626
47	0x00008988	4.9337e-41
48	0xbe2c913f	-0.16852282
49	0x3c255874	0.01009189
50	0x3e0d42a3	0.13794951
51	0x3dc543ff	0.0963211
52	0xbe37271a	-0.1788601
53	0x3db57aac	0.088612884
54	0x3e07f667	0.13277589
55	0x80008e7e	-5.1117e-41
56	0x3e1ea3c7	0.15492164
57	0x80008ac0	-4.9774e-41
58	0xbc3270f8	-0.010891192
59	0x3d9bc1eb	0.07605346
60	0x3c844419	0.016145753
61	0x3dc90068	0.098145306
62	0x00008c2b	5.0283e-41
63	0xba145950	-0.00056590606
64	0xbd412d64	-0.04716243
65	0x3dc2d3d7	0.095130615
66	0xbd3c44ab	-0.045963924
67	0xbda01022	-0.07815577
68	0x3cf2c60e	0.029635455
69	0xbe3ebac6	-0.18625936
70	0x8000ae67	-6.2564e-41
71	0x3d1ab3e7	0.037769224
72	0x00009c55	5.6081e-41
73	0xbd8c4a96	-0.06850164
74	0x3de031b7	0.10946982
75	0x80008e3b	-5.1023e-41
76	0xbe6009cc	-0.21878737
77	0x3c1b2d87	0.009471304
78	0x3e153d21	0.145741
79	0x00008bf7	5.021e-41
80	0xbd2f6772	-0.042823263
81	0x3d926f56	0.07150142
82	0xbe8681b7	-0.2627084
83	0xbd329699	-0.043600652
84	0x3d2ba16e	0.041902
85	0x3baaf59f	0.0052172686
86	0x3d7129b4	0.05887766
87	0x00006149	3.49e-41
88	0xbdb42917	-0.087969
89	0x0000af59	6.2903e-41
90	0xbd4a77a7	-0.049430516
91	0x3e0df972	0.13864687
92	0xbd1d9d04	-0.03847982
93	0xbd1a7826	-0.03771224
94	0x0000890e	4.9166e-41
95	0xbe9b0de8	-0.30284047
96	0xbe4980ba	-0.19678012
97	0x3d7e9374	0.06215234
98	0x3d12ccf6	0.035839997
99	0x3e1b74cf	0.15181278
100	0xbdedde65	-0.11614684
101	0xbda64051	-0.08117736
102	0x2520ed38	1.395816e-16
103	0xbe029043	-0.12750344
104	0x0000ac8d	6.19e-41
105	0xbdf14ac0	-0.117818356
106	0x3de742e1	0.11292053
107	0x00009725	5.422e-41
108	0x3d511f6d	0.05105536
109	0x3cb8daf2	0.022565339
110	0xbcc4fdfb	-0.024046889
111	0x00008987	4.9336e-41
112	0xbc1cd79d	-0.009572891
113	0xbd6b065f	-0.057379123
114	0x3ddf277e	0.108962044
115	0x3ded4171	0.115847476
116	0xbdddc9f2	-0.10829534
117	0x3e05d10e	0.1306803
118	0xbd2716f1	-0.040793363
119	0x000091b8	5.2274e-41
120	0xba846dde	-0.0010103544
121	0x80008ad0	-4.9797e-41
122	0xbcf8d3e0	-0.030374467
123	0x3de17dad	0.11010299
124	0xbe104d0f	-0.14091896
125	0xbe031489	-0.12800802
126	0x00008928	4.9202e-41
127	0x3d13f8f3	0.03612609
128	0x3e07ee23	0.13274436
129	0xbdab6715	-0.08369271
130	0x3dbcbccd	0.092156984
131	0xbe26d3c3	-0.16291718
132	0x3d37c33e	0.04486393
133	0xbd96deb6	-0.073666975
134	0x000099a5	5.5117e-41
135	0x3c82346e	0.015894141
136	0x8000a49a	-5.9048e-41
137	0x3df889cc	0.12135658
138	0xbd5d23cf	-0.053989228
139	0x00008a04	4.951e-41
140	0x3cec74d5	0.028864304
141	0x3de5cf89	0.11221225
142	0x3dbad464	0.091225415
143	0x80009125	-5.2068e-41
144	0x3d14e1e6	0.036348246
145	0xbb65c1a5	-0.0035058048
146	0xbd1e077f	-0.038581368
147	0xbe019744	-0.1265536
148	0x3dcb9d77	0.099421434
149	0xbe2968ea	-0.16543928
150	0xbe09bde7	-0.13451348
151	0x80008cf0	-5.0559e-41
152	0xbe5b41df	-0.21411847
153	0x00008928	4.9202e-41
154	0xbe285d3f	-0.1644182
155	0x3d9d48af	0.07679879
156	0x3e0c052d	0.1367385
157	0x3daea703	0.08527949
158	0x80008c90	-5.0424e-41
159	0xbd81bc16	-0.06334703
160	0xbd3ad6e2	-0.045615084
161	0x3da92e17	0.08260744
162	0x3e04e425	0.12977655
163	0xbdeac167	-0.1146267
164	0xbdea2b59	-0.11434049
165	0x3e5064e9	0.20350994
166	0xa03350aa	-1.5188579e-19
167	0x3d163063	0.03666724
168	0x00008d11	5.0605e-41
169	0x3da72b49	0.08162553
170	0xbe384ece	-0.17998812
171	0x80008c7b	-5.0395e-41
172	0x3e394ace	0.18094942
173	0x3dd22268	0.10260469
174	0xbe28039a	-0.16407624
175	0x00008d80	5.076e-41
176	0xbdc8d523	-0.098062776
177	0xbdb42c72	-0.0879754
178	0xbd58c928	-0.052926213
179	0xbd4cff51	-0.050048176
180	0xbc086463	-0.008324715
181	0xbd0ab1d4	-0.033860996
182	0xbe115e78	-0.14196193
183	0x0000892a	4.9205e-41
184	0xbb71a172	-0.003686991
185	0x80008a78	-4.9673e-41
186	0x3d9a7818	0.07542437
187	0x3e08d392	0.13361958
188	0x3ce78eb9	0.028266298
189	0x3d8576a7	0.06516772
190	0x000089c9	4.9428e-41
191	0x3d07ca96	0.033152185
192	0xbe6fdc0a	-0.23423782
193	0xbd933dba	-0.07189508
194	0x3c4ba1a4	0.012428675
195	0x3cad46e6	0.021151971
196	0x3dd76a41	0.10518313
197	0x3d2a7f81	0.041625503
198	0x390bac97	0.00013320368
199	0xbc93bb0f	-0.018033532
200	0x80008bbb	-5.0126e-41
201	0x3d9b9870	0.075974345
202	0xbdcd816a	-0.100344494
203	0x8000896e	-4.93e-41
204	0x3df3b29d	0.11899302
205	0x3c59ade7	0.01328609
206	0x3e40ad9e	0.1881623
207	0x800089b0	-4.9393e-41
208	0xbc8165d6	-0.01579563
209	0xbd5845ac	-0.05280082
210	0x3d8f2047	0.06988578
211	0x3cd86a8b	0.026417991
212	0xbe1c870e	-0.15285894
213	0x3e00b4c5	0.12568958
214	0x3d0af0f9	0.033921216
215	0x000088c2	4.906e-41
216	0x3de4a74b	0.11164721
217	0x8000896e	-4.93e-41
218	0xbb660c40	-0.0035102516
219	0xbd4c4cea	-0.04987804
220	0xbe10f222	-0.14154866
221	0xbdedd40a	-0.11612709
222	0x800088e1	-4.9103e-41
223	0x3e7e4406	0.24830636
224	0xbcfa2478	-0.030534968
225	0xbe4825c5	-0.19545658
226	0x3d444983	0.04792167
227	0xbd697ad5	-0.057001907
228	0x3d29a7ab	0.041419666
229	0xbe0ec9dc	-0.1394419
230	0x80009374	-5.2896e-41
231	0xbdb3e8db	-0.08784648
232	0x80008b0e	-4.9883e-41
233	0x3dd720e7	0.105043225
234	0x3d5c139c	0.05372964
235	0x00008af4	4.9847e-41
236	0xbd255262	-0.04036177
237	0x3c5c6a4d	0.013453078
238	0x3c2c3ed8	0.01051303
239	0x0000947c	5.3266e-41
240	0xbe1dc615	-0.15407594
241	0xbdc6ea5e	-0.09712671
242	0x3e198558	0.14992273
243	0x3d61c78b	0.05512194
244	0xbe194cef	-0.14970754
245	0xbd94b776	-0.07261555
246	0xbd780728	-0.0605537
247	0x00008a69	4.9652e-41
248	0xbdaa3163	-0.08310201
249	0x80009a03	-5.5249e-41
250	0xbe0d3d9c	-0.13793033
251	0x3e0e6aa8	0.13907874
252	0x3e04ad50	0.12956738
253	0x3e0ad183	0.13556485
254	0x80008959	-4.9271e-41
255	0xbd788c3b	-0.06068061

network.0.bias f4 [64]
0	0x3e05320a	0.1300737
1	0x3d0d69fe	0.03452491
2	0x3e01aa01	0.12662508
3	0x3cd75431	0.026285263
4	0x3e08b587	0.13350497
5	0x3e55033f	0.2080202
6	0x3dc592d2	0.096471444
7	0xba6ae232	-0.00089600973
8	0x3dc4a56d	0.09601865
9	0x381fdfdd	3.8117043e-05
10	0xb972d722	-0.00023159062
11	0xbe0a08ea	-0.13479963
12	0x35fb66f5	1.8730922e-06
13	0x3d72ce81	0.05927897
14	0xbd989df0	-0.07451999
15	0xb9852307	-0.00025393834
16	0x3dcda3c8	0.100410044
17	0x3e331e88	0.17492115
18	0x3e24ca8d	0.16092892
19	0xbdf7717c	-0.12082192
20	0xbc256fa9	-0.010097423
21	0x39c48702	0.00037484622
22	0xbb80e548	-0.0039335825
23	0xbd66371d	-0.056204904
24	0xbc64ae30	-0.013957545
25	0x3d356dbe	0.04429411
26	0xbe36df19	-0.17858543
27	0x3a824f5f	0.0009941867
28	0xbdac5887	-0.08415323
29	0x3dac1798	0.08402938
30	0x3b4a7fcf	0.0030898934
31	0xba07f201	-0.00051859027
32	0xbdb3a89a	-0.087723926
33	0x3c3072f4	0.010769594
34	0x3d49042b	0.04907624
35	0xbc4ca8e9	-0.012491443
36	0x3d88cfd3	0.06680264
37	0xbbb60f17	-0.005555998
38	0xbd9a7c0a	-0.0754319
39	0xbd897d9b	-0.067134105
40	0xbb26c6ad	-0.002544801
41	0x3caa9a69	0.020825582
42	0xbd1abcbf	-0.03777766
43	0xbd3d0a1a	-0.04615221
44	0xbc14042d	-0.009034199
45	0x3e07beaf	0.13256334
46	0x3dcc2250	0.09967482
47	0x3c6d9105	0.014499907
48	0xbd8e4a9e	-0.06947826
49	0x3cf30600	0.029665947
50	0xbd5ff066	-0.05467262
51	0xbdf6ec78	-0.120568216
52	0x3dc5fde0	0.096675634
53	0x3e5b4562	0.21413186
54	0x3ce03306	0.02736808
55	0xbd025f2f	-0.031829055
56	0x3b30a0a7	0.0026951225
57	0xbe220647	-0.15822707
58	0xbe1715d1	-0.14754416
59	0x3a862e9b	0.0010237278
60	0xbd91f17f	-0.0712614
61	0x3d9e7dcb	0.07738837
62	0xb1858ac9	-3.8865875e-09
63	0xbdb44362	-0.08801915

network.3.weight f4 [64, 64]
0	0x3d8a72e5	0.06760196
1	0xbe07c91f	-0.13260315
2	0xbc9d8f52	-0.01923338
3	0xbe19c3b5	-0.15016063
4	0x3d1ae8a7	0.03781953
5	0x3a59e188	0.00083115
6	0xbc83b8b4	-0.016079284
7	0x3d4b4521	0.049626473
8	0x3c739382	0.014866712
9	0x3d15eb11	0.03660113
10	0x39ed4b0b	0.00045260074
11	0xbd060232	-0.032716937
12	0x3bfb9a9f	0.0076783444
13	0x3da4ac8b	0.080407225
14	0x3cd3cf6c	0.025855742
15	0x3cfa38c8	0.030544654
16	0xbc6c5e63	-0.0144268
17	0x3d8ddcea	0.06926902
18	0x3d3590d2	0.044327565
19	0xbe19da26	-0.15024623
20	0xbca62d32	-0.020285223
21	0x3bab1d53	0.0052220016
22	0xbd088d86	-0.033338092
23	0xbdab16a7	-0.0835393
24	0x3ca74a01	0.02042103
25	0xbdaae521	-0.08344484
26	0x3c26d83d	0.010183391
27	0x3d83785f	0.06419443
28	0xbdf0b1c1	-0.11752654
29	0x3c1fda48	0.009756632
30	0xbdd0a0e3	-0.10186937
31	0x3d0b53a6	0.03401532
32	0x3ce07124	0.0273977
33	0xbd7b8709	-0.061408076
34	0x3d188bab	0.037242573
35	0xbc17ccad	-0.009265107
36	0xbd2208de	-0.039559238
37	0xbc6e92c1	-0.014561356
38	0xbdbb8f95	-0.091582455
39	0x3c1f4346	0.009720629
40	0x3d9cccfa	0.07656284
41	0xbd04ced8	-0.032423824
42	0xbe60eaaf	-0.21964525
43	0xbdd83d32	-0.10558547
44	0x3da9be9d	0.0828831
45	0xbd007aef	-0.03136724
46	0x3cff371e	0.031154212
47	0xbd256ad6	-0.04038509
48	0xbd8619cc	-0.06547889
49	0xbcda2f63	-0.026633924
50	0xbced1f54	-0.028945602
51	0x3d22ea90	0.039774477
52	0x3d3e0bf3	0.046398114
53	0x3d92f477	0.07175534
54	0xbd799a56	-0.0609382
55	0xbcc79330	-0.024362177
56	0x3c671328	0.014103688
57	0xbd4d6bfa	-0.050151803
58	0xbddf1caa	-0.10894139
59	0x3c61d47a	0.0137835685
60	0xbe0eef5d	-0.13958497
61	0xbc4f9586	-0.0126699265
62	0xbc0fe291	-0.008782045
63	0x3d6d2927	0.057900574
64	0xbd40a95f	-0.047036525
65	0xbe1a43c3	-0.15064912
66	0xbd02a2d6	-0.031893574
67	0x3d9afbf0	0.075675845
68	0xbc43fe9d	-0.01196256
69	0x3d74f64e	0.059805207
70	0x3c76d397	0.015065095
71	0xbd0a8ba6	-0.033824585
72	0x3d952b6c	0.07283673
73	0x390a20a8	0.00013172871
74	0xb6488492	-2.9879488e-06
75	0xbd9e19ff	-0.07719802
76	0x3b8d6663	0.004315184
77	0x3dbfcf8c	0.09365758
78	0xbdbcb760	-0.092146635
79	0x3b1bcf86	0.0023774817
80	0xbca533a0	-0.020166218
81	0x3cab78b3	0.020931577
82	0xbdf5cfe4	-0.120025426
83	0xbe6d97a6	-0.2320238
84	0xbb9b01c1	-0.0047304337
85	0xb9fafa87	-0.00047870373
86	0x3c6617d0	0.014043763
87	0xbd9f6681	-0.07783223
88	0x3c3fed9c	0.011714365
89	0x3d7b9678	0.061422795
90	0xbd954fdf	-0.07290625
91	0x3d014c09	0.031566653
92	0xbceee004	-0.029159553
93	0xbde5cc2d	-0.11220584
94	0xbe5613f5	-0.2090605
95	0xbaa8e9c9	-0.0012887056
96	0x3de5594c	0.11198673
97	0xbdfa77d2	-0.12229885
98	0x3ce0e138	0.027451143
99	0xbe307cea	-0.17235151
100	0xbc56c3ad	-0.013108176
101	0x3cfb604f	0.030685572
102	0xbdfa40bd	-0.12219379
103	0x3d274832	0.040840335
104	0x3cdb2671	0.026751729
105	0x3caf1f48	0.02137722
106	0xbe396fde	-0.1810908
107	0x3c565c9e	0.013083605
108	0x3da0139b	0.078162394
109	0xbc6c947d	-0.014439699
110	0xbccfa123	-0.02534539
111	0x3c45c89f	0.012071758
112	0xbd90e8ea	-0.07075675
113	0xbdf0e228	-0.11761886
114	0x3c0b8429	0.008515396
115	0xbd795859	-0.06087527
116	0xbc9b474e	-0.0189549
117	0x3e1108dd	0.14163537
118	0xbd8a7ddd	-0.06762288
119	0x3cf77b2b	0.030210098
120	0x3c581289	0.013188013
121	0xbe3a8b1c	-0.18217129
122	0xbda21adf	-0.079152815
123	0x3cca06dc	0.024661474
124	0xbcde9294	-0.027169503
125	0xbd0b772e	-0.034049205
126	0xbb9e8277	-0.00483733
127	0x3d054568	0.032536894
128	0xbd00a90c	-0.031411216
129	0x3e101512	0.14070538
130	0x3cb2518b	0.021767398
131	0x3dac64e0	0.08417678
132	0xbd726165	-0.059174914
133	0xbe002905	-0.12515648
134	0x3d9ce333	0.07660522
135	0xbd15cc4f	-0.036571797
136	0x3d44ff4a	0.048095025
137	0x3c18c74d	0.009324861
138	0xbb5e270a	-0.003389778
139	0x3da90944	0.082537204
140	0x3c950b52	0.018193875
141	0x3cc7e552	0.02440134
142	0xbd4d3480	-0.050098896
143	0x3cd7ae65	0.026328275
144	0x3e164388	0.14674199
145	0x3c9a8a8a	0.018864889
146	0x3d38fc64	0.045162573
147	0xbd48db1c	-0.049037084
148	0x3c59090e	0.013246788
149	0xbc6796c7	-0.014135069
150	0x3d9ff018	0.07809466
151	0x3ca4c0af	0.02011141
152	0xbdd37375	-0.10324756
153	0xbccfdf43	-0.025375014
154	0xbde9d617	-0.114177875
155	0xbd131562	-0.035909064
156	0x3dffc1e1	0.12488151
157	0x3e189ed5	0.1490434
158	0xbe098177	-0.13428293
159	0xb9ff40c9	-0.0004868566
160	0xbd87c89f	-0.06630062
161	0xbe159d6a	-0.1461083
162	0xbde7d92d	-0.1132072
163	0xbdc14442	-0.09436847
164	0xbd0a87e8	-0.033821017
165	0x3d0df9b3	0.03466196
166	0x3dc4a022	0.096008554
167	0xbd3989f0	-0.045297563
168	0x3dbe5b3b	0.092947446
169	0x3d206988	0.039163142
170	0xbd4d4d9b	-0.05012284
171	0x3d84e729	0.06489403
172	0xbdbb45e6	-0.091441914
173	0xbc9ca16d	-0.019119943
174	0x3d02d123	0.03193773
175	0xbdd38afb	-0.10329243
176	0x3d8d3efa	0.068967775
177	0x3c04d97b	0.008108492
178	0x3c8d5f7b	0.017257443
179	0x3de15a2f	0.11003529
180	0x3dd86faf	0.10568177
181	0xbe1030c7	-0.14081107
182	0x3deae147	0.114687495
183	0x3cfce49b	0.030870726
184	0xbc4817b0	-0.012212679
185	0xbdad90b3	-0.08474865
186	0x3df6e150	0.12054694
187	0xbdfd508f	-0.12368881
188	0x3e34e24c	0.1766445
189	0xbc51136d	-0.012760979
190	0x3c3ba2f6	0.011452427
191	0x3e12873e	0.14309403
192	0xbd07d4c4	-0.033161893
193	0x3e626625	0.22109278
194	0x3d07ed48	0.033185273
195	0xbcb7baa2	-0.02242786
196	0xbceb0d71	-0.028692933
197	0xbc03adce	-0.008037044
198	0x3dc934bb	0.09824511
199	0xbd46070d	-0.048346568
200	0xbd91ef26	-0.07125692
201	0xb803a18e	-3.1383293e-05
202	0x3bb99910	0.0056639984
203	0x3d5b146e	0.05348628
204	0xbbaaf3ef	-0.0052170674
205	0xbdc68945	-0.09694151
206	0x3d0f30c6	0.034958623
207	0xb9bad43c	-0.00035634812
208	0x3e08f5c2	0.13374999
209	0xbd51d1a2	-0.051225312
210	0xbddc0d88	-0.107447684
211	0x3d9d47c0	0.07679701
212	0x3d0a9b00	0.033839226
213	0x3adf17b8	0.0017020619
214	0x3a683092	0.0008857335
215	0x3db4824e	0.08813916
216	0xbce2da08	-0.027691856
217	0x3d173925	0.03691973
218	0xbc880632	-0.016604517
219	0x3b1b44f7	0.002369223
220	0xbcf83fc9	-0.030303853
221	0x3dcc8a7d	0.09987352
222	0x3d2e1165	0.042497057
223	0x3b0370ec	0.002005632
224	0xbb978d7c	-0.0046250205
225	0x3e45ede2	0.19329026
226	0x3d5a9648	0.053365976
227	0xbd3ea5bd	-0.04654478
228	0x3d95f012	0.073211804
229	0xbc5779f4	-0.0131516345
230	0x3e1d8a75	0.15384848
231	0xbd73fda5	-0.059568066
232	0x3d1a7f86	0.037719272
233	0xbc3a6bea	-0.011378268
234	0x3c88a0d1	0.016678246
235	0x3dfa2196	0.12213437
236	0xb9db017a	-0.00041772035
237	0xbd7e9dfb	-0.06216238
238	0xbd21d12a	-0.039506115
239	0x3d8312d0	0.064000726
240	0x3db6541c	0.08902761
241	0xbdca9f0b	-0.09893616
242	0x3e20b628	0.15694487
243	0x3ce5b7b1	0.028041692
244	0xbbfe632e	-0.007763288
245	0x3dd3ae8b	0.10336026
246	0xbd09292c	-0.03348653
247	0xbce0f1fa	-0.027459133
248	0x3c928731	0.01788673
249	0x3cf876d0	0.030330092
250	0x3e1cb350	0.15302777
251	0x3e075272	0.13215044
252	0x3daa55dd	0.08317158
253	0x3c242f6f	0.010021075
254	0x3b8749c2	0.0041286657
255	0x3e07f43e	0.13276765

network.3.bias f4 [64]
0	0x3e3fc391	0.18726946
1	0x3e11ceee	0.14239094
2	0xbd96222d	-0.07330737
3	0xbd4d7ca9	-0.050167713
4	0x3da74d6a	0.081690624
5	0x3e3fceab	0.18731181
6	0xbc8a4690	-0.01687935
7	0x3e45d8ec	0.1932103
8	0x3d6ef510	0.05833918
9	0xbdbb70d4	-0.0915238
10	0x3de244e6	0.110482976
11	0xbe165dcd	-0.1468422
12	0x3da6ec4f	0.08150541
13	0xbda659c5	-0.08122591
14	0x3dc124eb	0.0943087
15	0x3e3e6373	0.18592624
16	0x3bf4ca3b	0.007470397
17	0x3da4fa61	0.080555685
18	0xbd41d7e7	-0.04732504
19	0x3d48ce53	0.04902489
20	0x3bce105a	0.0062885704
21	0x3e4e42c3	0.20142655
22	0xbd9814ee	-0.07425867
23	0x3b90ffb3	0.004425013
24	0xbd75059d	-0.059819806
25	0xbd545453	-0.05183823
26	0x3d145af5	0.036219556
27	0x3e7f272e	0.2491729
28	0x3e3b6b5e	0.18302676
29	0xbdc36ebc	-0.09542605
30	0x3e2d00b1	0.16894795
31	0x3dcd7d04	0.100336105
32	0x3e172572	0.14760378
33	0xbd84718f	-0.06466972
34	0x3e48ad99	0.19597472
35	0x3c99bf03	0.01876784
36	0x3e619f16	0.22033343
37	0xbd6467cc	-0.05576305
38	0xbda5ec93	-0.081017636
39	0x3dfcac69	0.12337572
40	0xbda94c8e	-0.08266555
41	0x3e3b5118	0.18292654
42	0xbe0a2fd4	-0.13494807
43	0xbda9fd70	-0.083002925
44	0x3d4f324d	0.05058508
45	0x3d848402	0.06470491
46	0x3bb56f72	0.005536967
47	0x3ddb1d93	0.10699
48	0x3e317bf8	0.17332447
49	0xbbcd2f72	-0.0062617594
50	0xbcb7b04d	-0.022422934
51	0xbdb8c42a	-0.0902179
52	0x3c5bd68c	0.013417851
53	0x3e1a8db5	0.1509312
54	0x3e311deb	0.17296569
55	0x3e19c377	0.1501597
56	0x3d938557	0.07203167
57	0x3e4f5780	0.20248222
58	0xbd1aad74	-0.037763074
59	0x3b5a02b0	0.0033265762
60	0x3e29e06a	0.16589513
61	0x3dd86009	0.10565192
62	0x3e079660	0.13240957
63	0x3d6c0cf7	0.05762955

network.6.weight f4 [1, 64]
0	0xbd8dc6f4	-0.06922713
1	0xbd9502b4	-0.07275906
2	0x3dee6d46	0.11641936
3	0x3d9b7b11	0.075918324
4	0xbdc53782	-0.09629728
5	0xbdd797a1	-0.10526968
6	0xbdc804c9	-0.09766538
7	0xbd6a1f06	-0.057158493
8	0x3d9d49aa	0.07680066
9	0x3ddc2fb9	0.1075129
10	0xbd5319bf	-0.051538225
11	0x3dfbd1bd	0.12295864
12	0xbdb37cd0	-0.087640405
13	0x3d4d4b57	0.050120678
14	0xbe0cb03a	-0.137391
15	0xbda9d84d	-0.08293209
16	0x3dea87ac	0.114516586
17	0xbd8588b6	-0.06520216
18	0x3dcc0851	0.09962524
19	0x3d5cb726	0.0538856
20	0xbdac2d18	-0.084070385
21	0xbd372773	-0.044715356
22	0x3d7bc1be	0.061464064
23	0x3d7ff8f0	0.062493265
24	0x3ddabe76	0.10680859
25	0x3d37680e	0.04477697
26	0x3dc06c22	0.09395625
27	0xbd9833e9	-0.07431776
28	0xbce92289	-0.02845885
29	0x3d5c48b3	0.05378027
30	0xbd9512cf	-0.07278978
31	0xbd6be9da	-0.057596065
32	0xbda1af7a	-0.078947976
33	0x3dbaac5b	0.091149054
34	0xbdbde4bd	-0.09272144
35	0xbdaf9942	-0.085741535
36	0xbd9807c1	-0.07423354
37	0x3d9b0625	0.07569531
38	0x3dd7fe91	0.105466016
39	0xbd8db340	-0.06918955
40	0x3df7aa7e	0.12093066
41	0xbd51722b	-0.05113427
42	0x3d5c17bb	0.05373357
43	0x3d84d00f	0.064849965
44	0xbd5c7bd0	-0.053829014
45	0xbdd6e44d	-0.10492764
46	0x3dd3d640	0.10343599
47	0xbdabcc3e	-0.083885655
48	0xbd948dd2	-0.072536126
49	0x3d9280c9	0.0715347
50	0x3da7cd16	0.08193414
51	0x3d8e8bd5	0.069602646
52	0x3d8e511d	0.06949065
53	0xbd2889b8	-0.041146964
54	0xbdf53888	-0.11973673
55	0xbdc0a983	-0.09407332
56	0xbdd19f5a	-0.10235472
57	0xbdc616bb	-0.09672304
58	0x3df5d19f	0.12002873
59	0xbddfc180	-0.10925579
60	0xbdcc462d	-0.099743225
61	0xbd8afb6d	-0.06786237
62	0xbd9d68f7	-0.07686036
63	0xbde352d9	-0.11099786

network2.0.weight f4 [128, 64]
0	0xbb3b98b8	-0.0028624963
1	0xbd980469	-0.07422716
2	0x3cd64893	0.026157653
3	0x3d14960f	0.03627592
4	0xbe0f2e90	-0.13982606
5	0x3dbf60b9	0.0934462
6	0xbc15b8a3	-0.009138259
7	0xbb8fce40	-0.0043886006
8	0xbce74da8	-0.028235272
9	0xbb9f1553	-0.004854837
10	0x3da6455f	0.081187
11	0x3b0a402f	0.0021095385
12	0xbcf0f88f	-0.029415397
13	0x3d919571	0.07108582
14	0x3d86466a	0.06556399
15	0xbbdae3ad	-0.006679973
16	0xbd65bb3e	-0.05608677
17	0xbe21e338	-0.15809333
18	0xbde8d594	-0.11368862
19	0xbda63e06	-0.08117299
20	0xbe2f0864	-0.17093045
21	0xbdba9691	-0.091107495
22	0xbc24372f	-0.010022922
23	0x3cb04491	0.02151707
24	0x3db7c597	0.08973234
25	0xbca219ad	-0.019787634
26	0x3dbfc6b4	0.093640715
27	0xbcfebbb1	-0.031095358
28	0x3e1c2cb1	0.15251423
29	0xbc875eea	-0.01652475
30	0x3de506ef	0.11182963
31	0x3e05588f	0.13022064
32	0x3d919669	0.071087666
33	0x3d31cbc7	0.043407228
34	0x3dc42c6d	0.09578786
35	0xbc9ae25c	-0.018906765
36	0x3c0b2fd0	0.008495286
37	0x3cea7b75	0.028623322
38	0xbdf3bbc4	-0.11901048
39	0xbd45c164	-0.048280135
40	0x3da14360	0.07874179
41	0xbe22dfaa	-0.15905634
42	0xbe493765	-0.19650038
43	0xbe698b5a	-0.22807065
44	0xbcfa4fdc	-0.030555658
45	0xbe21052e	-0.15724632
46	0x3d12b183	0.03581382
47	0x3d2a1beb	0.04153053
48	0x3c9c2029	0.019058304
49	0x3e191e79	0.1495303
50	0xbd2c6112	-0.04208476
51	0x3de5c7d2	0.11219753
52	0x3e15f59d	0.14644475
53	0x3db16730	0.086622596
54	0xbd3e32bf	-0.046435114
55	0xbd1be836	-0.03806325
56	0xbe16e8f6	-0.14737305
57	0x3de10226	0.10986738
58	0xb96981cd	-0.00022268966
59	0xbd94b200	-0.07260513
60	0x3bc013df	0.005861744
61	0x3dcdfe0e	0.10058223
62	0x3ace8d59	0.0015758678
63	0xbd383153	-0.044968914
64	0xbd1aeee8	-0.037825495
65	0x3db20b54	0.08693567
66	0x3dbac76d	0.09120069
67	0x3c2abaf7	0.010420552
68	0x3c0cb829	0.008588829
69	0xbde58358	-0.112066925
70	0x3d8a885c	0.0676429
71	0x3d86e1b7	0.065860204
72	0x3dac010b	0.083986364
73	0xbdd50691	-0.10401643
74	0x3d7345cb	0.05939273
75	0x3d19484e	0.03742247
76	0x3e3aa8f3	0.18228512
77	0xbd30c01c	-0.04315196
78	0x3e038b06	0.12846002
79	0x3d80bbf7	0.062858514
80	0xbde06bc6	-0.10958056
81	0xbdcf4918	-0.101213634
82	0x3d1a8059	0.037720058
83	0xbc175a21	-0.009237797
84	0xbcbd7584	-0.023127325
85	0xbe562ed0	-0.20916295
86	0xbe71236d	-0.2354867
87	0xbde9752a	-0.113993004
88	0x3dee549f	0.11637234
89	0xbdae3b2d	-0.08507381
90	0xbd17dfb1	-0.037078563
91	0xbd94ecfd	-0.072717644
92	0xbd8ade19	-0.06780643
93	0x3a916a5c	0.001109432
94	0x3d791081	0.060806755
95	0x3ce8f10c	0.028435253
96	0xbcf2f5be	-0.029658195
97	0xbdd0c213	-0.10193267
98	0xbc3e0b8a	-0.011599431
99	0xbd8a3de9	-0.0675009
100	0x3d50821f	0.050905343
101	0xbd0910a9	-0.033463154
102	0xbe4a3285	-0.19745834
103	0xbd48744f	-0.048939046
104	0x3d6726f6	0.05643364
105	0x3e2f0176	0.17090401
106	0xbcf14932	-0.029453848
107	0xbce48c49	-0.027898924
108	0xbd921661	-0.07133175
109	0x3da225b4	0.079173476
110	0xbda8797a	-0.08226295
111	0x3ccb044a	0.024782319
112	0xbd676f81	-0.056502823
113	0x3d8f4d1a	0.06997128
114	0x3d47a9ba	0.04874585
115	0xbd3af0af	-0.04563969
116	0x3e27c82b	0.16384952
117	0x3da41630	0.080120444
118	0x3d0d349e	0.034474008
119	0xba968609	-0.0011484037
120	0x3e2b559f	0.1673188
121	0x3dd4bcab	0.10387548
122	0x3d4ef2f8	0.05052468
123	0xbe026bd3	-0.12736444
124	0xbd2cca01	-0.042184833
125	0x3ce08699	0.027407931
126	0xbd14344f	-0.036182698
127	0xbc41a7dc	-0.011819806
128	0xbcff3b45	-0.031156192
129	0x3cd7a29b	0.026322654
130	0x3d750dbc	0.05982755
131	0x3da904a4	0.08252838
132	0xbbbc13f2	-0.0057396824
133	0xbcd1cb32	-0.025609586
134	0x3d2e1e27	0.042509224
135	0xbc8193e5	-0.015817592
136	0x3cb0aa54	0.021565594
137	0xbdba2479	-0.09088988
138	0xbdd40e74	-0.10354319
139	0x3dd7b099	0.1053173
140	0xbba06ae6	-0.004895556
141	0x39c8c2c9	0.000382921
142	0x3d9c9bf4	0.07646933
143	0xbda84b68	-0.082175076
144	0xbbdb2af8	-0.006688472
145	0xbde88f10	-0.11355412
146	0x3cdd5253	0.027016794
147	0x3bffe9d3	0.0078098564
148	0xbc164fc1	-0.009174288
149	0xbcd2e52b	-0.025744041
150	0xbd531f4c	-0.05154352
151	0xbcd83caf	-0.026396124
152	0xbdc82ad0	-0.09773791
153	0xbd93e975	-0.07222263
154	0xbc9e14ec	-0.019297086
155	0xbe5f54bc	-0.21809667
156	0xbc8c0b9a	-0.017095376
157	0x3c291f0b	0.010322343
158	0xbd3df18b	-0.04637293
159	0xbd694185	-0.05694725
160	0x3ca75a6e	0.020428862
161	0x3db9a59a	0.09064789
162	0x3d6b5bc1	0.05746055
163	0xbe1a81a1	-0.15088512
164	0xbd156efb	-0.036482792
165	0xbd34a3bb	-0.044101458
166	0x3dd8fdb2	0.105952635
167	0x3a905fa8	0.0011014836
168	0xbd6cdea1	-0.057829503
169	0xbdb67124	-0.089082986
170	0x3df521c5	0.11969332
171	0xbd0bef6b	-0.034163874
172	0x3da6f7ac	0.081527084
173	0xbe254407	-0.16139232
174	0xbd6545f9	-0.055974934
175	0xbdc012b4	-0.09378567
176	0xbccaa70b	-0.024737855
177	0xbda98acd	-0.08278427
178	0x3cc9aa6f	0.024617402
179	0xbd80e534	-0.06293717
180	0x3d0290b1	0.03187627
181	0xbcebac4b	-0.02876868
182	0x3cb90baf	0.022588579
183	0xbda04ffd	-0.078277566
184	0xbdb2470e	-0.08704959
185	0xbdfdd016	-0.12393205
186	0xbca7c884	-0.020481355
187	0x3d365d2f	0.04452246
188	0xbdaba60c	-0.0838128
189	0x3d167738	0.03673479
190	0xbd11ad0d	-0.035565425
191	0xbdd45147	-0.10367065
192	0x3c15ed3b	0.009150798
193	0xbdebe604	-0.115184814
194	0xba30303b	-0.0006721054
195	0x3afa6d6f	0.00191061
196	0xbd8cd4c0	-0.06876516
197	0xbb373669	-0.0027956015
198	0x3a496efd	0.000768408
199	0x3ca42c3c	0.020040624
200	0xbd2734af	-0.040821727
201	0x3d0a5ad0	0.03377801
202	0x3d240fc0	0.040054083
203	0x3ded9e19	0.1160242
204	0xbd3f8fc5	-0.04676797
205	0x3c8aa34c	0.01692357
206	0x3c84cd53	0.016211187
207	0x3ab8ae6d	0.0014090069
208	0x3db1a541	0.08674098
209	0xbd06cf61	-0.032912616
210	0x3d393c23	0.045223366
211	0x3de8d10b	0.11367997
212	0xbdbb59a8	-0.0914796
213	0xbd67e933	-0.05661888
214	0x3d5aa979	0.053384278
215	0xbdb2186a	-0.08696063
216	0x3d068b84	0.032847896
217	0xbd38c34f	-0.045108136
218	0xbcaa3438	-0.020776853
219	0x3dc80331	0.09766234
220	0x3dbd29c7	0.09236484
221	0xbd8c543a	-0.068520024
222	0x3e2486e1	0.16067077
223	0x3daa0641	0.08301974
224	0x3c987487	0.018610252
225	0xbc8d2fbc	-0.017234676
226	0x3dcf8671	0.101330645
227	0x3def7a3e	0.11693238
228	0x3d4098a5	0.047020573
229	0xbd840a8a	-0.06447323
230	0x3be2a833	0.0069170236
231	0xbd6abbcb	-0.057308
232	0x3be5eccb	0.0070167533
233	0xbccbd10b	-0.024879953
234	0xbdd1ea8d	-0.10249815
235	0xbc099a80	-0.008398652
236	0xbd3c9186	-0.04603722
237	0xbd8c9c91	-0.068658
238	0x3c251548	0.010075875
239	0xbc83bc59	-0.016081022
240	0xbcbf99ec	-0.023388825
241	0xbb5e1529	-0.0033887124
242	0x3d1dd895	0.038536627
243	0xbd91b536	-0.07114641
244	0x3d3858e8	0.045006663
245	0xbadebea7	-0.0016994075
246	0x3e16aa72	0.14713457
247	0xbd8a4aa3	-0.06752517
248	0xbd10b422	-0.035328038
249	0xbdae8706	-0.085218474
250	0xbd139ea9	-0.036039982
251	0x3c3102b0	0.010803863
252	0xbc85ec3f	-0.016348002
253	0xbd7dc1a0	-0.061952233
254	0xbc274239	-0.01020866
255	0x3cf73fdb	0.030181816

network2.0.bias f4 [128]
0	0x3d99b28e	0.0750476
1	0xbe130a34	-0.14359361
2	0x3d1f3b87	0.03887513
3	0xbd50f8c0	-0.051018476
4	0xbdeaf65f	-0.11472773
5	0xbd8b9815	-0.06816117
6	0xbd887298	-0.06662482
7	0xbd04e778	-0.03244731
8	0xbc0e7448	-0.008694716
9	0xbce5baf8	-0.028043255
10	0xbe1d7e9e	-0.15380332
11	0x3dffeed1	0.124967225
12	0xbd9980b9	-0.07495255
13	0xbb89dc93	-0.0042072027
14	0xbd26ba6e	-0.040705137
15	0x3d61784b	0.05504636
16	0x3d87c685	0.066296615
17	0xbddf6111	-0.10907186
18	0xbdc2d2b4	-0.09512845
19	0xbe1e53fb	-0.15461724
20	0xbce9cf87	-0.02854134
21	0xbd4cf7a2	-0.05004085
22	0x3cb50f59	0.022102045
23	0x3d63cae9	0.055613432
24	0x3d2e1b76	0.042506658
25	0x3cefb92c	0.029263102
26	0xbe22f7a1	-0.15914775
27	0x3de76071	0.112976916
28	0xbb625bad	-0.0034539506
29	0xbaa05073	-0.0012231007
30	0x3d7bf451	0.061512295
31	0x3c0f7969	0.008756974
32	0xbd5fc4ef	-0.05463117
33	0x3d00733b	0.031359892
34	0xbdf6b547	-0.12046295
35	0xbb057764	-0.0020365352
36	0xbdd21d30	-0.10259473
37	0x3e08b131	0.13348843
38	0xbd30da12	-0.043176718
39	0xbdbe222d	-0.09283862
40	0xbdc2d60e	-0.09513484
41	0x3d118270	0.035524786
42	0xbc84cd82	-0.016211275
43	0xbe5ab215	-0.21356995
44	0xbdde2b5f	-0.10848116
45	0xbdd045ef	-0.10169589
46	0xbe01ea7e	-0.12687108
47	0xbe0f96e2	-0.14022401
48	0xbe31887e	-0.17337224
49	0x3d588f48	0.05287102
50	0xbe226780	-0.15859795
51	0x3d1b5da6	0.037931107
52	0xbbf18731	-0.0073708524
53	0xbd949ff4	-0.07257071
54	0x3e1b87cd	0.15188523
55	0x3d9ab765	0.07554511
56	0xbdd9eef0	-0.10641277
57	0xbe1bee7b	-0.15227692
58	0xbd403e24	-0.046934262
59	0xbe2a495f	-0.16629551
60	0xbdf4452d	-0.11927257
61	0xbe016325	-0.12635477
62	0xbd7b5f69	-0.061370287
63	0x3dd736a6	0.1050847
64	0xbd8192d3	-0.063268326
65	0xbe6627d8	-0.22476137
66	0x3c9e7376	0.019342165
67	0x3da4a7f6	0.080398485
68	0xbc84e828	-0.016223982
69	0xbd179bce	-0.03701382
70	0xbdf67490	-0.12033951
71	0x3d489cba	0.04897759
72	0xbe3118ca	-0.17294613
73	0xbe48858d	-0.19582196
74	0xbd071d97	-0.032987203
75	0xbd648f7b	-0.055800896
76	0xbd123409	-0.035694156
77	0x3d936ff7	0.0719909
78	0xbdcff3e3	-0.101539396
79	0xbdd5901f	-0.104278795
80	0xbe783a5b	-0.24241011
81	0xbe5d54b7	-0.21614347
82	0xbdb9856e	-0.09058653
83	0xbca40bf1	-0.020025225
84	0x3d415b91	0.047206465
85	0xbe021af5	-0.12705596
86	0xbdfd6420	-0.12372613
87	0x3c84b60a	0.016200084
88	0xbe0e8f19	-0.13921775
89	0xbe0f1312	-0.13972118
90	0xbda14d33	-0.07876053
91	0x3dab0065	0.083496846
92	0x3dcc0c96	0.09963338
93	0x3c8990d8	0.0167927
94	0xbe0dfdcd	-0.13866349
95	0x3da802be	0.08203648
96	0xbe1f016a	-0.15527883
97	0x3cff8259	0.031190084
98	0xbd3af236	-0.045641147
99	0xbe1430df	-0.14471768
100	0x3d9b96e6	0.07597141
101	0xbdaa239f	-0.083075754
102	0x3d83ce8b	0.06435879
103	0xbe0f9485	-0.140215
104	0xbe0d872f	-0.138211
105	0xbe37e187	-0.17957126
106	0xbd8960e5	-0.06707934
107	0xbc9c4613	-0.019076383
108	0xbd4c2b78	-0.049846143
109	0x3c36a557	0.0111478185
110	0xbc1deb84	-0.009638671
111	0x3d4eafaa	0.050460495
112	0xbd72f399	-0.059314344
113	0xbd054ddf	-0.032544967
114	0xbda4118b	-0.080111586
115	0xbda49c83	-0.08037665
116	0x3c0ba176	0.008522382
117	0xbd505275	-0.050859887
118	0x3c76ce47	0.015063829
119	0x3ddf2be3	0.108970426
120	0x3cee770b	0.029109498
121	0xbbb48307	-0.0055087837
122	0xbe1c11a1	-0.152411
123	0x3db8d30e	0.090246305
124	0xbe0e4d29	-0.13896622
125	0xbc5dd2b0	-0.013539001
126	0xbcd4d604	-0.025980957
127	0x3ddd9674	0.10819712

network2.3.weight f4 [64, 128]
0	0x3d62f2bb	0.055407267
1	0x3d7f7521	0.062367562
2	0xbd315355	-0.043292362
3	0xbc63d4e7	-0.01390574
4	0x3d4e982d	0.050438095
5	0x3d229505	0.039692897
6	0xbd1976fd	-0.03746699
7	0xbbc397a0	-0.005969003
8	0xbd236e97	-0.03990039
9	0xbd10c1e5	-0.035341162
10	0xbd08f666	-0.03343811
11	0xbda44449	-0.08020837
12	0x3ccf5824	0.025310583
13	0xbddd2cb5	-0.10799543
14	0x3bf95893	0.007609436
15	0xbd40e68d	-0.04709487
16	0x3d840685	0.06446556
17	0x3cd8a96f	0.02644798
18	0xbda69e89	-0.08135707
19	0x3c9ed5ea	0.019389112
20	0x3d44eef4	0.048079446
21	0xbd591bce	-0.053005032
22	0xbdb96f7f	-0.09054469
23	0xbce7d31c	-0.028298907
24	0x3dbc492d	0.09193645
25	0xbd557b8e	-0.052119784
26	0xbe07dcf0	-0.13267875
27	0xbbbd2a67	-0.005772877
28	0x3c810b42	0.015752438
29	0xb943babf	-0.00018666218
30	0x3ce03514	0.02736906
31	0xbcc53968	-0.024075225
32	0xbd364d31	-0.04450721
33	0xbdd647e8	-0.10462934
34	0xbd954e7c	-0.0729036
35	0x3d9f34b2	0.07773723
36	0x3c363cc4	0.011122886
37	0xbd5b933b	-0.053607207
38	0xbe12b715	-0.14327653
39	0xbc61be18	-0.013778232
40	0x3d72aa55	0.059244473
41	0x3dc38ca8	0.095483124
42	0xbdc0df9b	-0.09417649
43	0x3d9c7dee	0.07641207
44	0xbd733cb2	-0.059384055
45	0x3c8a9418	0.01691632
46	0xbd1f095e	-0.038827293
47	0x3dd5a138	0.10431141
48	0x3d71fa63	0.059076678
49	0xbc669a03	-0.014074805
50	0xbd724f8f	-0.059157904
51	0xbd8e7df5	-0.06957618
52	0xbcc776ab	-0.024348577
53	0x3b574b71	0.0032851363
54	0xbd9a7288	-0.07541376
55	0x3d989e87	0.07452112
56	0xbcaa87f9	-0.02081679
57	0xbdbaac36	-0.09114878
58	0x3b36be50	0.0027884431
59	0x3d977347	0.07395034
60	0x3db41828	0.0879367
61	0x3c7673c9	0.015042254
62	0xbd645b58	-0.055751175
63	0x3ae8b2c5	0.0017753473
64	0x3ccb37ea	0.024806935
65	0xbc037127	-0.008022583
66	0x3db1cea1	0.086819895
67	0xbd8b4124	-0.06799534
68	0xbca91a64	-0.020642467
69	0xbdf41f6e	-0.11920057
70	0x3cc87565	0.02447004
71	0xbd83a9a3	-0.0642884
72	0x3c840138	0.016113862
73	0x3cf6c613	0.030123746
74	0xbd2f3b3d	-0.042781103
75	0xbdd2d78a	-0.10295017
76	0xbdd18e78	-0.10232252
77	0x3cf4e2b1	0.029893251
78	0xbd2436ca	-0.040091313
79	0xbc4ca1ee	-0.012489779
80	0xbd4b2d87	-0.049603965
81	0x3d18369f	0.037161466
82	0xbcc13e7a	-0.023589361
83	0x3d5ba54e	0.053624444
84	0xbd644afa	-0.055735566
85	0x3daec44a	0.08533533
86	0xbdc0b3c8	-0.094092906
87	0x3d2c3f7d	0.042052735
88	0xbd9c0462	-0.076180235
89	0x3ac09d0f	0.0014695245
90	0xbd76f90c	-0.060296103
91	0x3d4fa771	0.050696794
92	0xbc8551db	-0.016274383
93	0xbdcf0d85	-0.101100005
94	0x3a147868	0.0005663694
95	0xbcfc8803	-0.030826574
96	0x3d262106	0.040558837
97	0xbdb4a61f	-0.088207476
98	0x3d979459	0.07401342
99	0x3ca6e0cb	0.020370862
100	0xbd8981cd	-0.06714211
101	0x3d0de29f	0.03463995
102	0x3d8f9471	0.07010735
103	0x3d8a9ac6	0.06767802
104	0x3dc0ed32	0.094202414
105	0xbd2d9298	-0.04237613
106	0xbe04ea3b	-0.12979977
107	0xba9a7583	-0.0011784289
108	0x3da4162a	0.0801204
109	0xbdbd516e	-0.09244047
110	0x3e164c89	0.14677633
111	0x3cd3a397	0.025834842
112	0xbccbf44e	-0.024896767
113	0x3d0887ca	0.033332624
114	0xbd6d2ad3	-0.05790217
115	0x3d857c41	0.0651784
116	0xbc8bd366	-0.017068576
117	0xbcdeef8a	-0.02721383
118	0x3cfe19b1	0.03101811
119	0x3da8336a	0.082129315
120	0xbd80f906	-0.062974975
121	0xbd3cc0ad	-0.046082187
122	0xbda1fb21	-0.07909227
123	0xbd1449ac	-0.03620307
124	0x3d96a4ba	0.07355638
125	0x3d41a833	0.047279548
126	0x3d71d285	0.059038658
127	0xbda37585	-0.079813994
128	0xbd938baf	-0.07204377
129	0xbd7e2eb9	-0.062056277
130	0x3cec3ffb	0.028839102
131	0x3d2f6dc2	0.042829283
132	0xbd82f9a5	-0.06395272
133	0xbbd6900a	-0.0065479325
134	0xbd98091c	-0.074236125
135	0xbd9e0962	-0.077166334
136	0xbb9d9345	-0.0048088157
137	0x3d60f6bc	0.054922804
138	0xbda446c0	-0.08021307
139	0x3ddc0c51	0.10744537
140	0xbd7d3175	-0.061814744
141	0xbe00d026	-0.12579402
142	0xbe0e071a	-0.13869897
143	0xbdd58779	-0.1042623
144	0xbbe87463	-0.0070939525
145	0xbd2decf8	-0.04246232
146	0xbd9253a2	-0.07144858
147	0xbd3a571c	-0.04549323
148	0x3d387eb6	0.045042716
149	0xbe206582	-0.15663722
150	0xbd712b2f	-0.058879074
151	0xba14b3d4	-0.00056725484
152	0xbe18da1d	-0.14926954
153	0xbda24d3d	-0.07924888
154	0xbcc7cf2f	-0.024390785
155	0xbc2406e3	-0.010011408
156	0xbda5da24	-0.08098248
157	0xbdd6b995	-0.10484616
158	0xbda67164	-0.08127096
159	0xbd96b9e9	-0.07359678
160	0xba4c1e4f	-0.0007786499
161	0xbbcedc66	-0.0063128946
162	0xbb98e0ca	-0.004665469
163	0x3c2211fe	0.009891985
164	0xbded1c20	-0.1157763
165	0x3d2b959f	0.041890737
166	0x3d316b68	0.04331532
167	0xbda9e5c3	-0.08295777
168	0xbdbe36c6	-0.09287791
169	0xbdee60e6	-0.11639576
170	0x3d3fb730	0.04680556
171	0xbbaa4520	-0.0051962286
172	0xbdb7e4f3	-0.089792155
173	0xbe244e51	-0.160455
174	0xbad1a344	-0.0015994092
175	0xbd3ed2ef	-0.04658788
176	0xbdb22472	-0.08698358
177	0x3c658774	0.014009345
178	0x3b471274	0.003037599
179	0xbd1b7100	-0.037949562
180	0xbcee8fdd	-0.029121334
181	0xbe1f1f66	-0.15539321
182	0x3c07cfa1	0.008289249
183	0xbe090dd9	-0.13384189
184	0xbe34ea49	-0.17667498
185	0xbe12e3c3	-0.14344697
186	0xbd33644e	-0.04379683
187	0xbc9cb6ad	-0.019130075
188	0xbdf44fb6	-0.11929266
189	0xbdc9f6ad	-0.09861503
190	0xbd78ef90	-0.06077534
191	0x3d438816	0.047737204
192	0x3d0f0730	0.034918964
193	0xbd90e8b9	-0.07075638
194	0xbe33a42e	-0.17543098
195	0xbbdab34f	-0.0066742073
196	0xbdab809e	-0.08374141
197	0xbd3bec98	-0.04587993
198	0x3c85ab08	0.016316906
199	0xbbfc06f8	-0.0076912604
200	0x3ca0f08d	0.019645954
201	0x3dcb89ea	0.099384144
202	0xbe0f5366	-0.13996658
203	0x3a372a8c	0.0006987236
204	0xbdafd47a	-0.085854486
205	0xbde44738	-0.111463964
206	0x3dc92d85	0.09823135
207	0xbc14b318	-0.009075902
208	0xbdd24553	-0.10267129
209	0xbe00c0b8	-0.12573516
210	0x3e2065b9	0.15663804
211	0xbe288831	-0.16458203
212	0xbc38f6b5	-0.011289288
213	0xbd5cf1a3	-0.05394138
214	0xbdcab75a	-0.09898253
215	0x3ae57ee4	0.001750913
216	0xbd9eb28e	-0.077489
217	0xbc24223e	-0.01001793
218	0x3d338a2e	0.04383295
219	0xbdbadef2	-0.09124555
220	0xbd9f4169	-0.07776148
221	0x3d631cea	0.055447496
222	0x3ca45904	0.020061977
223	0x3d8ae622	0.067821756
224	0xbd4a7518	-0.049428076
225	0xbc7bd6bd	-0.015371022
226	0x3cbd4e85	0.02310873
227	0x3d9bf39b	0.076148234
228	0x3cfff103	0.031242853
229	0xbd0d181e	-0.034446828
230	0x3ae9ee98	0.0017847596
231	0xbd5e06c7	-0.054205682
232	0xbe467d99	-0.19383849
233	0xbd572cde	-0.052533023
234	0xbd514048	-0.051086694
235	0xbe0eb756	-0.13937125
236	0xbd2b68e6	-0.041848086
237	0x3cf99da9	0.030470686
238	0xbc9a674f	-0.01884809
239	0xbddfb606	-0.1092339
240	0xbd8b7168	-0.0680874
241	0xbcde6b26	-0.027150702
242	0x394f169e	0.00019749484
243	0xbd824cd3	-0.06362309
244	0xbccdcda2	-0.025122467
245	0xbe0e54ab	-0.13899486
246	0x3ddb3825	0.10704068
247	0xbd40d7fb	-0.047080975
248	0xbcbc65d1	-0.022997769
249	0x3e1461e8	0.14490473
250	0xbd9265ba	-0.07148309
251	0x3c393c55	0.011305888
252	0xbd50d715	-0.05098637
253	0x3da63573	0.081156634
254	0x3dba76a7	0.091046624
255	0x3d8f9923	0.070116304

network2.3.bias f4 [64]
0	0xbdb05383	-0.086096786
1	0x3de7c57d	0.11316965
2	0x3c8691a9	0.016426878
3	0xbe0e8a2b	-0.13919894
4	0xbd7b2f88	-0.061324626
5	0xbcfcf297	-0.030877395
6	0x3d226f10	0.0396567
7	0xbda5145c	-0.08060524
8	0xbcb9a22c	-0.022660337
9	0x3e200909	0.15628447
10	0x3e102055	0.14074834
11	0xbd95fcf8	-0.073236406
12	0xbd3887e9	-0.04505149
13	0x3a4f7681	0.0007914082
14	0xbdbce1f2	-0.09222783
15	0xbcec9a77	-0.028882248
16	0x3d196a80	0.037455082
17	0xbc89b593	-0.016810214
18	0x3df90fcb	0.121612154
19	0x3d52afe3	0.05143727
20	0xbe065e94	-0.13122016
21	0x3c938e3d	0.01801216
22	0x3ddb6b64	0.107138425
23	0x3e20f411	0.15718104
24	0xbe07fff7	-0.13281237
25	0x3ea61e87	0.32445166
26	0x3d5830ac	0.052780792
27	0x3e3a3fa0	0.18188334
28	0xbd846f52	-0.06466545
29	0x3e917fca	0.28417808
30	0xbc3c9dd1	-0.011512236
31	0xbda715cf	-0.081584565
32	0x3d11d178	0.035600156
33	0xbe12784e	-0.14303705
34	0xbabc5c56	-0.001437078
35	0x3e354718	0.17702901
36	0x3daa6e42	0.08321811
37	0xbb4a718b	-0.003089043
38	0x3c4b6477	0.012414089
39	0x3cb878fd	0.02251863
40	0xbd6e1a16	-0.058130346
41	0x3dc5e476	0.09662716
42	0xbd9688c4	-0.07350305
43	0x3d448baa	0.047984757
44	0x3cb8daa6	0.022565197
45	0x3e3ed3cf	0.18635486
46	0x3d82aac7	0.063802294
47	0x3d161696	0.036642633
48	0xbcb5bf90	-0.02218607
49	0x3e36889b	0.17825548
50	0xbdc19d6b	-0.09453853
51	0xbc35af92	-0.0110892225
52	0xbd82196c	-0.06352505
53	0xbc094fa5	-0.008380805
54	0xbd57351f	-0.052540895
55	0x3e109747	0.14120208
56	0xbd35e4eb	-0.044407766
57	0x3ddcf495	0.10788838
58	0x3e84a3da	0.2590626
59	0x3d2ca551	0.042149846
60	0x3c60130b	0.013676415
61	0x3e3347d8	0.17507875
62	0xbcdb3b19	-0.026761578
63	0x3d05808c	0.032593295

network2.6.weight f4 [32, 64]
0	0x3d87c5ec	0.066295475
1	0xbcd8234d	-0.02638402
2	0xbd8e1da5	-0.06939248
3	0xbd760f19	-0.060072992
4	0x3deff87c	0.117173165
5	0xbdd21b69	-0.10259134
6	0x3c9e96ce	0.019359019
7	0x3dd229fe	0.102619156
8	0xbdccaeb4	-0.099942595
9	0x3c509868	0.012731649
10	0x3e1080fe	0.14111707
11	0xbd9e95a0	-0.077433825
12	0xbc78eef1	-0.015193687
13	0xbd904a82	-0.07045461
14	0x3c2c522f	0.010517641
15	0xbdc24e13	-0.09487548
16	0x3e1745d1	0.14772727
17	0x3e14d13b	0.1453294
18	0xbd997846	-0.074936435
19	0xbc961f52	-0.018325482
20	0x3b4636ef	0.0030245145
21	0x3d860e77	0.06545728
22	0xbe13558e	-0.14388105
23	0x3caca5fe	0.021075245
24	0xbd911942	-0.07084896
25	0xbd22cf91	-0.039748732
26	0x3dc3505a	0.0953681
27	0x3d907b2c	0.07054743
28	0x3d4b5017	0.049636927
29	0xbbbeb05f	-0.005819365
30	0x3cbd883a	0.023136247
31	0x3c12efd8	0.008968316
32	0xbd6b42c2	-0.057436712
33	0x3d4bf5ec	0.049795076
34	0xbe0b2aa5	-0.13590486
35	0xbda34ee2	-0.0797403
36	0xbde4ae87	-0.11166101
37	0x3d6821ed	0.05667298
38	0x3da7f9a8	0.08201915
39	0x3d04b0ed	0.032395292
40	0xbd5b79c8	-0.053582937
41	0xbd81b75f	-0.063338034
42	0xbc70b99c	-0.01469269
43	0xbdcf4bab	-0.101218544
44	0x3dfb5e78	0.12273878
45	0x3d553aec	0.052058145
46	0x3d4bb0d5	0.049729187
47	0xbdea990c	-0.114549726
48	0x3df37a5f	0.11888575
49	0xbb5e3247	-0.003390448
50	0xbd7f06ac	-0.062262222
51	0xbd9deda6	-0.077113435
52	0xbd1ea765	-0.03873386
53	0x3da9a55e	0.082834944
54	0x3d2535bb	0.040334444
55	0xbb7b6326	-0.0038358658
56	0xbc823212	-0.015893016
57	0x3e2c2279	0.16810025
58	0x3d0b2165	0.033967394
59	0x3d4a24da	0.04935155
60	0xbc466cd8	-0.012110911
61	0x3cd62b77	0.026143773
62	0xbd779174	-0.06044145
63	0x3d14dd16	0.036343656
64	0xbd33754c	-0.043813035
65	0x3da54c7b	0.08071228
66	0x3cf3ff37	0.029784782
67	0xbd595658	-0.05306086
68	0xbda28250	-0.079350114
69	0x3da01615	0.07816712
70	0x3e2a65fb	0.16640465
71	0xbd260761	-0.04053438
72	0xbc4323a7	-0.011910356
73	0x3d4ca730	0.04996413
74	0x3dfc18fb	0.12309452
75	0xbdca2734	-0.09870759
76	0xbdf0ce6e	-0.11758123
77	0xbc7ddb3d	-0.015494165
78	0x3d2fe11b	0.042939287
79	0xbd8f0afc	-0.06984517
80	0xbcaddc83	-0.021223312
81	0xbd7941e8	-0.06085387
82	0x3dc4374a	0.09580858
83	0xbd6d699f	-0.057962056
84	0xbdf7074b	-0.12061938
85	0xbd1dd763	-0.038535487
86	0x3d4041ce	0.046937756
87	0x3bee939d	0.0072807805
88	0xbd45f5fb	-0.04833029
89	0x3dcfb458	0.1014182
90	0xbd49b409	-0.04924396
91	0x3dcec13d	0.10095451
92	0xbd6db42b	-0.05803315
93	0x3e3232ab	0.17402141
94	0x3d53a397	0.051669683
95	0xbd883223	-0.06650188
96	0xbce742f9	-0.028230177
97	0x3d3a2745	0.045447607
98	0xbd53e5dd	-0.051732887
99	0x3d51bb34	0.05120392
100	0xbbf8eec5	-0.007596823
101	0xbd3f601a	-0.04672251
102	0x3d680623	0.056646477
103	0x3c978a9b	0.01849871
104	0xbc51d1d3	-0.012806374
105	0x3df4da1a	0.11955662
106	0xbcc0ad21	-0.023520054
107	0xbdb85f37	-0.09002536
108	0xbc550894	-0.013002533
109	0x3dc1d614	0.0946466
110	0xbdf77849	-0.120834894
111	0xbdfe8250	-0.12427199
112	0xbe27e4b5	-0.16395839
113	0xbb3906b6	-0.002823276
114	0x3ceea66e	0.029132094
115	0xbdf24689	-0.1182986
116	0xbc41674e	-0.011804415
117	0xbe0e035e	-0.13868472
118	0xbc7addd4	-0.015311677
119	0x3d91f426	0.07126646
120	0x3b4353f0	0.002980467
121	0xbd4d7db9	-0.050168727
122	0x3df2dbec	0.11858353
123	0xbcd12a51	-0.025532873
124	0xbe001ad0	-0.12510228
125	0x3d8d9b03	0.06914332
126	0xbd4b6b0e	-0.049662642
127	0x3d40478a	0.046943225
128	0xbd9494a2	-0.07254912
129	0x3dfd29aa	0.123614624
130	0xbd938cd5	-0.07204596
131	0xbca7767a	-0.020442236
132	0xbd3daa06	-0.046304725
133	0xbe27e07a	-0.16394225
134	0xbd1e24ad	-0.038609196
135	0xbd4c0140	-0.04980588
136	0x3d9110b5	0.07083265
137	0x3dda2b31	0.10652769
138	0xbd229332	-0.039691158
139	0x3dc3f61c	0.09568426
140	0xbd71cf2e	-0.059035473
141	0xbd4ec06b	-0.050476473
142	0xbce2728f	-0.027642516
143	0xbd59460f	-0.05304533
144	0x3d32359a	0.04350815
145	0x3d76b412	0.060230322
146	0x3b42eb54	0.0029742317
147	0xbd78a52e	-0.060704403
148	0xbdf04d5c	-0.11733505
149	0x3d5134ed	0.051075865
150	0x3cff73ec	0.031183206
151	0x3d929d36	0.07158892
152	0xbdd22f1f	-0.10262894
153	0x3dc71b9a	0.097220615
154	0xbda33fad	-0.079711296
155	0x3c844bad	0.016149366
156	0xbdd1f0db	-0.10251018
157	0x3d8907fd	0.06690977
158	0xbdfdae6d	-0.12386785
159	0xbc39f8da	-0.011350835
160	0xbd227b67	-0.039668467
161	0xbd51ea1b	-0.05124865
162	0x3dec1fb0	0.115294814
163	0x3ce7df3d	0.02830469
164	0xbca2c824	-0.019870825
165	0xbc808b87	-0.015691532
166	0xbd92142d	-0.071327545
167	0x3d4e8f77	0.050429787
168	0xbdc54477	-0.09632199
169	0xbd24d175	-0.040238816
170	0xbd5a08b0	-0.05323094
171	0x3e1b06f7	0.15139376
172	0xbdc61d08	-0.09673506
173	0x3d81da50	0.06340468
174	0xbd0d735f	-0.034533855
175	0xbe410f20	-0.18853426
176	0x3db2c22e	0.08728443
177	0x3cc01e52	0.023451958
178	0xbca7eabf	-0.020497678
179	0xbda7b09f	-0.08187985
180	0x3dd831e6	0.10556392
181	0xbcfd9f44	-0.030959733
182	0xbdefb2b1	-0.117040046
183	0xbd94e007	-0.07269292
184	0xbd32f56c	-0.043691084
185	0x3e086c4c	0.13322562
186	0x3dce67c0	0.100783825
187	0xbb52221f	-0.0032063795
188	0x3dc20a46	0.09474616
189	0xbbb3b692	-0.0054844106
190	0xbe09ca63	-0.1345611
191	0xbce2b9ee	-0.027676549
192	0x3d29485e	0.04132878
193	0xbd4905a4	-0.049077645
194	0x3ca6bfa5	0.020355055
195	0xbd24cee2	-0.04023636
196	0xbdf04c96	-0.117333576
197	0xbc6f15b4	-0.014592577
198	0xbc927e0c	-0.01788237
199	0xbdabee60	-0.08395076
200	0xbba24f17	-0.004953276
201	0xbcbbad79	-0.022909867
202	0x3ddd8917	0.108171634
203	0xbd93374d	-0.07188282
204	0xbe04dde2	-0.12975267
205	0x3c2729c6	0.010202831
206	0x3c1dc22a	0.009628812
207	0x3c9fddf4	0.019515015
208	0x3dbc62ae	0.09198509
209	0x3e1d7c45	0.15379436
210	0xbdc5d0cc	-0.096589655
211	0xbcdbf242	-0.026848916
212	0xbd7a04e3	-0.061039817
213	0x3dc5345a	0.09629126
214	0x3d0dc8e2	0.034615405
215	0xbbb8bbb1	-0.005637609
216	0x3d3c0dec	0.045911714
217	0xbdd4c716	-0.10389535
218	0xbd61747a	-0.05504272
219	0x3dafe39c	0.08588335
220	0xbd898185	-0.06714157
221	0x3d803c38	0.06261486
222	0xbd76e231	-0.060274307
223	0xbd9b1e44	-0.07574132
224	0xbdd2b0f0	-0.102876544
225	0xbe0a68a4	-0.1351648
226	0x3d03efcb	0.032211106
227	0xbdfdacfc	-0.1238651
228	0xbdc17c0a	-0.09447487
229	0x3ddcf001	0.107879646
230	0x3d0b0bed	0.03394692
231	0xbd97aed5	-0.074063934
232	0x3d9710e1	0.07376266
233	0xbdeb03b8	-0.11475319
234	0xbd8f6c15	-0.07003037
235	0xbe08aeb9	-0.13347901
236	0x3cdbf0fe	0.026848312
237	0xbdbb7c41	-0.09154559
238	0xbd83cbec	-0.064353794
239	0xbd986d51	-0.074427254
240	0x3d1af1e4	0.03782834
241	0x3db22b5a	0.08699675
242	0xbd028ed0	-0.031874478
243	0x3da7ed49	0.081995554
244	0xbdfec7c8	-0.12440449
245	0x3d3c7c20	0.046016812
246	0x3ccd6d8a	0.025076646
247	0xbd4b7e79	-0.04968116
248	0xbe03a083	-0.12854199
249	0xbd32433f	-0.043521162
250	0x3cf1702b	0.029472431
251	0xbcdaf565	-0.026728341
252	0x3d07766b	0.033071917
253	0x3d33b6d5	0.043875534
254	0xbdf5690e	-0.11982928
255	0x3d40e7f7	0.04709622

network2.6.bias f4 [32]
0	0x3cf1c2f3	0.029511904
1	0x3dce34ff	0.10068702
2	0x3e6c4060	0.23071432
3	0x3dcf2c31	0.10115851
4	0xbc5b62d0	-0.013390258
5	0x3ccc6cf9	0.024954306
6	0xbc58356d	-0.013196331
7	0x3e8e5212	0.2779699
8	0x3e8547a0	0.26031208
9	0xbd3e202f	-0.04641741
10	0xbdf0e5b4	-0.117625624
11	0x3ca59439	0.02021228
12	0x3ddee389	0.10883243
13	0x3e912cfd	0.28354636
14	0xbdafa50b	-0.08576401
15	0xbc34ab5f	-0.011027186
16	0x3e6bfe5b	0.23046248
17	0xbd79444f	-0.06085616
18	0x3dec75d2	0.1154591
19	0x3cd353dc	0.025796823
20	0x3e1f5d54	0.15562946
21	0xbcb2d07f	-0.021827934
22	0x3e26a985	0.16275604
23	0x3ecc8a73	0.39949378
24	0x3dc3182a	0.09526093
25	0x3e6ee14f	0.23328136
26	0xbd880b48	-0.06642777
27	0x3e2274a6	0.1586481
28	0x3dc55d5c	0.096369475
29	0x3d709997	0.058740225
30	0xbd97d0a2	-0.074128404
31	0x3c520f48	0.012821026

network2.8.weight f4 [4, 32]
0	0xbde0a46a	-0.109688595
1	0x3dc3ccd8	0.09560555
2	0xbd93a208	-0.072086394
3	0xb9e61d94	-0.00043891056
4	0x3c42b062	0.011882873
5	0xbc8860bc	-0.016647689
6	0xbcab94f7	-0.020945055
7	0x3d5a407a	0.053284146
8	0x3e1ed968	0.15512621
9	0x3d94dcc8	0.07268673
10	0xbd952601	-0.07282639
11	0xbc7b4820	-0.01533702
12	0xbddd9d89	-0.10821063
13	0x3d4301de	0.047609203
14	0xbdce8dea	-0.10085662
15	0xbde3d713	-0.111250065
16	0xbe19f0d8	-0.15033281
17	0x3d614761	0.054999713
18	0xbdb48463	-0.08814313
19	0xbdc9daa2	-0.09856154
20	0x3db51541	0.088419445
21	0x3a80ffad	0.0009841822
22	0x3d659568	0.056050688
23	0xbe0d43b9	-0.13795365
24	0x3dc9b2be	0.098485455
25	0x3c3b4d86	0.011432057
26	0xbc6339ef	-0.013868793
27	0xbe1e210d	-0.15442295
28	0x3e57aad0	0.21061254
29	0xbe35b88c	-0.1774618
30	0xbd749d0b	-0.05972008
31	0x3c3c721c	0.011501815
32	0x3e40358f	0.18770431
33	0xbe2fb22e	-0.17157814
34	0x3de8bf68	0.11364633
35	0x3de9f26e	0.11423193
36	0x3d723859	0.05913577
37	0xbd7f9062	-0.062393554
38	0x3e43bef9	0.19115819
39	0x3c8391e2	0.016060773
40	0xbe1ff46d	-0.15620585
41	0xbd570637	-0.05249616
42	0xbded3f60	-0.115843534
43	0xbdb15238	-0.0865826
44	0xbddd36f3	-0.10801496
45	0xbe6a809a	-0.2290062
46	0x3a7320c7	0.00092745986
47	0x3dd36c77	0.103234224
48	0xbe052ca1	-0.13005306
49	0xbc90426a	-0.017609794
50	0xbdd741fc	-0.105106324
51	0x3e24c99e	0.16092536
52	0xbde012b8	-0.1094107
53	0xbcd0a9d6	-0.02547161
54	0xbda64c29	-0.08119995
55	0xbe5a26ed	-0.21303912
56	0xbdc4f9d3	-0.09617963
57	0x3de6f5c8	0.11277348
58	0xbe2c167a	-0.16805449
59	0xbc6712fa	-0.014103645
60	0x3d00059d	0.031255353
61	0x3cdabf8b	0.026702663
62	0xbdaeef62	-0.085417524
63	0x3db63e2f	0.08898579
64	0x3d7edd91	0.06222302
65	0x3e24498a	0.16043678
66	0x3e00a842	0.12564185
67	0x3dc43457	0.095802955
68	0x3c951133	0.018196678
69	0xbcdf779f	-0.02727872
70	0xbe4e4b9a	-0.20146027
71	0x3e35428d	0.17701168
72	0x3e51dd82	0.20494655
73	0xbd8cd7e6	-0.06877117
74	0xbdd811b5	-0.10550252
75	0x3d8c34fe	0.06846045
76	0x3de26499	0.11054344
77	0x3ddfaa4e	0.10921155
78	0x3d8198fc	0.063280076
79	0xbd58c412	-0.052921362
80	0x3d5130e3	0.051072013
81	0xbe1b01d9	-0.15137424
82	0xbcbcbfeb	-0.023040732
83	0xbddffa98	-0.10936469
84	0x3ccb45e6	0.024813604
85	0x3db6479e	0.08900379
86	0x3d166029	0.0367128
87	0x3e689342	0.22712424
88	0xbdef5048	-0.11685234
89	0x3e0c715e	0.13715121
90	0xbd926d34	-0.07149735
91	0x3e5a608c	0.21325892
92	0xbe1b8b20	-0.1518979
93	0xbd898fd1	-0.06716884
94	0x3dc1af1a	0.09457226
95	0xbe59ac59	-0.21257152
96	0xbc9df2c9	-0.019280808
97	0xbe0a6058	-0.13513315
98	0xbdd99000	-0.10623169
99	0xbd49ddce	-0.049283795
100	0xbdf6a7fc	-0.12043759
101	0xbe4f3f90	-0.20239091
102	0x3d1bc6ca	0.038031377
103	0xbe53b718	-0.20675313
104	0x3e07c0f8	0.13257205
105	0xbe304c9e	-0.17216727
106	0x3e41625a	0.18885174
107	0xbbe3f6a1	-0.0069568907
108	0xbd9c67d3	-0.076369904
109	0xbdc9228f	-0.09821045
110	0xbe05a125	-0.13049753
111	0xbcabe8f3	-0.020985102
112	0xbd4aa68d	-0.04947524
113	0x3d959e2c	0.073055595
114	0xbe3e55a8	-0.18587363
115	0xbda1bfa6	-0.07897882
116	0xbe51ddc4	-0.20494753
117	0x3e000a54	0.1250394
118	0xbd75e9ee	-0.060037546
119	0xbe47a380	-0.19495964
120	0x3d600f68	0.054702193
121	0xbe8e2701	-0.27764133
122	0x3e1d4ca8	0.15361273
123	0x3dc948e7	0.09828358
124	0xbc94b227	-0.018151356
125	0x3cdd2234	0.026993848
126	0xbd854d35	-0.06508867
127	0x3dfbb9b8	0.122912824

network2.8.bias f4 [4]
0	0xbbd4c319	-0.006492984
1	0x3debfcad	0.115228035
2	0x3d93d763	0.07218816
3	0xbe404126	-0.18774852
