models/Classifier_FC_16.pth (torch, 150749 bytes, 21 tensors)

network.0.weight f4 [64, 16]
-0.0031781204 4.2451e-41 9.688821e-07 -0.007078822 -0.0010202709 -0.007995993 4.961e-41 0.0035986304
-0.0039371434 -0.0011940534 0.00014159335 5.0035e-41 4.9111e-41 -0.00029110097 6.0543e-41 1.349608e-35
-0.014156942 3.3829e-41 0.16331483 0.1741053 -0.0004995514 -0.2230695 1.43853e-40 0.18063481
-0.16614516 0.13486876 -0.05391722 4.9128e-41 -2.3431609e-34 0.1369092 -3.8294908e-34 4.9909e-41
-0.0041346415 -4.9738e-41 -0.0017560569 0.021041913 -0.006867744 0.018729897 5.6441e-41 0.046122722
0.016730465 0.106571704 0.030593041 -9.28426e-36 -5.6395e-41 0.027344884 5.0164e-41 -4.9694e-41
1.8603907e-07 9.1666e-41 3.4956254e-05 -0.00013230194 6.093588e-11 -0.0009516456 8.99866e-40 -0.000101302416
5.0234816e-13 3.784627e-13 -0.00023983003 4.9387e-41 6.194e-41 -1.7128345e-05 -4.9813e-41 -5.1712e-41
-0.015611712 5.4976e-41 -0.01195644 -0.006045301 -0.020304553 -0.0006790452 4.9387e-41 -0.017031755
-0.024893947 -0.019651163 -0.014930326 5.0248e-41 -4.9134e-41 -0.011393531 -4.9497e-41 2.7593e-41
-0.053639773 1.2511803e-32 -0.27680495 0.021422025 -0.08288659 -0.051200192 4.9542e-41 0.07002195
0.043894526 0.3199355 -0.29629886 -4.9149e-41 4.9662e-41 0.15050757 -8.71294e-40 -4.9099e-41
0.03445993 -3.306382e-36 -0.010648653 0.15551008 -0.18922281 -0.037083995 -5.5119853e-34 0.0635526
0.04593578 0.25181806 -0.23985389 5.924e-41 5.1028e-41 -0.07436571 -4.9927e-41 5.050008e-38
0.061105933 5.4216354e-35 0.030016636 -0.05317798 0.075165205 -0.00034825996 5.5741e-41 -0.036783937
0.22157207 -0.24991591 -0.01144131 5.0173e-41 5.3053e-41 -0.08726718 1.03829e-40 -5.432171e-35
-3.7361e-39 -4.9149e-41 -1.176284e-39 -6.317445e-08 1.4165638e-26 -3.0784037e-24 4.968e-41 -8.2080365e-21
-8.268145e-11 -2.340168e-07 4.8314e-40 4.9787e-41 5.2594e-41 2.4751304e-26 4.988e-41 4.9312e-41
-0.14730114 4.9393e-41 0.05508947 0.0596695 -0.028759938 0.15733963 -3.5490338e-35 -0.25678387
0.029883716 0.16526057 0.15401115 4.9214e-41 -5.129e-41 0.20314226 4.963e-41 5.5671e-41
-0.08924101 -5.1471e-41 -0.04063244 -0.046928562 -0.025647668 0.105485104 -4.9654e-41 0.0077835643
-0.0345667 -0.054623064 -0.016738916 -4.9876e-41 5.0384e-41 -0.05869023 -5.0489e-41 -5.1545e-41
-0.0062251813 4.989e-41 -0.002146875 -0.0018890966 -0.0011158505 -0.007320522 -1.26471e-40 -0.004664292
-0.0070139803 -0.005723107 -0.0008503825 5.1419e-41 4.9853e-41 -0.00042603773 -5.1138e-41 -4.9656e-41
-0.07135965 5.7568715e-34 0.043705165 -0.13033067 0.10112157 -0.004207484 -8.848377e-33 0.24383892
0.17766665 0.047500346 -0.15667215 4.986e-41 -4.9232e-41 -0.06017907 -6.013e-41 -4.9246e-41
0.029859677 6.0388e-41 0.06135923 0.09485787 -0.12713438 -0.058386374 4.9216e-41 0.20515047
-0.3235747 0.24221164 -0.11548703 -4.9715e-41 -4.9513e-41 0.04241779 -5.3349e-41 -4.935e-41
-0.0098844655 4.9492e-41 0.005808576 0.0034434972 0.0064057414 0.017821262 -9.0806e-41 0.03275906
0.0065119346 0.107880756 0.014102915 -4.9445e-41 4.9215e-41 0.025554204 -5.0618e-41 5.0382e-41
0.06968322 4.9344e-41 -0.22671364 0.096174 -0.12654142 0.12230709 4.9853e-41 -0.23491941
0.057055872 0.25391504 -0.19356342 4.9393e-41 6.7765684e-33 -0.032968644 -5.0535e-41 -5.779e-41
00000000: 0348 50bb 5676 0000 890a 8235 76f5 e7bb
00000010: 9cba 85ba a001 03bc 4b8a 0000 00d7 6b3b
00000020: 2703 81bb c981 9cba ad78 1439 7a8b 0000
00000030: e788 0000 e99e 98b9 c5a8 0000 d383 8f05
00000040: 85f2 67bc 4d5e 0000 013c 273e a948 323e
00000050: 54f4 02ba 556c 64be 0191 0100 55f8 383e
00000060: f521 2abe 091b 0a3e 4ed8 5cbd f388 0000
00000070: d1ba 9b87 ed31 0c3e 6983 fe87 208b 0000
00000080: e37b 87bb a68a 0080 7e2b e6ba 1760 ac3c
00000090: d00a e1bb 716f 993c 569d 0000 2eeb 3c3d
000000a0: 540e 893c 4442 da3d 429e fa3c 5274 4585
000000b0: 359d 0080 6102 e03c d68b 0000 878a 0080
000000c0: 08c2 4734 87ff 0000 fe9d 1238 88ba 0ab9
000000d0: daff 852e db77 79ba 76cc 0900 5272 d4b8
000000e0: 0066 0d2b 390e d52a e27a 7bb9 ac89 0000
000000f0: aaac 0000 d7ae 8fb7 dc8a 0080 2790 0080
00000100: 44c8 7fbc 4099 0000 f2e4 43bc a917 c6bb
00000110: bc55 a6bc f401 32ba ac89 0000 2e86 8bbc
00000120: 64ee cbbc 7afb a0bc 539e 74bc 128c 0000
00000130: f788 0080 efab 3abc fa89 0080 eb4c 0000
00000140: 61b5 5bbd 14ee 810a 61b9 8dbe 3e7d af3c
00000150: 72c0 a9bd 4bb7 51bd 1a8a 0000 ab67 8f3d
00000160: bfca 333d 96ce a33e 7cb4 97be 0289 0080
00000170: 708a 0000 a81e 1a3e d07c 0980 de88 0080
00000180: db25 0d3d 50a3 8c84 b077 2ebc 093e 1f3e
00000190: a0c3 41be 63e5 17bd c92a 3788 de27 823d
000001a0: 2827 3c3d 4cee 803e 429c 75be 23a5 0000
000001b0: 3f8e 0000 0d4d 98bd 2d8b 0080 6b79 8901
000001c0: 374a 7a3d bd21 9006 73e5 f53c 27d1 59bd
000001d0: 37f0 993d a996 b6b9 629b 0000 c1aa 16bd
000001e0: cae3 623e f5e9 7fbe 5574 3bbc dd8b 0000
000001f0: e493 0000 23b9 b2bd 6f21 0100 7169 9086
00000200: baae 2880 0289 0080 00cf 0c80 85aa 87b3
00000210: 294a 8c14 112e 6e98 7d8a 0000 a10b 1b9e
00000220: 85d1 b5ae 0c46 7bb4 cc42 0500 c98a 0000
00000230: 9c92 0000 0320 f514 0c8b 0000 7689 0000
00000240: 1cd6 16be b089 0000 7fa5 613d 0168 743d
00000250: f699 ebbc a41d 213e f2b2 3c86 2d79 83be
00000260: b2ce f43c 113a 293e 19b5 1d3e 3089 0000
00000270: fa8e 0080 8604 503e 598a 0000 309b 0000
00000280: fec3 b6bd 7b8f 0080 346e 26bd 2a38 40bd
00000290: 0f1b d2bc 9308 d83d 6a8a 0080 450d ff3b
000002a0: d095 0dbd 6fbc 5fbd 0d20 89bc 098b 0080
000002b0: 738c 0000 2b65 70bd be8c 0080 b08f 0080
000002c0: 9bfc cbbb 138b 0000 96b2 0cbb 909b f7ba
000002d0: bb41 92ba fde0 efbb 8d60 0180 ebd6 98bb
000002e0: 88d5 e5bb e788 bbbb 34ec 5eba 568f 0000
000002f0: f88a 0000 d15d dfb9 8d8e 0080 6c8a 0080
00000300: 0225 92bd 0c4e 3f08 3004 333d 6775 05be
00000310: d318 cf3d efde 89bb 0bc6 378a e9b0 793e
00000320: 3fee 353e b98f 423d aa6e 20be fd8a 0000
00000330: 3d89 0080 547e 76bd 9ea7 0080 4789 0080
00000340: 489c f43c 56a8 0000 d153 7b3d d844 c23d
00000350: 842f 02be 8d26 6fbd 3289 0000 f712 523e
00000360: 95ab a5be 5406 783e 7784 ecbd 968a 0080
00000370: 068a 0080 47be 2d3d b794 0080 9189 0080
00000380: 74f2 21bc f789 0000 de55 be3b 4cac 613b
00000390: 41e7 d13b e5fd 913c 21fd 0080 5d2e 063d
000003a0: 1162 d53b 96f0 dc3d ea0f 673c d589 0080
000003b0: 3189 0000 0d57 d13c 1a8d 0080 728c 0000
000003c0: 13b6 8e3d 8d89 0000 9f27 68be e0f6 c43d
000003d0: 1394 01be 247c fa3d f88a 0000 b78e 70be
000003e0: 6bb3 693d 2701 823e 7d35 46be b089 0000
000003f0: 6bbe 0c0a 210a 07bd df8c 0080 18a1 0080

network.0.bias f4 [64]
-1.01909015e-17 -0.118331924 -0.06335933 5.4758322e-14 5.8088006e-09 -0.067837395 -0.18861146 0.25833628
5.69869e-40 -0.015048299 -2.0634163e-05 -8.35574e-11 -0.20059544 -0.35678267 -0.07584172 -0.27943897
-0.4255526 5.0039e-41 0.020498384 -0.31616703 -0.10791291 0.034770425 -2.859207e-15 0.045156986
0.06237801 -0.09260275 -0.015778817 -0.031864643 -0.11042316 -0.23783647 -0.0024233987 0.3786121
-0.15206473 -0.11880882 2.1290464e-11 -1.2156505e-11 -0.30636036 -0.24545898 0.033691444 0.11116989
0.2799898 0.008669347 -0.1753915 -0.3678513 0.0848386 -4.9487e-41 -0.112732284 0.032841142
0.47626662 0.036755655 3.7245138e-33 -1.290564e-25 -2.4719807e-08 -8.6167856e-05 -0.39627782 -0.8075767
-0.28659266 0.17354077 0.33069694 -0.44198164 -0.34906757 -0.3562201 -0.17414565 -0.0023132337
00000000: 2cfd 3ba3 0258 f2bd 89c2 81bd 0c9c 7629
00000010: c096 c731 55ee 8abd 5d23 41be a744 843e
00000020: 9034 0600 248d 76bc 8717 adb7 a2be b7ae
00000030: e468 4dbe 38ac b6be e752 9bbd a012 8fbe
00000040: 08e2 d9be 7d8b 0000 3aec a73c a5e0 a1be
00000050: 7201 ddbd 6f6b 0e3d 0f07 4ea7 88f6 383d
00000060: 1680 7f3d 83a6 bdbd 9442 81bc 8084 02bd
00000070: 8a25 e2bd 678b 73be e2d1 1ebb 72d9 c13e
00000080: dbb6 1bbe 0a52 f3bd dd45 bb2d 08dc 55ad
00000090: 44db 9cbe 9959 7bbe 0a00 0a3d 0aad e33d
000000a0: d35a 8f3e e009 0e3c d499 33be 0157 bcbe
000000b0: dcbf ad3d f389 0080 2fe0 e6bd 6f84 063d
000000c0: 38d9 f33e 198d 163d d3b5 9a09 9bc3 1f96
000000d0: 6e57 d4b2 04b5 b4b8 ede4 cabe 59bd 4ebf
000000e0: 46bc 92be acb4 313e 1c51 a93e 6b4b e2be
000000f0: fcb8 b2be 7b62 b6be 3d53 32be 9f99 17bb

network.3.weight f4 [1, 64]
-0.00057782844 0.041447047 0.03786129 -1.0451087e-13 0.010107767 0.12912619 0.03042038 -0.17907248
2.8145556e-07 0.028752264 0.0015294671 2.925161e-07 0.0153657 0.06411662 0.035603166 0.0820138
0.13716081 2.9705897e-11 0.01885373 0.055855583 -0.034083903 0.121157214 -0.002744167 -0.02482932
-0.09656715 -0.08760233 -0.0046290522 -0.10117472 0.0033751302 0.06478549 0.039481603 -0.18276262
0.075236686 0.010993591 0.023359278 1.8286195e-10 0.0312998 0.02994936 0.020127939 -0.42061505
-0.22267912 0.009598899 0.078872524 0.13939738 -0.1124172 -1.7079114e-36 -0.03279147 0.08338352
-0.23039189 0.0065579354 -0.007998222 0.00016764845 -2.0637007e-07 -0.0046859607 0.091123894 0.3066844
0.06479349 0.13500725 -0.3528992 0.22583213 0.1366085 0.01784729 0.12735443 0.023615463
00000000: 6979 17ba 61c4 293d 7114 1b3d 6a56 eba9
00000010: 0c9b 253c a839 043e 2934 f93c c75e 37be
00000020: f51a 9734 de89 eb3c 6678 c83a 1b0b 9d34
00000030: 6bc0 7b3c 934f 833d a0d4 113d daf6 a73d
00000040: e273 0c3e dea5 022e 2373 9a3c d3c8 643d
00000050: 909b 0bbd 4621 f83d 7cd7 33bb dc66 cbbc
00000060: ffc4 c5bd da68 b3bd 4eaf 97bb b134 cfbd
00000070: 4a31 5d3b 41ae 843d 76b7 213d 2026 3bbe
00000080: b115 9a3d 761e 343c f55b bf3c 100f 492f
00000090: 3834 003d 5c58 f53c 59e3 a43c db5a d7be
000000a0: ff05 64be b344 1d3c eb87 a13d 30be 0e3e
000000b0: fd3a e6bd 044b 1184 5950 06bd fbc4 aa3d
000000c0: daeb 6bbe f3e3 d63b f90a 03bc caca 2f39
000000d0: 9396 5db4 b08c 99bb 2a9f ba3d bd05 9d3e
000000e0: 73b2 843d 573f 0a3e 34af b4be 8a40 673e
000000f0: 19e3 0b3e 7b34 923c 3369 023e 3775 c13c

network2.0.weight f4 [32, 64]
-0.11737458 -0.05043198 0.025571235 0.035998285 0.08650997 0.04892665 -0.10077226 -0.0070049157
-0.05924996 0.13477346 0.07733669 -0.047472548 0.14698845 0.0016517874 -0.10603103 -0.014492997
-0.030540192 -0.05757086 -0.016619854 0.13618657 -0.11070003 -0.026043119 0.056036588 0.06526941
-0.075810775 -0.030026048 -0.0011572762 0.05694546 0.015440935 0.04573623 0.0075501124 0.112180084
-0.030354226 -0.031658504 -0.02120491 -0.011140531 0.020354386 -0.04659776 0.0073199393 -0.051958676
-0.023633096 -0.08119897 -0.15384853 0.055412743 0.11695393 -0.111373946 0.05309535 -0.041370545
0.04902394 0.052633327 0.0787002 -0.10175343 0.053118583 -0.011438869 0.054080755 -0.016103178
-0.2660951 -0.08357595 -0.17275655 -0.055431135 -0.14033672 -0.0922512 -0.19620378 -0.14252307
-0.103573315 -0.06632597 -0.09012757 -0.045050785 0.022991478 0.10393334 0.01668999 -0.025718702
0.09502647 0.011259248 0.028707052 -0.07893111 0.0608232 -0.05593998 -0.03685821 -0.09624599
-0.012119933 -0.044797827 0.03345117 0.058645397 -0.008871545 -0.056754187 0.072689295 0.05825122
-0.0066646803 -0.008143731 0.06778338 -0.07968055 0.044792082 -0.110218495 -0.06732958 -0.007111803
-0.11900009 -0.047582902 0.019184237 0.039928492 0.07608637 -0.008550778 0.07045147 0.055460233
0.045814935 -0.107027955 0.09096802 0.018784631 -0.11352888 -0.10302554 0.052121453 -0.046499375
0.051642366 0.062805876 -0.11858915 -0.036244184 -0.14333613 -0.1698101 0.028520424 -0.091034025
-0.0050211116 -0.03449035 0.0024455716 -0.068070136 0.01973115 -0.03203755 -0.058182336 0.029882217
0.11691447 -0.010042991 -0.06997292 0.04104938 0.008512015 -0.0035018907 0.041249435 -0.033092983
-0.047891945 -0.14810172 -0.08385446 -0.06994255 -0.10901895 -0.037585773 -0.032605972 -0.09451758
0.06861836 0.02803087 -0.09490886 0.05818382 0.1383189 0.059019264 0.12946463 -0.01676102
0.07441467 0.12589794 -0.10032437 0.021263113 0.012139074 0.1489361 0.021958964 0.06676068
0.055191327 0.04643862 -0.021976558 0.09927157 0.010009379 0.038895126 0.124739215 0.028775971
0.04443347 -0.010153429 0.036522485 0.1010596 0.020559387 0.028326446 -0.10018726 -0.018865272
-0.028230768 -0.041005436 -0.11481615 0.03711992 0.05839058 -0.002033558 -0.013794031 0.014594232
-0.015599279 0.059187558 -0.003597714 0.16728579 0.02059107 0.020157404 -0.029945888 0.12793334
-0.0052366224 -0.07452879 -0.023007462 0.00025366017 0.049917832 0.028474702 -0.03127414 -0.15415186
-0.027805466 -0.02070232 -0.08319338 0.067473456 0.041541036 0.0030442325 -0.10491236 0.055201072
0.05836246 -0.074869156 0.07816123 0.041062664 0.020313654 -0.07688839 0.03338033 -0.03324571
-0.023923391 0.08643358 -0.030201266 -0.098661356 -0.13169527 -0.06263754 0.09859953 0.056025688
0.04671281 0.109418474 -0.099117726 0.018623983 -0.031606924 -0.12349051 -0.07068984 -0.11514522
-0.02815741 0.045221675 0.07191531 0.01941714 0.06406297 0.06563156 -0.05241276 0.024414558
0.032037858 -0.11040463 -0.15089528 -0.005598426 -0.12691402 0.011526036 0.0040253545 -0.053754568
-0.07119467 0.06383877 -0.0037246572 0.07574126 0.027913578 -0.014941784 0.012507925 -0.11067555
00000000: 1562 f0bd c491 4ebd c47a d13c f072 133d
00000010: 242c b13d 5067 483d b061 cebd 7e89 e5bb
00000020: 16b0 72bd 0e02 0a3e b362 9e3d 9372 42bd
00000030: 2484 163e ca80 d83a cc26 d9bd 0974 6dbc
00000040: 6d2f fabc 6ccf 6bbd 5c26 88bc 7e74 0b3e
00000050: b3b6 e2bd 6158 d5bc 9f86 653d f8ab 853d
00000060: ae42 9bbd 30f9 f5bc bfaf 97ba a53f 693d
00000070: fafb 7c3c ea55 3b3d ef66 f73b acbe e53d
00000080: 6da9 f8bc 59ac 01bd ebb5 adbc c686 36bc
00000090: 3ebe a63c 4bdd 3ebd 1adc ef3b 9fd2 54bd
000000a0: 329a c1bc a54b a6bd 788a 1dbe 79f8 623d
000000b0: 8b85 ef3d 0618 e4bd 827a 593d 2974 29bd
000000c0: 54cd 483d 0b96 573d 922d a13d 1a64 d0bd
000000d0: df92 593d 186a 3bbc c883 5d3d d0ea 83bc
000000e0: 9e3d 88be de29 abbd 18e7 30be c20b 63bd
000000f0: 6eb4 0fbe 32ee bcbd a5e9 48be 91f1 11be
00000100: 3f1e d4bd e9d5 87bd ce94 b8bd 2c87 38bd
00000110: a058 bc3c 01db d43d 72b9 883c 07b0 d2bc
00000120: 3d9d c23d b578 383c 0d2b eb3c a2a6 a1bd
00000130: bf21 793d 5221 65bd a2f8 16bd 9e1c c5bd
00000140: af92 46bc ed7d 37bd 1804 093d 2836 703d
00000150: f559 11bc 1477 68bd 20de 943d d598 6e3d
00000160: 6463 dabb 496d 05bc 03d2 8a3d 8e2f a3bd
00000170: e777 373d 3cba e1bd 17e4 89bd 210a e9bb
00000180: 52b6 f3bd 4ae6 42bd 4328 9d3c 0f8c 233d
00000190: 2cd3 9b3d 9018 0cbc dc48 903d 452a 633d
000001a0: 71a8 3b3d 7931 dbbd 714d ba3d 3ae2 993c
000001b0: d481 e8bd 0eff d2bd 4e7d 553d 2176 3ebd
000001c0: f286 533d 5ea0 803d dede f2bd c874 14bd
000001d0: b5c6 12be b3e2 2dbe aaa3 e93c 0c70 babd
000001e0: 2388 a4bb c145 0dbd e245 203b 5b68 8bbd
000001f0: 38a3 a13c ce39 03bd 9a50 6ebd 8dcb f43c
00000200: db70 ef3d 5b8b 24bc f64d 8fbd 6523 283d
00000210: fb75 0b3c fa7f 65bb 2bf5 283d 828c 07bd
00000220: 582a 44bd faa7 17be e3bb abbd 0a3e 8fbd
00000230: 5445 dfbd 8af3 19bd d78d 05bd 6f92 c1bd
00000240: c887 8c3d ffa0 e53c 945f c2bd 2852 6e3d
00000250: 78a3 0d3e 2fbe 713d 6092 043e 684e 89bc
00000260: b866 983d 64eb 003e dd76 cdbd fb2f ae3c
00000270: f7e2 463c b482 183e 49e3 b33c d3b9 883d
00000280: 4d10 623d 6c36 3e3d 2f08 b4bc e54e cb3d
00000290: 61fe 233c 7f50 1f3d 4677 ff3d 96bb eb3c
000002a0: dfff 353d 915a 26bc 9a98 153d 56f8 ce3d
000002b0: 296c a83c dd0c e83c fa2e cdbd 588b 9abc
000002c0: 3644 e7bc 51f5 27bd bb24 ebbd 0f0b 183d
000002d0: f62a 6f3d 7145 05bb 5c00 62bc a51c 6f3c
000002e0: 1e94 7fbc a76e 723d a0c7 6bbb f74c 2b3e
000002f0: 9bae a83c 2421 a53c 1451 f5bc f500 033e
00000300: f997 abbb 8da2 98bd 257a bcbc b1fd 8439
00000310: a476 4c3d c743 e93c 5019 00bd fcd9 1dbe
00000320: 4ac8 e3bc e997 a9bc 4a61 aabd 862f 8a3d
00000330: ef26 2a3d bf81 473b 4bdc d6bd 851a 623d
00000340: 7a0d 6f3d 0055 99bd ff12 a03d 5331 283d
00000350: d268 a63c a977 9dbd d0b9 083d a72c 08bd
00000360: fdfa c3bc 1704 b13d a568 f7bc f70e cabd
00000370: 20db 06be 1c48 80bd 8dee c93d 317b 653d
00000380: ee55 3f3d cb16 e03d 3cfe cabd 5391 983c
00000390: 4376 01bd 98e8 fcbd d6c5 90bd 42d1 ebbd
000003a0: 5eaa e6bc 5d3a 393d 5648 933d b210 9f3c
000003b0: 7233 833d d769 863d c3ae 56bd 0a01 c83c
000003c0: 213a 033d d31b e2bd 4b84 1abe 0073 b7bb
000003d0: c0f5 01be b3d7 3c3c 1fe7 833b c02d 5cbd
000003e0: 83ce 91bd e7bd 823d 6119 74bb 3c1e 9b3d
000003f0: 04ab e43c 62ce 74bc 0aee 4c3c dda9 e2bd

network2.0.bias f4 [32]
0.0019094839 -0.09083652 0.10736023 0.067318596 0.11887166 -0.016325785 0.13018538 -0.060323417
0.05498803 0.035605337 0.10006013 0.10945399 -0.027737727 0.020777011 0.035009008 0.12101097
0.01029551 -0.13307454 -0.08734536 0.34678152 -0.012685857 0.15404677 -0.035760008 0.04345965
0.064230606 0.038638264 -0.07872734 0.15640481 0.11499531 0.20787221 -0.04105889 0.06116705
00000000: a647 fa3a 7f08 babd aedf db3d 55de 893d
00000010: fc72 f33d a7bd 85bc 514f 053e b015 77bd
00000020: 213b 613d e7d6 113d 53ec cc3d 6a29 e03d
00000030: 3b3a e3bc 8d34 aa3c 9b65 0f3d 99d4 f73d
00000040: 80ae 283c b144 08be 20e2 b2bd 598d b13e
00000050: 57d8 4fbc 70be 1d3e 1679 12bd bf02 323d
00000060: 568b 833d 2843 1e3d cd3b a1bd 9528 203e
00000070: a982 eb3d 74dc 543e 5e2d 28bd 4d8a 7a3d

network2.3.weight f4 [4, 32]
-0.042569693 -0.13961151 0.10160383 -0.11681415 0.11500187 0.15651166 0.14341924 -0.12939443
-0.0844277 -0.06787406 -0.08416968 0.13139941 -0.033709113 0.031001823 0.04727135 0.15136299
-0.0049796463 0.05553128 0.08973243 -0.083698474 0.075203575 0.2214321 0.08004219 0.042313904
-0.14825921 -0.004929318 0.15288226 0.073578976 0.090074375 0.044884678 -0.00787943 -0.13370062
0.1053213 -0.1058357 0.011196293 -0.11324551 0.084626414 0.11712121 -0.04578935 0.16159604
-0.1058317 0.119041495 -0.108547166 -0.09184508 0.109742686 -0.095554106 0.035602234 -0.05095142
0.024907673 -0.051488966 -0.08507146 -0.05154179 0.23704536 0.0654456 0.07713793 0.1575627
0.0046372744 -0.075941905 0.11338445 0.06783134 -0.046562407 -0.034965955 -0.08621402 0.09257759
-0.07398687 0.08527061 0.094865695 0.0652137 -0.030234372 0.0033626833 -0.0333513 -0.084863685
0.13344318 -0.10678626 -0.061057135 -0.08253078 -0.019667378 -0.051346898 -0.0117139835 0.04959379
-0.047126457 0.04183409 -0.0128453085 0.07786439 0.059844293 0.07877876 0.08153308 0.073987246
-0.17425668 0.1504272 -0.041754264 -0.04744601 0.09399966 0.032785792 -0.12671794 -0.06555618
0.10024282 0.16002496 -0.019585527 -0.032498583 -0.13011336 0.0019367083 0.023922358 0.058959838
-0.027473584 -0.15011364 0.09714458 0.06647275 -0.10341026 -0.03667673 0.19073658 0.039297156
0.1580705 -0.12384824 0.11147863 -0.25229558 0.052724905 0.13151379 0.18250658 -0.07238886
0.046205115 0.15187345 0.070461415 -0.115648784 0.021377034 -0.057947427 0.08370256 0.08642376
00000000: 8f5d 2ebd 52f6 0ebe ab15 d03d 423c efbd
00000010: 1a86 eb3d 9844 203e 7edc 123e f97f 04be
00000020: 6ee8 acbd 8e01 8bbd 2761 acbd 918d 063e
00000030: 9112 0abd 89f7 fd3c 9a9f 413d e6fe 1a3e
00000040: 4d2c a3bb c474 633d a3c5 b73d 1b6a abbd
00000050: 5504 9a3d 19bf 623e 29ed a33d 5851 2d3d
00000060: 43d1 17be 1e86 a1bb 2b8d 1c3e 93b0 963d
00000070: ea78 b83d ffd8 373d ba18 01bc d1e8 08be
00000080: b2b2 d73d 63c0 d8bd a870 373c 43ed e7bd
00000090: 9d50 ad3d 3fdd ef3d 9d8d 3bbd 6f79 253e
000000a0: 4abe d8bd 07cc f33d fa4d debd 4619 bcbd
000000b0: c6c0 e03d dfb1 c3bd a6d3 113d 70b2 50bd
000000c0: 2d0b cc3c 18e6 52bd f239 aebd 7c1d 53bd
000000d0: 05bc 723e 5808 863d 7efa 9d3d 1e58 213e
000000e0: 47f4 973b 6e87 9bbd 1b36 e83d 28eb 8a3d
000000f0: 39b8 3ebd 7638 0fbd fa90 b0bd 5299 bd3d
00000100: 6e86 97bd 5ca2 ae3d f248 c23d c38e 853d
00000110: 13ae f7bc 7760 5c3b 5f9b 08bd 03cd adbd
00000120: 54a5 083e c1b2 dabd 0c17 7abd e605 a9bd
00000130: 7b1d a1bc 2051 52bd 02ec 3fbc dc22 4b3d
00000140: ac07 41bd 395a 2b3d 2175 52bc 5e77 9f3d
00000150: 4a1f 753d c256 a13d d1fa a63d a086 973d
00000160: 5870 32be 9709 1a3e 8506 2bbd bf56 42bd
00000170: e582 c03d 654a 063d 59c2 01be 5242 86bd
00000180: 1c4c cd3d 95dd 233e d471 a0bc 3c1d 05bd
00000190: 703c 05be 26d9 fd3a d2f8 c33c df7f 713d
000001a0: 4810 e1bc 64b7 19be bdf3 c63d dd22 883d
000001b0: c2c8 d3bd 573a 16bd 7350 433e 0ef6 203d
000001c0: 3cdd 213e 25a4 fdbd e84e e43d e32c 81be
000001d0: 12f6 573d 8dab 063e 01e3 3a3e 9c40 94bd
000001e0: 9341 3d3d b784 1b3e 134e 903d 45d9 ecbd
000001f0: e41e af3c 485a 6dbd 3f6c ab3d f1fe b03d

network2.3.bias f4 [4]
0.43531993 -0.5408206 -0.115771696 -0.00035953225
00000000: 41e2 de3e 3873 0abf b619 edbd 9a7f bcb9

exp_avg f4 [64, 16]
-3.28925e-07 -1e-45 1.0427717e-10 -7.212029e-07 -1.0820498e-07 -8.164148e-07 0.0 3.6701405e-07
-4.0528965e-07 -1.2494692e-07 1.4790134e-08 0.0 0.0 -3.108893e-08 0.0 3.269728e-39
0.0029892323 -3e-45 -8.9480716e-05 0.0067175487 0.0036261608 0.0023220999 1e-44 0.0040597725
0.0029986096 0.0045509846 0.00187069 0.0 -5.080358e-38 0.00202057 -3.2619838e-37 0.0
-0.014070767 -0.0 -0.008685944 -0.0076667285 -0.005764968 -0.019410547 0.0 -0.011916854
-0.01485074 -0.009817549 -0.007213145 -2.746622e-39 -0.0 -0.004240241 0.0 -0.0
2.7518137e-11 1e-45 4.2447255e-09 -1.5393093e-08 6.5198697e-15 -1.0445552e-07 -1e-45 -1.1889547e-08
-6.380337e-17 -5.4095714e-18 -2.7436379e-08 0.0 0.0 -2.1334432e-09 -0.0 -0.0
-1.583828e-06 0.0 -1.2341436e-06 -6.220949e-07 -2.0592977e-06 -6.913689e-08 0.0 -1.7298653e-06
-2.5141942e-06 -1.9955928e-06 -1.5140863e-06 0.0 -0.0 -1.1610397e-06 -0.0 1e-45
-0.01242462 -1.2410579e-36 -0.006010048 -0.008886965 -0.006702869 -0.018646235 0.0 -0.009279127
-0.013036221 -0.0039983834 -0.005361347 -0.0 0.0 0.00036929033 -3.32e-43 -0.0
-0.009130139 -4.13213e-40 -0.0058349296 -0.0036293608 -0.003053645 -0.010232176 1.0758175e-37 -0.010301686
-0.011286791 -0.007555749 -0.00520804 0.0 0.0 -0.0021502436 -0.0 1.82e-42
0.056812327 3.998866e-39 0.03248396 0.03588697 0.025892274 0.06425391 0.0 0.051477402
0.059481088 0.041288927 0.026041823 0.0 0.0 0.020578727 -1e-45 8.36474e-40
-6.95e-43 -0.0 4.2e-44 -7.2363474e-12 2.2404572e-30 -1.1786225e-28 0.0 -2.3398175e-24
-1.0272855e-14 -2.6409534e-11 1.06e-43 0.0 0.0 3.50577e-30 0.0 0.0
-0.0034223816 0.0 -0.00222648 0.00030068777 -0.0010247708 -0.005007129 7.598331e-39 -0.001081623
-0.0035044258 0.0017985832 -0.00043907433 0.0 -0.0 0.000116233205 0.0 0.0
-8.975468e-06 -0.0 -4.1090957e-06 -4.719317e-06 -2.5908348e-06 1.0583822e-05 -0.0 7.849463e-07
-3.4914428e-06 -5.483532e-06 -1.6914714e-06 -0.0 0.0 -5.9097165e-06 -0.0 -0.0
-6.5580963e-07 0.0 -2.3433199e-07 -2.0734893e-07 -1.2481725e-07 -7.6473225e-07 -1e-44 -4.960081e-07
-7.3548796e-07 -6.038087e-07 -9.6062685e-08 0.0 0.0 -4.93149e-08 -0.0 -0.0
7.3679184e-05 -1.0009848e-37 0.00022420153 0.0023160374 0.00051059964 0.00012217648 2.4459627e-36 8.644194e-05
0.00031873977 0.0014273464 0.0007430405 0.0 -0.0 0.0014238778 -0.0 -0.0
-0.009596086 0.0 -0.0040984624 -0.006311915 -0.0019856463 -0.012777627 0.0 -0.00988665
-0.012611155 -0.01058761 -0.006829438 -0.0 -0.0 -0.0031391252 -0.0 -0.0
-0.017062807 0.0 -0.0121081965 -0.00999098 -0.0064181937 -0.022747852 -1.3e-44 -0.016168851
-0.02400344 -0.014379977 -0.008558645 -0.0 0.0 -0.0046936725 -0.0 0.0
-0.03929287 0.0 -0.020984646 -0.029318484 -0.017077312 -0.045974355 0.0 -0.03613906
-0.04619685 -0.030120155 -0.020002296 0.0 1.1528241e-36 -0.011040263 -0.0 -0.0
00000000: 1c97 b0b4 0100 0080 d44e e52e b098 41b5
00000010: 515e e8b3 9927 5bb5 0000 0000 070a c534
00000020: 9696 d9b4 2629 06b4 b217 7e32 0000 0000
00000030: 0000 0000 a486 05b3 0000 0000 ac9a 2300
00000040: ffe6 433b 0200 0080 98a7 bbb8 e21e dc3b
00000050: e2a4 6d3b 5f2e 183b 0700 0000 d707 853b
00000060: 5284 443b 6d20 953b f131 f53a 0000 0000
00000070: ee4c 8a81 8a6b 043b c6ff dd82 0000 0000
00000080: 1389 66bc 0000 0080 7d4f 0ebc 2e39 fbbb
00000090: 0fe8 bcbb de02 9fbc 0000 0000 e93e 43bc
000000a0: 8550 73bc c9d9 20bc 3f5c ecbb 77e8 1d80
000000b0: 0000 0080 b8f1 8abb 0000 0000 0000 0080
000000c0: 560d f22d 0100 0000 00d9 9131 c539 84b2
000000d0: 2fe7 ea27 0851 e0b3 0100 0080 c842 4cb2
000000e0: dd1e 93a4 f593 c7a2 3cad ebb2 0000 0000
000000f0: 0000 0000 ee9b 12b1 0000 0080 0000 0080
00000100: ea93 d4b5 0000 0000 daa4 a5b5 09fe 26b5
00000110: 7732 0ab6 6878 94b3 0000 0000 b82d e8b5
00000120: 87b9 28b6 06ec 05b6 9c37 cbb5 0000 0000
00000130: 0000 0080 05d5 9bb5 0000 0080 0100 0000
00000140: a290 4bbc b227 d383 f0ef c4bb a29a 11bc
00000150: bea3 dbbb fdbf 98bc 0000 0000 7b07 18bc
00000160: e095 55bc df04 83bb 3dae afbb 0000 0080
00000170: 0000 0000 4f9d c139 ed00 0080 0000 0080
00000180: 9496 15bc df7f 0480 f032 bfbb 92da 6dbb
00000190: a91f 48bb dba4 27bc c56e 1202 67c8 28bc
000001a0: 3cec 38bc 3796 f7bb 35a8 aabb 0000 0000
000001b0: 0000 0000 1aeb 0cbb 0000 0080 1305 0000
000001c0: 0bb4 683d 368b 2b00 e70d 053d 37fe 123d
000001d0: 091c d43c 8e97 833d 0000 0000 f8d9 523d
000001e0: 71a2 733d 941e 293d a955 d53c 0000 0000
000001f0: 0000 0000 b894 a83c 0100 0080 c01b 0900
00000200: f001 0080 0000 0080 1e00 0000 399b feac
00000210: 7ac4 350e 7d68 1591 0000 0000 dc08 3598
00000220: 2f0f 39a8 fc4c e8ad 4c00 0000 0000 0000
00000230: 0000 0000 ff35 8e0e 0000 0000 0000 0000
00000240: 094a 60bb 0000 0000 23ea 11bb a1a5 9d39
00000250: 9a51 86ba d812 a4bb 0ebd 5200 3fc5 8dba
00000260: 82aa 65bb 70be eb3a 8f33 e6b9 0000 0000
00000270: 0000 0080 3ac2 f338 0000 0000 0000 0000
00000280: 5795 16b7 0000 0080 dde0 89b6 a05a 9eb6
00000290: 34de 2db6 2b91 3137 0000 0080 19b5 5235
000002a0: 884e 6ab6 2eff b7b6 8406 e3b5 0000 0080
000002b0: 0000 0000 144c c6b6 0000 0080 0000 0080
000002c0: e50a 30b5 0000 0000 b09c 7bb4 a4a3 5eb4
000002d0: 8105 06b4 0048 4db5 0700 0080 6b25 05b5
000002e0: 596e 45b5 6b15 22b5 054b ceb3 0000 0000
000002f0: 0000 0000 4ece 53b3 0000 0080 0000 0080
00000300: 3684 9a38 3b3f 0882 a417 6b39 a9c8 173b
00000310: c3d9 053a 801c 0039 5a14 5004 2a48 b538
00000320: 871c a739 cc15 bb3a 9bc8 423a 0000 0000
00000330: 0000 0080 69a1 ba3a 0000 0080 0000 0080
00000340: e738 1dbc 0000 0000 654c 86bb 2ed4 cebb
00000350: 9e21 02bb 4159 51bc 0000 0000 9efb 21bc
00000360: 059f 4ebc a877 2dbc 7ac9 dfbb 0000 0080
00000370: 0000 0080 c8b9 4dbb 0000 0080 0000 0080
00000380: 4dc7 8bbc 0000 0000 7561 46bc 35b1 23bc
00000390: b64f d2bb b459 babc 0900 0080 8a74 84bc
000003a0: dda2 c4bc ff99 6bbc 8f39 0cbc 0000 0080
000003b0: 0000 0000 61cd 99bb 0000 0080 0000 0000
000003c0: 8ff1 20bd 0000 0000 fee7 abbc 512d f0bc
000003d0: b8e5 8bbc 9b4f 3cbd 0000 0000 8d06 14bd
000003e0: e838 3dbd 8bbe f6bc dbdb a3bc 0000 0000
000003f0: 9224 c403 38e2 34bc 0000 0080 0000 0080

exp_avg_sq f4 [64, 16]
8.417671e-10 8.224368e-17 2.050845e-10 2.7393963e-09 3.077679e-10 2.211352e-09 2.4961088e-13 2.4661886e-09
1.1667718e-09 4.980587e-10 5.3690263e-10 1.0994534e-12 9.579748e-14 2.5070926e-10 5.581843e-15 4.4807877e-12
0.0003378361 2.717905e-12 0.00015078834 0.00024897704 9.80209e-05 0.00044965465 2.9138027e-12 0.00026260017
0.00036909085 0.0003297798 0.00013505603 4.647791e-13 4.90123e-12 7.374791e-05 5.2548343e-12 1.8157467e-12
0.00017252128 2.029791e-12 7.613429e-05 0.00011082046 4.6615514e-05 0.00023721666 8.616845e-14 0.0001283523
0.00020971512 0.0001305198 6.023768e-05 4.4606415e-12 2.0824055e-15 3.237465e-05 3.0467252e-13 8.467852e-13
1.7290351e-11 4.6250824e-18 4.0981853e-11 5.9902784e-11 1.0261886e-11 1.3477466e-10 3.1625139e-12 5.4860665e-11
6.28833e-13 7.5851435e-14 7.2438465e-11 5.634163e-13 1.8385842e-13 3.4362898e-11 7.012682e-13 3.8082134e-14
4.5329633e-09 1.479791e-14 9.827117e-10 1.1931294e-09 4.726118e-09 2.9379137e-09 2.3633677e-12 3.9045673e-09
9.458562e-09 3.984104e-09 4.793881e-09 8.911843e-14 1.896433e-12 2.6796545e-09 1.7630908e-12 9.171484e-17
0.0023245541 5.675854e-12 0.0007779866 0.0022673109 0.0007650673 0.0036634172 8.814208e-13 0.0023561122
0.002584193 0.0030295425 0.000968306 1.7392246e-12 1.6790509e-14 0.00062460644 3.2497022e-12 5.3677847e-14
0.00018582297 4.2094067e-12 8.223072e-05 0.00012622638 5.218078e-05 0.00023478064 5.186961e-12 0.00014220412
0.00022335486 0.00016171347 6.9491776e-05 4.918645e-15 1.4953433e-14 3.6607144e-05 1.7455994e-12 3.6564276e-12
0.008914517 4.639462e-12 0.0039511644 0.0053044516 0.0022207291 0.010933801 6.3255053e-15 0.0063466113
0.012106481 0.006821267 0.0032410587 1.9430087e-13 5.8254704e-15 0.0014063093 2.5639386e-17 4.7031402e-12
1.9123147e-12 8.4319655e-13 1.740588e-12 7.133289e-11 7.4736675e-12 8.860677e-12 2.2317678e-13 1.1126007e-11
3.491641e-11 8.635676e-11 2.887273e-13 1.8549654e-12 1.582255e-14 7.52569e-12 3.9177163e-13 3.328388e-14
0.000440638 9.931722e-13 0.00015468168 0.0003528287 0.00011690307 0.0006690441 4.7486845e-12 0.00037545201
0.0003724963 0.0006342241 0.00016050106 1.2813666e-12 1.5991772e-13 0.000115540824 1.8049772e-12 2.2722536e-17
2.579567e-08 5.416975e-14 7.196562e-09 2.6118684e-08 8.32642e-09 1.1984086e-07 1.1190093e-12 4.7558665e-08
8.007356e-09 4.5299036e-08 8.533607e-09 1.1776541e-12 2.735977e-13 1.8016221e-08 2.396137e-13 4.969728e-14
3.84733e-10 1.0869832e-12 1.5022297e-10 1.3482497e-10 9.811595e-11 5.3487825e-10 2.9017901e-12 2.8346664e-10
4.5772877e-10 3.6529274e-10 8.5201235e-11 4.8048647e-15 1.0179763e-12 6.3279305e-11 4.0199916e-14 3.4566038e-13
0.0002255716 5.183922e-12 9.2827424e-05 0.00016030743 6.6049666e-05 0.0003188682 5.705015e-12 0.00019508618
0.0002580121 0.00025507872 9.448945e-05 8.6895e-13 6.0521553e-13 4.1523723e-05 4.2566238e-16 3.1105739e-13
0.00076876546 2.5836922e-12 0.0003413522 0.0006288749 0.0002243715 0.0010162988 2.338696e-12 0.00066957297
0.00083488866 0.00081772567 0.00033548658 1.7278522e-12 1.22218435e-14 0.0001877012 2.2097763e-14 2.2102422e-13
0.00019293997 1.2312317e-12 7.682833e-05 0.000115811505 5.2947595e-05 0.00026202775 2.8718761e-12 0.00014714415
0.00023518849 0.00016118381 6.867092e-05 4.4709943e-14 1.2711532e-12 4.0034094e-05 2.8654704e-13 1.370919e-13
0.0022529836 5.996844e-13 0.0009095939 0.0016862255 0.0006053859 0.003209642 1.1794229e-12 0.0017187216
0.0024684025 0.0023207867 0.00076054054 5.918761e-13 5.420792e-12 0.0004675375 3.3874257e-13 9.301958e-16
00000000: 1862 6730 1aa4 bd24 287e 612f f83f 3c31
00000010: 7b32 a92f 84f6 1731 b884 8c2a a679 2931
00000020: 225c a030 c4e7 0830 2a95 1330 fcbb 9a2b
00000030: 7db7 d729 31d4 892f 6a1b c927 59a7 9d2c
00000040: 981f b139 6c41 3f2c f01c 1e39 2289 8239
00000050: 9290 cd38 a0bf eb39 670a 4d2c 99ad 8939
00000060: 8982 c139 4ce6 ac39 d49d 0d39 ddd2 022b
00000070: 5b72 ac2c 1ca9 9a38 57e3 b82c 2b8b ff2b
00000080: d4e6 3439 77d5 0e2c 49aa 9f38 4868 e838
00000090: 0785 4338 5dbd 7839 bb08 c229 4f96 0639
000000a0: f9e6 5b39 24dc 0839 b7a7 7c38 e3f1 9c2c
000000b0: 9a0d 1627 04ca 0738 f083 ab2a 4e59 6e2b
000000c0: 6916 982d aba2 aa22 773d 342e 45ba 832e
000000d0: 6d87 342d b22f 142f c98a 5e2c 9e47 712e
000000e0: 3100 312b 60cd aa29 3b4b 9f2e 6c96 1e2b
000000f0: 9501 4f2a 2f21 172e b363 452b b681 2b29
00000100: 5ec0 9b31 a849 8528 1810 8730 82fb a330
00000110: 6063 a231 53e4 4931 a64e 262c f028 8631
00000120: 327f 2232 8de4 8831 6cb7 a431 47ad c829
00000130: 1a73 052c fb24 3831 0a22 f82b e37a d324
00000140: 8c57 183b 8cb3 c72c ccf1 4b3a 2a97 143b
00000150: cc8e 483a f115 703b 1019 782b 0169 1a3b
00000160: 905b 293b 4a8b 463b ead5 7d3a 2cc6 f42b
00000170: 473c 9728 a1bc 233a 6ead 642c 58be 7129
00000180: 79d9 4239 f71a 942c 4873 ac38 a35b 0439
00000190: b0dc 5a38 732f 7639 fe7f b62c a11c 1539
000001a0: 5d34 6a39 a191 2939 1dbc 9138 7e36 b127
000001b0: 45b0 8628 9f8a 1938 d9ab f52b 2ca6 802c
000001c0: 320e 123c 8f3c a32c c578 813b f7d0 ad3b
000001d0: a789 113b af23 333c 7de6 e327 3cf7 cf3b
000001e0: 435a 463c ef84 df3b f167 543b 6ac3 5a2a
000001f0: 7be2 d127 e953 b83a 4a7b ec23 1f7a a52c
00000200: 3391 062c b756 6d2b 4bf7 f42b d9dc 9c2e
00000210: 687a 032d f1e0 1b2d 5446 7b2a 15bb 432d
00000220: 6290 192e 89e6 bd2e fd89 a22a 1688 022c
00000230: 5184 8e28 b264 042d 3e8c dc2a b3e5 1529
00000240: 6e05 e739 cdc6 8b2b 0c32 2239 defb b839
00000250: dc29 f538 ca62 2f3a 5914 a72c 51d8 c439
00000260: 9b4b c339 0f42 263a 2d4c 2839 1956 b42b
00000270: 250d 342a 824e f238 2807 fe2b 1294 d123
00000280: 4795 dd32 78f5 7329 a145 f731 985b e032
00000290: fc0b 0f32 9bad 0034 8f7c 9d2b 4e43 4c33
000002a0: b990 0932 d18e 4233 339b 1232 76bd a52b
000002b0: 9605 9a2a 17c2 9a32 f9e3 862a 10d1 5f29
000002c0: 5b82 d32f b2fa 982b 022c 252f db3d 142f
000002d0: 5fc2 d72e b606 1330 0132 4c2c 62d6 9b2f
000002e0: 99a3 fb2f 62d2 c82f 085c bb2e 0e1d ad27
000002f0: 7644 8f2b 1527 8b2e 590b 3529 e996 c22a
00000300: 6a87 6c39 9e64 b62c 58ac c238 3318 2839
00000310: 2584 8a38 c42d a739 35ba c82c 0c90 4c39
00000320: cc45 8739 16bc 8539 a328 c638 7296 742b
00000330: 605a 2a2b c229 2e38 ae60 f525 181c af2a
00000340: fa86 493a a9cf 352c 84f7 b239 15db 243a
00000350: 4445 6b39 5435 853a 3492 242c 4886 2f3a
00000360: 6edc 5a3a a45c 563a 3fe4 af39 702c f32b
00000370: 4e2b 5c28 a8d1 4439 f909 c728 e5d9 782a
00000380: ee4f 4a39 cc47 ad2b e51e a138 d4df f238
00000390: 0c14 5e38 c560 8939 1f17 4a2c b54a 1a39
000003a0: ee9c 7639 7303 2939 6b03 9038 0e5b 4929
000003b0: 1fe6 b22b 48ea 2738 c84f a12a 0d5a 1a2a
000003c0: cba6 133b d1cb 282b d071 6e3a 5704 dd3a
000003d0: c3b2 1e3a db58 523b 30fd a52b ba46 e13a
000003e0: ecc4 213b 5718 183b 035f 473a 2b99 262b
000003f0: 27ba be2c d21f f539 f3b1 be2a 2b0e 8626

exp_avg f4 [64]
-1.9896052e-21 0.00019737887 -0.00013327527 -8.145507e-18 4.23e-14 -5.2410884e-05 -0.00011989675 0.001020987
7.4e-44 -1.2324122e-05 -3.3809113e-09 4.833197e-15 4.337629e-05 -6.390071e-05 -0.0001769026 -0.0006850606
0.00044335992 0.0 1.23322225e-05 0.00015725402 0.00020763182 2.036642e-06 -2.2835089e-19 -4.4033543e-05
-8.459898e-05 -6.067133e-05 -6.7911355e-07 -3.3540637e-05 -9.677354e-06 -0.00026263492 -2.5216576e-07 0.0013996812
0.0004098572 -3.545108e-05 3.6461478e-15 1.4493298e-15 -0.00012315478 -5.7350062e-05 3.395133e-05 -0.0007644145
0.0011310305 2.2190477e-05 5.1353236e-05 -0.0001564829 -0.00027378433 -0.0 4.425478e-05 -6.3717594e-06
0.002106625 -2.1240767e-05 3.2614063e-37 -1.0048186e-29 -6.4933185e-12 -9.012672e-09 1.2221303e-05 0.0008708989
-0.0006876815 0.0004170862 0.0024292178 1.6074262e-05 0.00053929223 -0.00010392257 -3.5435056e-05 3.4022614e-05
00000000: 9054 169d 7df7 4e39 cfbf 0bb9 1242 16a3
00000010: 9480 3e29 c2d3 5bb8 1471 fbb8 a4d2 853a
00000020: 3500 0000 b3c3 4eb7 9f55 68b1 6022 ae27
00000030: f0ee 3538 6f02 86b8 ee7e 39b9 a395 33ba
00000040: c372 e839 0000 0000 7ee6 4e37 8ee4 2439
00000050: beb7 5939 3ead 0836 69cb 86a0 a8b0 38b8
00000060: bb6a b1b8 5879 7eb8 544c 36b5 fcad 0cb8
00000070: eb5b 22b7 43b2 89b9 6661 87b4 8275 b73a
00000080: 1ae2 d639 4fb1 14b8 c75d 8327 d5de d026
00000090: 1c23 01b9 298b 70b8 f766 0e38 fd62 48ba
000000a0: 163f 943a b025 ba37 1e64 5738 8f15 24b9
000000b0: b68a 8fb9 0000 0080 359e 3938 ffcc d5b6
000000c0: 4d0f 0a3b 332e b2b7 b6f5 dd02 2acd 4b8f
000000d0: 9d76 e4ac 27d6 1ab2 190a 4d37 094d 643a
000000e0: 8645 34ba 5dac da39 8333 1f3b 37d7 8637
000000f0: 4a5f 0d3a 01f1 d9b8 1aa0 14b8 81b3 0e38

exp_avg_sq f4 [64]
4.9705314e-12 1.7925395e-07 9.131236e-08 3.2800287e-13 5.760721e-12 1.560327e-06 9.576831e-08 3.5275186e-06
2.189693e-12 1.761824e-07 1.2618597e-11 1.5546467e-13 9.4805785e-08 4.6493662e-07 9.5054375e-08 1.0907788e-06
8.901046e-07 1.0469238e-12 3.3866183e-09 3.293406e-07 1.7749207e-07 5.0382556e-09 4.5077774e-12 4.5629303e-08
9.431794e-08 1.6797742e-07 2.3942832e-09 3.0864737e-07 5.237825e-08 4.1954658e-07 5.605753e-10 2.4324247e-06
4.1132753e-07 1.352202e-07 6.672139e-12 1.2505822e-13 1.2388476e-07 8.870017e-08 2.2087534e-07 4.0731184e-06
2.893505e-06 1.9056145e-07 1.0453269e-06 2.1862854e-06 5.524925e-07 3.8192675e-13 5.36571e-07 2.8870305e-08
5.791312e-06 2.9378336e-07 1.7678103e-12 1.9426416e-12 4.3900313e-12 5.073617e-10 9.2111577e-07 2.7724886e-06
7.3098136e-07 6.015474e-07 6.2869353e-06 1.8671484e-06 1.3849892e-06 5.9562336e-07 1.7043989e-06 3.4733976e-08
00000000: 91e2 ae2c f378 4034 8017 c433 32a6 b82a
00000010: f6af ca2c 6d6c d135 2fa9 cd33 4fba 6c36
00000020: 0116 1a2c a62c 3d34 1cfd 5d2d a409 2f2a
00000030: 0898 cb33 679c f934 b220 cc33 e066 9235
00000040: 86ef 6e35 6857 932b 05ba 6831 3ad0 b034
00000050: a694 3e34 f71c ad31 739a 9e2c f3f9 4333
00000060: d68b ca33 485d 3434 ad88 2431 2cb4 a534
00000070: 7ff6 6033 0b3e e134 fb16 1a30 bd3c 2336
00000080: 6dd4 dc34 0c31 1134 49c1 ea2c 94cd 0c2a
00000090: 2f05 0534 6f7b be33 c029 6d34 d2ab 8836
000000a0: 0a2e 4236 229d 4c34 294d 8c35 19b8 1236
000000b0: ff4e 1435 7201 d72a e108 1035 79fe f732
000000c0: fe52 c236 47b9 9d34 14cc f82b 85b3 082c
000000d0: e375 9a2c 6876 0b30 9842 7735 fe0e 3a36
000000e0: a838 4435 067a 2135 5df4 d236 bb9a fa35
000000f0: dee3 b935 ede2 1f35 b3c2 e435 692e 1533

exp_avg f4 [1, 64]
-6.1810766e-08 0.03921256 -0.066337906 8.209232e-18 1.0124165e-06 0.022503084 -0.048254892 -0.022015447
3.1407817e-11 0.0017685891 1.544054e-07 4.830667e-11 -0.024036244 0.0045134644 -0.07586835 -0.016545739
0.0022986517 3.6292774e-15 0.00023507254 0.043274637 -0.020868236 -0.0010035438 -2.8773354e-07 0.0015151709
0.012084331 0.0125293 -0.00015047632 0.0028725425 -0.104052074 -0.020653645 3.9604743e-06 -0.0930047
0.0073397057 -0.046911128 2.3444627e-06 -6.44109e-14 -0.06003224 -0.03876872 -0.012403823 0.005811819
-0.035323564 -0.02427118 0.040628314 0.0141202 0.009128939 -2.48394e-40 -0.0033446546 -0.00023233732
-0.067657046 -0.1785802 -8.061085e-07 1.797378e-08 -1.2250796e-10 -4.6865364e-07 0.028493876 -0.008178403
-0.04234966 0.006017699 -0.04142318 -0.009114785 0.007215575 -0.11210371 0.021894697 0.007057145
00000000: d4bc 84b3 599d 203d 2bdc 87bd 016f 1723
00000010: 5ee2 8735 6358 b83c eca6 45bd bd59 b4bc
00000020: 0f22 0a2e 01d0 e73a a2ca 2534 7a74 542e
00000030: a8e7 c4bc afe5 933b de60 9bbd ee8a 87bc
00000040: faa4 163b 2dc2 8227 ce7d 7639 bf40 313d
00000050: ddf3 aabc 5889 83ba cc79 9ab4 b398 c63a
00000060: 5cfd 453c b147 4d3c 2ec9 1db9 4441 3c3b
00000070: 4119 d5bd d531 a9bc 37e4 8436 4079 bebd
00000080: ea81 f03b e225 40bd 9055 1d36 5b0a 91a9
00000090: 5ee4 75bd f3cb 1ebd 6839 4bbc 1271 be3b
000000a0: 71af 10bd 5bd4 c6bc e069 263d 6958 673c
000000b0: 8c91 153c 6cb4 0280 fe31 5bbb 939f 73b9
000000c0: c78f 8abd badd 36be 5b63 58b5 c364 9a32
000000d0: edb2 06af 449b fbb4 fd6b e93c b5fe 05bc
000000e0: d676 2dbd 1e30 c53b 5aab 29bd 2e56 15bc
000000f0: a170 ec3b a196 e5bd 825c b33c 9f3f e73b

exp_avg_sq f4 [1, 64]
2.3987703e-10 0.026487395 0.0068501094 8.812331e-14 3.4566048e-07 0.0060249525 0.04116464 0.0030942499
1.01775435e-10 0.030261496 1.847788e-07 1.41416705e-11 0.03150682 0.02156954 0.005572414 0.016156457
0.00310557 3.9173255e-11 1.5043945e-05 0.024073765 0.02791285 3.8419e-05 4.5901608e-10 0.0028655797
0.0035947522 0.0042672264 0.00015217745 0.004114022 0.10713852 0.013449311 8.412861e-08 0.005323841
0.006666698 0.057969168 6.867566e-08 1.1874888e-12 0.018245518 0.107965834 0.08521584 0.0004886045
0.001375497 0.035978623 0.0049023866 0.0042444984 0.007775692 4.5565106e-12 0.041117348 4.2859836e-05
0.006353034 0.094192065 1.507633e-08 2.2605826e-10 6.9648198e-12 5.9813403e-05 0.0065346835 0.0018013833
0.007803579 0.0007133755 0.0015499027 0.0019669556 0.0034120088 0.23187345 0.0026385072 0.00404566
00000000: b1df 832f 18fc d83c e276 e03b a16f c629
00000010: 3793 b934 f76c c53b 419c 283d e6c8 4a3b
00000020: 7ace df2e f5e6 f73c 9c67 4634 6cc8 782d
00000030: 4c0d 013d 9bb2 b03c cc98 b63b 8c5a 843c
00000040: d286 4b3b 2a49 2c2e 4065 7c37 5836 c53c
00000050: 7da9 e43c 1624 2138 c558 fc2f 73cc 3b3b
00000060: ef95 6b3b 17d4 8b3b d391 1f39 ebce 863b
00000070: 716b db3d 805a 5c3c 31aa b433 9d73 ae3b
00000080: 5174 da3b 1471 6d3d d87a 9333 cb1f a72b
00000090: a077 953c 311d dd3d a485 ae3d b115 003a
000000a0: 054a b43a 525e 133d 33a4 a03b 6f15 8b3b
000000b0: 3bcb fe3b 6651 a02c aa6a 283d 66c4 3338
000000c0: 1d2d d03b c5e7 c03d 3381 8132 be8d 782f
000000d0: 850d f52c 27e0 7a38 e620 d63b 651c ec3a
000000e0: 2ab5 ff3b d201 3b3a 1b26 cb3a 0ae8 003b
000000f0: 029c 5f3b 3c70 6d3e ceea 2c3b 7591 843b

exp_avg f4 [32, 64]
-0.003117263 -0.002324954 -0.0014008897 -0.00044124096 0.000250841 -0.0023318261 -0.00013090986 -0.0020062265
0.0006066551 -0.0008506692 -0.0007749196 -0.0019669905 -0.0003896337 -0.0010100612 -0.000604828 -0.0016865738
1.1090251e-06 2.344615e-06 -0.000172101 -0.0017804767 -0.0009833187 -0.0014526076 -0.0019622573 -0.0007593721
-0.00098703 -0.0011221796 0.0020897835 -0.00091549114 -0.0014852191 -0.00025129525 -0.0012917462 -0.00096023525
-0.0004823326 0.00043016605 0.00014933922 -0.00020757939 -0.00015227747 0.00038256927 0.00021832953 -0.00011220811
-0.0010819663 0.00014498782 -0.00026645284 0.001305265 -0.00028913078 0.0013447384 0.002111103 0.0014197908
0.0008368022 0.0007687132 -0.0004372292 0.00077866367 5.4472835e-05 0.0005576595 0.0024992342 0.00096779544
-0.0010667504 0.0008619455 0.001360542 0.00075102836 0.0008498407 0.000552022 0.0012731141 0.0015105808
-0.002328778 0.001019866 0.0031193525 0.0009719612 0.0020186452 0.0022706105 0.0013872896 0.0014464428
0.0055253776 0.0052643213 0.004961439 0.0059600305 0.0046094004 0.004721129 0.003957718 0.0057261856
0.0024856806 0.0060528954 0.0067890687 0.0064487215 0.0039587016 0.0041273106 0.0049742092 0.007907127
0.0066026533 0.0055308198 0.006268502 0.0015591781 0.0005107391 0.0016774944 0.001251792 0.0005591652
0.0010621265 0.00046576746 0.0015689502 0.00086238526 0.0017246563 0.0013874534 0.0020580178 0.0017067177
0.002507682 0.001204946 0.0008330267 0.0007916138 0.0030567227 0.0024044919 0.0017631534 -0.00036142577
-0.0012727417 0.0017827457 0.0010464533 0.0018318036 0.0012821873 0.0007470107 0.0010162784 -0.00010685082
0.0012811883 0.00060218305 2.7078242e-05 -0.0015904236 0.0017555373 -0.0016462769 -0.0011934391 0.003091003
0.0026326405 0.0034973086 0.002720879 0.0030301167 0.00020724654 7.2831353e-06 0.0019251069 0.0024236888
0.0027752093 0.0038411398 0.0034347102 0.0029470457 0.000885696 0.0060048816 0.0021552513 0.0029210378
0.00077876856 0.00426772 0.0015844975 0.0017223374 0.00059463 0.0035660851 0.0033559168 0.0017913426
0.0017121526 0.005881833 0.0065862704 0.0028487032 0.0028349604 0.0012607017 0.0022358207 0.002287076
0.0027371706 0.0036491705 0.0030240736 0.004543777 0.0054395464 0.0029615683 0.0061647478 0.004400011
0.0023102127 0.004320234 0.0069677304 0.006555065 0.007380889 0.0071008927 0.0075139888 0.0039708856
0.0046548075 0.0021425826 0.0040679923 0.0020227358 0.002343494 0.0022438907 0.0059370375 0.0017241412
0.00033042266 0.00023775452 0.00169881 0.0026199552 0.0032791377 0.0032302258 0.0025750513 0.0031003645
-0.0012921204 -0.0013166 -0.0018375514 -0.0011997039 -0.0007060928 -0.0015058498 -0.0011692873 0.0006621227
-0.00022431917 -0.0016969052 -0.0009665338 -0.0013941815 -8.922319e-05 -0.0010738891 -0.00096372137 8.8151595e-05
-4.8041607e-06 -8.513734e-06 -1.8709719e-06 -0.00024804845 -0.00053417025 0.00033498358 0.000997546 0.0002970585
-0.0006559281 -1.9134688e-05 -0.0005660409 0.00043938434 0.00048295094 0.00040191362 -0.0001813962 -7.0205286e-05
-0.0009845386 -0.0016832629 -0.0006013133 -0.0009127041 -0.00085435674 -0.00033531638 -0.0017858809 -0.0011306588
-0.0023819746 -0.0021487987 -0.0006582229 -0.0011154624 0.0002502393 -0.00027545853 -0.00036239365 -0.001029844
0.00027337082 -0.0006506493 0.00024852654 -0.0010829662 -0.0014508507 -0.00094721676 -0.0016300835 -0.0008254567
-0.001142355 -0.0011430599 -0.00071745104 -0.0011866152 -0.0005572167 0.00025612547 -0.00047965662 0.00014703351
00000000: ff4a 4cbb 415e 18bb 0f9e b7ba 5c56 e7b9
00000010: 4f83 8339 8dd1 18bb d944 09b9 e57a 03bb
00000020: ef07 1f3a 72ff 5eba f923 4bba a0e8 00bb
00000030: c047 ccb9 0864 84ba 528d 1eba 0710 ddba
00000040: d0d9 9435 2e58 1d36 0376 34b9 e25e e9ba
00000050: b3e2 80ba 6c65 beba 3799 00bb 9910 47ba
00000060: 3b5f 81ba 1916 93ba c0f4 083b 92fd 6fba
00000070: afab c2ba 47c0 83b9 cf4f a9ba 4cb8 7bba
00000080: 96e1 fcb9 e987 e139 f197 1c39 aba9 59b9
00000090: acac 1fb9 9493 c839 63ef 6439 4551 ebb8
000000a0: c4d0 8dba df07 1839 b2b2 8bb9 6d15 ab3a
000000b0: 7a96 97b9 ef41 b03a 6e5a 0a3b 4618 ba3a
000000c0: d85c 5b3a 7883 493a e93b e5b9 3c1f 4c3a
000000d0: c379 6438 e52f 123a 31ca 233b a7b3 7d3a
000000e0: 34d2 8bba 2ff4 613a 3754 b23a a9e0 443a
000000f0: d8c7 5e3a 92b5 103a 9fde a63a aefe c53a
00000100: 699e 18bb 06ad 853a 0d6e 4c3b 36cb 7e3a
00000110: 3f4b 043b 86ce 143b b7d5 b53a 9196 bd3a
00000120: 3a0e b53b 5480 ac3b 9193 a23b 5c4c c33b
00000130: 740a 973b b3b3 9a3b bfaf 813b baa2 bb3b
00000140: cde6 223b 5e57 c63b d676 de3b cc4f d33b
00000150: ffb7 813b 643e 873b b1fe a23b e58c 013c
00000160: 125b d83b e13b b53b 0268 cd3b 565d cc3a
00000170: 1fe3 053a 5fdf db3a 2b13 a43a f194 123a
00000180: 0d37 8b3a 4032 f439 3ca5 cd3a b211 623a
00000190: dd0d e23a 36db b53a cfdf 063b f1b3 df3a
000001a0: ec57 243b 47ef 9d3a 7a5f 5a3a 4e84 4f3a
000001b0: 4c53 483b ae94 1d3b 9c19 e73a bf7d bdb9
000001c0: 20d2 a6ba 05ab e93a 2529 893a 2119 f03a
000001d0: 110f a83a 0ad3 433a a534 853a 1915 e0b8
000001e0: 8ced a73a d2db 1d3a 1526 e337 c375 d0ba
000001f0: 0f1a e63a e3c7 d7ba 2c6d 9cba 6d92 4a3b
00000200: 6188 2c3b 1a33 653b c650 323b ec94 463b
00000210: 5250 5939 a861 f436 de53 fc3a c0d6 1e3b
00000220: 49e0 353b a2bb 7b3b e018 613b 3923 413b
00000230: 0d2e 683a 99c4 c43b 1e3f 0d3b e26e 3f3b
00000240: 4626 4c3a 3bd8 8b3b eaae cf3a 0ec0 e13a
00000250: f2e0 1b3a fbb4 693b f1ee 5b3b 7ccb ea3a
00000260: 4f6a e03a 64bc c03b a4d1 d73b 4fb1 3a3b
00000270: beca 393b 213e a53a d986 123b c5e2 153b
00000280: 1a62 333b ec26 6f3b 892f 463b f7e3 943b
00000290: 393e b23b df16 423b a701 ca3b f82d 903b
000002a0: f066 173b c090 8d3b 8f51 e43b dfcb d63b
000002b0: 62db f13b 9bae e83b e837 f63b 341e 823b
000002c0: 5b87 983b 926a 0c3b cb4c 853b e08f 043b
000002d0: 4e95 193b 3d0e 133b 7b8b c23b 94fc e13a
000002e0: 943c ad39 be4d 7939 9baa de3a 8eb3 2b3b
000002f0: cde6 563b 32b2 533b 31c2 283b 7c2f 4b3b
00000300: 5e5c a9ba c491 acba fed9 f0ba 623f 9dba
00000310: 1619 39ba ef5f c5ba c542 99ba 4d92 2d3a
00000320: 3837 6bb9 b16a deba fc5e 7dba f8bc b6ba
00000330: 561d bbb8 bdc1 8cba 3fa2 7cba 07de b838
00000340: 6d33 a1b6 36d6 0eb7 1b1e fbb5 800c 82b9
00000350: 8f07 0cba bca0 af39 17c0 823a 84be 9b39
00000360: 97f2 2bba 6e83 a0b7 5d62 14ba 2b5d e639
00000370: 9434 fd39 efb7 d239 2c35 3eb9 2d3b 93b8
00000380: a20b 81ba eea0 dcba 74a1 1dba 8942 6fba
00000390: e9f6 5fba 67cd afb9 3814 eaba 9d32 94ba
000003a0: e71a 1cbb dcd2 0cbb 978c 2cba b534 92ba
000003b0: 8d32 8339 6b6b 90b9 a7ff bdb9 d5fb 86ba
000003c0: 3653 8f39 5690 2aba ab4c 8239 51f2 8dba
000003d0: 792a beba a44e 78ba 87a8 d5ba 7663 58ba
000003e0: 13bb 95ba bad2 95ba 5313 3cba 3388 9bba
000003f0: 2e12 12ba 9448 8639 6c7a fbb9 022d 1a39
