models/Classifier_FC_64.pth (torch, 435301 bytes, 39 tensors)

network.0.weight f4 [64, 64]
0.0056159464 -5.0115e-41 -0.019047512 0.0064998283 0.0049470384 -0.004391153 5.1307e-41 0.003574501
-0.0011929685 0.009260456 -0.0035697802 5.0336e-41 0.00090463756 0.012123902 0.007347285 -0.0026264074
0.008384792 0.0014952783 -0.0065801935 -0.024344798 -0.023395915 -0.004187728 -0.009831818 -4.9406e-41
-0.0031426926 5.1828e-41 4.9935e-41 0.020227097 0.0070334994 -0.003250789 -0.013579728 -0.0034193553
-0.048837412 0.005882142 0.011202739 5.1108e-41 0.001205731 -0.023783071 -0.012050806 5.0274e-41
-0.0018824487 -0.022465788 -0.008207938 -5.0698e-41 4.9389e-41 0.027781382 0.0076512014 -0.009515567
-0.0010727084 1.26515e-40 -0.0017671337 -0.0062381676 0.009623254 4.9855e-41 5.2814e-41 -0.0013450746
4.9076e-41 -0.0060702064 0.02484874 -4.9258e-41 -0.017265206 -4.9515e-41 -6.2843e-41 0.004550875
-0.095945515 4.9477e-41 -0.12707782 0.049520288 0.1408108 0.05173166 -5.2818e-41 -0.056417827
-0.023441827 0.017016567 0.08780936 -5.0115e-41 -0.0363629 0.10742395 0.022561328 -0.08801066
-0.06701794 0.022831447 -0.0149650965 0.13092177 -0.029277269 -0.13359003 -0.07844955 -5.2982e-41
0.06676257 -5.0756e-41 5.3518e-41 -0.09014526 0.04413158 -0.13841683 0.07237737 -0.08520591
-0.13950625 0.15100738 0.091098726 -5.0148e-41 0.09988422 0.03264005 0.09203181 4.9386e-41
0.08673596 -0.010680751 -0.09807658 -5.2627e-41 5.0862e-41 -0.1194839 0.030299084 0.10933413
-0.05174009 -5.0209e-41 0.0047062677 -0.1042618 -0.03700018 4.9575e-41 5.9419e-41 -0.11274327
4.9145e-41 0.032268055 -0.0057912488 5.8607e-41 0.03349228 4.912e-41 -5.0011e-41 -0.09892577
-0.019098876 5.8803e-41 -0.086358115 0.017970825 -0.080483966 0.020127399 -5.0412e-41 0.115168594
-0.1521517 -0.09827186 0.03230394 6.1001e-41 -0.13997957 0.071576394 -0.11849556 -0.0011657155
0.08931134 0.05426602 0.048088595 0.021945234 -0.011405494 -0.0026556763 0.03753509 -5.2467e-41
-0.11970329 -5.4838e-41 5.0766e-41 0.050074205 0.054683525 0.06215612 -0.14376122 -0.115335435
0.090270296 -0.07016466 -0.051307604 -5.229e-41 0.020432787 0.04501079 -0.0568747 5.1198e-41
0.020988397 0.0073041925 -0.13549304 5.1146e-41 5.0556e-41 0.024630632 0.008621161 0.033730477
-0.03506522 -4.992e-41 -0.065081306 0.013407191 0.12539394 5.4812e-41 5.0274e-41 -0.024013862
-5.0584e-41 0.0812524 -0.09781948 -5.0532e-41 -0.099219024 4.9237e-41 -5.3186e-41 -0.12062186
0.06600971 -5.2298e-41 -0.06508465 -0.14411591 0.1129506 0.027527487 -5.0054e-41 0.018204741
-0.02576884 0.014719769 0.015483276 4.9146e-41 0.017363086 0.063453235 0.05443672 -0.03994301
0.14401948 0.11125214 -0.03510592 -0.03312251 0.06451317 0.007728081 -0.08410422 5.266e-41
-0.11934605 -5.0587e-41 4.9187e-41 -0.055783574 0.10666196 -0.07574753 0.12659936 -0.00088798854
0.039561447 0.040859886 0.02816464 5.0213e-41 -0.09220275 -0.07190222 -0.091411926 5.0026e-41
-0.0631978 0.034628753 -0.014355829 4.9387e-41 6.1343e-41 0.014648259 0.011037845 0.070835285
0.11953632 -5.0258e-41 -0.035704143 -0.10185075 -0.037908953 -6.0053e-41 -5.032e-41 -0.09047956
5.2787e-41 -0.15296862 -0.19305716 -6.1761e-41 -0.022329459 -5.8769e-41 4.9855e-41 -0.043584526
00000000: f905 b83b b38b 0080 8709 9cbc 83fc d43b
00000010: c41a a23b a9e3 8fbb 068f 0000 2d42 6a3b
00000020: 615d 9cba 2bb9 173c f9f2 69bb 518c 0000
00000030: 3325 6d3a 55a3 463c 7ec1 f03b ce1f 2cbb
00000040: 5e60 093c 37fd c33a aa9e d7bb be6e c7bc
00000050: caa8 bfbc 3539 89bb a215 21bc b989 0080
00000060: a2f5 4dbb 7a90 0000 338b 0000 4cb3 a53c
00000070: 4579 e63b 300b 55bb 827d 5ebc 4317 60bb
00000080: bd09 48bd fcbe c03b b18b 373c 788e 0000
00000090: 9e09 9e3a b7d4 c2bc be70 45bc 258c 0000
000000a0: 7fbc f6ba 2c0a b8bc 967a 06bc 538d 0080
000000b0: ad89 0000 c895 e33c eeb6 fa3b 2ee7 1bbc
000000c0: 1f9a 8cba ac60 0100 2b9f e7ba 8b69 ccbb
000000d0: daaa 1d3c fa8a 0000 3993 0000 374d b0ba
000000e0: ce88 0000 95e8 c6bb 968f cb3c 5089 0080
000000f0: c36f 8dbc 078a 0080 2eaf 0080 821f 953b
00000100: 157f c4bd ec89 0000 b020 02be c9d5 4a3d
00000110: b530 103e 94e4 533d 3c93 0080 6116 67bd
00000120: 1309 c0bc 5466 8b3c 65d5 b33d b38b 0080
00000130: 44f1 14bd 1701 dc3d 89d2 b83c ef3e b4bd
00000140: b440 89bd 0409 bb3c 2a30 75bc 5b10 063e
00000150: e2d6 efbc d3cb 08be 28aa a0bd b193 0080
00000160: d0ba 883d 7d8d 0080 3095 0000 149e b8bd
00000170: 51c3 343d 24bd 0dbe 963a 943d 7080 aebd
00000180: bada 0ebe aea1 1a3e f891 ba3d cb8b 0080
00000190: 1990 cc3d 93b1 053d 2c7b bc3d ab89 0000
000001a0: 9fa2 b13d 51fe 2ebc 60dc c8bd b492 0080
000001b0: c88d 0000 fab3 f4bd c935 f83c 93ea df3d
000001c0: 6bed 53bd f68b 0080 0937 9a3b 3687 d5bd
000001d0: 808d 17bd 328a 0000 a3a5 0000 f2e5 e6bd
000001e0: ff88 0000 822b 043d 84c4 bdbb 5fa3 0000
000001f0: 332f 093d ed88 0000 698b 0080 9899 cabd
00000200: 3f75 9cbc eba3 0000 86dc b0bd 8d37 933c
00000210: c7d4 a4bd 37e2 a43c 878c 0080 83dd eb3d
00000220: a8cd 1bbe c242 c9bd 2351 043d 0caa 0000
00000230: ce56 0fbe a596 923d cdad f2bd ecca 98ba
00000240: dde8 b63d 0c46 5e3d 8cf8 443d 7ec6 b33c
00000250: 1cde 3abc db0a 2ebb 65be 193d 4292 0080
00000260: 0027 f5bd de98 0080 848d 0000 9c1a 4d3d
00000270: d5fb 5f3d 6a97 7e3d 2436 13be fc34 ecbd
00000280: a2df b83d 7db2 8fbd ec27 52bd c391 0080
00000290: a962 a73c 3c5d 383d 72f5 68bd b88e 0000
000002a0: dcef ab3c 0258 ef3b b0be 0abe 938e 0000
000002b0: ee8c 0000 2ec6 c93c c53f 0d3c f828 0a3d
000002c0: 8ca0 0fbd 288b 0080 5949 85bd d6a9 5b3c
000002d0: 4567 003e cb98 0000 258c 0000 b8b8 c4bc
000002e0: 028d 0080 a967 a63d 9455 c8bd dd8c 0080
000002f0: 5833 cbbd 4189 0000 4394 0080 9808 f7bd
00000300: 1930 873d c991 0080 1a4b 85bd 1f93 13be
00000310: a552 e73d 5381 e13c 888b 0080 1c22 953c
00000320: 2d19 d3bc 302b 713c 91ad 7d3c 0089 0000
00000330: 083d 8e3c c5f3 813d 0af9 5e3d 489b 23bd
00000340: d879 133e 29d8 e33d 3acb 0fbd 78ab 07bd
00000350: 7b1f 843d d83b fd3b d53e acbd cb92 0000
00000360: b46b f4bd 048d 0080 1d89 0000 517d 64bd
00000370: 9671 da3d 8521 9bbd 43a3 013e e7c7 68ba
00000380: 2f0b 223d b25c 273d 88b9 e63c f98b 0000
00000390: ccd4 bcbd 7941 93bd 2d36 bbbd 748b 0000
000003a0: d96d 81bd e1d6 0d3d b634 6bbc ac89 0000
000003b0: 00ab 0000 40ff 6f3c 14d8 343c 1712 913d
000003c0: 75cf f43d 198c 0080 823e 12bd 2097 d0bd
000003d0: 6b46 1bbd 67a7 0080 468c 0080 594d b9bd
000003e0: 2693 0000 cea3 1cbe c7b0 45be 2aac 0080
000003f0: 45ec b6bc d3a3 0080 fa8a 0000 b085 32bd

network.0.bias f4 [64]
5.652533e-30 -0.024980186 0.061103042 -0.04169153 -0.17350385 -3.0102778e-15 -1.6203018e-09 -0.022604318
-0.043454617 0.02610369 -0.016113324 -2.9277546e-05 -0.014310591 -0.050266493 0.12982751 0.06640067
-0.012776569 0.020289987 -0.013477445 0.1559024 -4.263281e-23 0.04851442 0.018782787 5.1813e-41
0.027361419 -0.0005446772 0.03555778 -0.04818784 0.05397462 0.054744117 -1.2244628e-07 0.08614015
0.0010431668 -0.022560235 -0.0003403428 0.018879827 0.08020766 -0.03366448 -0.03654569 -0.039723337
2.1636744e-34 -0.059283905 0.07266534 -0.094812706 0.0020295784 0.0014062286 -0.019731628 -0.16164875
0.16846557 -1.01457566e-13 -0.021044578 -6.330704e-13 -0.0061516566 0.106957525 -0.07014175 0.027657785
-0.02866886 0.023761172 -0.0008683033 -0.014150063 0.05492828 -0.00027934124 -1.4272206e-06 0.01366011
00000000: 424b e50e 3fa3 ccbc 2f47 7a3d bdc4 2abd
00000010: feaa 31be d3e9 58a7 4db1 deb0 b12c b9bc
00000020: 78fd 31bd 68d7 d53c 1700 84bc 0d99 f5b7
00000030: f876 6abc 3de4 4dbd 81f1 043e 13fd 873d
00000040: d154 51bc 3037 a63c 80d0 5cbc e1a4 1f3e
00000050: dd28 4e9a 0eb7 463d 5cde 993c 6f90 0000
00000060: 0e25 e03c abc8 0eba 09a5 113d 9d60 45bd
00000070: 7e14 5d3d 5e3b 603d c779 03b4 3f6a b03d
00000080: dfba 883a 3ed0 b8bc 0a70 b2b9 dea9 9a3c
00000090: ea43 a43d c4e3 09bd efb0 15bd f0b4 22bd
000000a0: 03cd 8f07 aed3 72bd 91d1 943d 2a2d c2bd
000000b0: ad02 053b 3451 b83a 39a4 a1bc 4087 25be
000000c0: 3d82 2c3e 4e76 e4a9 ae65 acbc 8831 32ab
000000d0: d693 c9bb 8c0c db3d 7aa6 8fbd 9492 e23c
000000e0: f5da eabc caa6 c23c d99e 63ba aad5 67bc
000000f0: 7afc 603d 8c74 92b9 ed8e bfb5 a7ce 5f3c

network.3.weight f4 [64, 64]
0.0057484624 -0.16376685 0.09955291 -0.11656733 -0.02229813 0.00016367377 -0.012350574 -0.018996207
-0.038923312 -0.018576052 -0.087876506 0.016286546 0.007828901 0.042346425 0.073538855 -0.14039172
0.09781819 -0.030634679 -0.011901883 0.09485804 1.5408385e-11 -0.14271936 0.07957395 1.0257448e-30
0.086193234 0.01916624 -0.034256376 -0.074456125 -0.11081399 0.017548755 0.018067833 0.13084002
0.038466796 -0.023620693 -0.008051175 0.060469203 -0.077746846 -0.0748171 -0.049162477 0.017077109
-4.9789307e-08 -0.099792704 0.036160722 0.016957467 0.021483768 0.049954876 -0.08909241 -0.05177106
0.06269541 0.00015856617 0.10145722 0.0027663196 -0.0069341147 -0.011327015 -0.111633845 -0.08040113
0.045456197 -0.0291999 -0.027726213 -0.094980694 0.086194135 0.015518949 0.011289873 -0.022521975
0.0058831633 0.16544871 -0.030609276 0.13663055 0.07645289 -8.850895e-05 0.024178449 0.12564662
0.097244926 0.064774916 -0.07411398 0.00095050473 -0.09012494 0.10779126 -0.0124664325 -0.037149888
-0.041679636 -0.016751317 -0.0914445 -0.03598147 -6.733736e-09 -0.015056215 -0.061167166 -1.6034685e-30
0.027186938 0.0006264638 -0.04523683 0.12881656 0.13111366 0.07553671 0.0072842864 -0.08693848
-0.04236503 0.0820034 0.043575205 0.047214057 0.004604132 -0.10613045 0.22286406 0.1857851
1.2036704e-11 0.020485504 -0.022698369 0.07260273 -0.011445436 -0.08832161 0.024241755 0.022854509
-0.0036073478 0.00011834133 0.08141799 -0.007830117 0.08940855 0.0090564955 0.09603829 0.062211525
0.027794966 0.047374167 0.015184936 0.111543335 -0.017775578 0.005039761 0.005645889 0.053811308
0.007270222 -0.060861297 -0.077723935 -0.07110575 -0.1262544 1.0153035e-06 -0.018228933 0.01610721
-0.14854375 0.061630055 0.060984917 -6.6226465e-05 0.088899 -0.032957066 0.13362272 -0.045363575
0.058565684 -0.008120101 0.043686647 0.09395892 1.0173366e-11 -0.033572365 -0.045304332 2.4259149e-32
-0.059659258 0.024873674 -0.15990403 0.0042618285 -0.03283127 -0.046973422 0.0070820884 0.04904403
0.12428311 -0.009317339 -0.052324526 -0.098307244 0.04461348 -0.019520056 -0.112024255 -0.15454723
7.652909e-24 -0.15937634 0.031314585 -0.09912615 0.024998508 0.0629018 -0.02500215 -0.060084753
0.044000357 8.9858324e-05 0.07292986 0.0001227245 -0.024230532 0.04442767 -0.14059727 -0.082635775
0.023343243 0.02883363 -0.08776721 -0.1707519 -0.020419423 0.024881095 0.0014850065 -0.04569757
-7.903865e-35 -0.06961501 -0.034742508 -0.13638555 -0.030521177 -3.9084194e-11 -0.025239903 -0.17528385
-0.052795753 -0.019302614 -0.06267927 0.01617124 0.079271965 -0.12678854 0.038180172 -0.015428022
-0.09269255 -0.0029426073 -0.052696407 0.08096439 -2.0021691e-29 -0.040736597 0.06280086 5.154e-41
0.0101343375 0.01241922 -0.028423427 -0.0063671437 -0.09612378 -0.08277404 1.0647343e-05 -0.0008520041
-0.056099217 0.020369474 6.8208e-05 -0.073162414 -0.0020772275 -0.015760813 -0.13542998 0.06918151
-6.0083986e-11 0.024252124 0.010052253 -0.04681907 -0.029295119 0.05971351 0.11005715 -0.11837235
0.111386254 -8.4382606e-08 -0.06166631 1.2450078e-06 -0.0034865988 0.09940339 -0.0422578 -0.13646694
0.01172991 -0.06964031 -0.016660891 -0.11260678 0.14815338 0.017546784 -3.042424e-05 -0.021423103
00000000: 995d bc3b 7fb2 27be 65e2 cb3d daba eebd
00000010: 91aa b6bc d89f 2b39 105a 4abc ef9d 9bbc
00000020: 0d6e 1fbd ce2c 98bc 99f8 b3bd 5d6b 853c
00000030: ca44 003c 7273 2d3d 8a9b 963d d9c2 0fbe
00000040: e754 c83d 94f5 fabc 1e00 43bc ef44 c23d
00000050: 9988 872d 0625 12be abf7 a23d c66f a60d
00000060: 1486 b03d 8502 9d3c 6a50 0cbd 747c 98bd
00000070: 72f2 e2bd 68c2 8f3c fe02 943c edfa 053e
00000080: 5c8f 1d3d 2f80 c1bc 13e9 03bc 8eae 773d
00000090: bd39 9fbd b539 99bd 985e 49bd 4be5 8b3c
000000a0: ecd7 55b3 1e60 ccbd 441d 143d 63ea 8a3c
000000b0: bafe af3c 7c9d 4c3d 1576 b6bd e40d 54bd
000000c0: 7366 803d c844 2639 cec8 cf3d 244b 353b
000000d0: 9237 e3bb f294 39bc 49a0 e4bd 59a9 a4bd
000000e0: 4730 3a3d a134 efbc 1522 e3bc 3d85 c2bd
000000f0: 8d86 b03d 3143 7e3c 29f9 383c 0180 b8bc
00000100: 8dc7 c03b 636b 293e 4ec0 fabc e1e8 0b3e
00000110: 5593 9c3d e19d b9b8 e211 c63c 82a9 003e
00000120: 5928 c73d b6a8 843d 12c9 97bd 4b2b 793a
00000130: 6d93 b8bd aac1 dc3d 0240 4cbc 7b2a 18bd
00000140: 44b8 2abd 0f3a 89bc 4147 bbbd 4e61 13bd
00000150: 915e e7b1 58ae 76bc 6c8a 7abd bd16 028e
00000160: 24b7 de3c 4639 243a 414a 39bd 7de8 033e
00000170: a942 063e feb2 9a3d 06b1 ee3b cd0c b2bd
00000180: f486 2dbd 66f1 a73d ea7b 323d 8763 413d
00000190: 42de 963b ec5a d9bd 7a36 643e 733e 3e3e
000001a0: 7fc0 532d 37d1 a73c eef1 b9bc bdb0 943d
000001b0: a385 3bbc f6e1 b4bd a596 c63c 6139 bb3c
000001c0: 4169 6cbb 052e f838 7abe a63d e449 00bc
000001d0: d41b b73d b261 143c b9af c43d 83d1 7e3d
000001e0: 45b2 e33c 6a0b 423d 3dca 783c d570 e43d
000001f0: 179e 91bc 9424 a53b 2601 b93b 3f69 5c3d
00000200: 0b3b ee3b b249 79bd ba2d 9fbd e49f 91bd
00000210: d548 01be 9045 8835 d854 95bc 45f3 833c
00000220: da1b 18be cc6f 7c3d 52cb 793d 10e3 8ab8
00000230: ae10 b63d fdfd 06bd 65d4 083e 28cf 39bd
00000240: 92e2 6f3d 2c0a 05bc c5f0 323d 896d c03d
00000250: c4f8 322d 2d83 09bd 0991 39bd e1eb fb0a
00000260: 445d 74bd e0c3 cb3c e2bd 23be cfa6 8b3b
00000270: 157a 06bd 3467 40bd dd10 e83b 65e2 483d
00000280: 2588 fe3d c1a7 18bc 3e52 56bd 4f55 c9bd
00000290: a0bc 363d 86e8 9fbc f96c e5bd a141 1ebe
000002a0: 5f07 1419 8d33 23be b943 003d a702 cbbd
000002b0: acc9 cc3c a9d2 803d 4fd1 ccbc 6e1b 76bd
000002c0: b839 343d 5272 bc38 405c 953d 9baf 0039
000002d0: 1c7f c6bc caf9 353d bbf8 0fbe f23c a9bd
000002e0: 543a bf3c 8134 ec3c 4cbf b3bd 96d9 2ebe
000002f0: a246 a7bc 70d3 cb3c 8da4 c23a 602d 3bbd
00000300: eb1e d286 5092 8ebd 294e 0ebd a7a8 0bbe
00000310: 8c07 fabc e4e4 2bae eac3 cebc 9c7d 33be
00000320: 5c40 58bd 8420 9ebc fd5d 80bd 8c79 843c
00000330: 5759 a23d dbd4 01be d062 1c3d d0c5 7cbc
00000340: 97d5 bdbd c2d8 40bb 30d8 57bd a8d0 a53d
00000350: 480b cb8f 6bdb 26bd bd9d 803d ac8f 0000
00000360: 7e0a 263c fc79 4b3c 3fd8 e8bc 79a3 d0bb
00000370: 8bdc c4bd 7085 a9bd fda1 3237 0759 5fba
00000380: 4bc8 65bd e2dd a63c e40a 8f38 2dd6 95bd
00000390: 1822 08bb d21c 81bc 28ae 0abe 09af 8d3d
000003a0: 4720 84ae 64ac c63c 34b2 243c 5ac5 3fbd
000003b0: 51fc efbc 2796 743d a565 e13d 346d f2bd
000003c0: 7a1e e43d d435 b5b3 d095 7cbd 241a a735
000003d0: 6c7f 64bb 0194 cb3d 8416 2dbd fdbd 0bbe
000003e0: cf2e 403c 949f 8ebd 6c7c 88bc 629e e6bd
000003f0: 85b5 173e 46be 8f3c 8f37 ffb7 817f afbc

network.3.bias f4 [64]
0.06298796 -0.16839965 0.21465246 0.23603642 0.14315417 0.1681968 0.056091007 0.18874688
0.031205969 0.042576157 -0.09879347 -0.035431977 -0.05918817 -0.06294883 0.092425264 0.16066813
-0.03793792 -0.08202707 0.07101932 -0.030962879 0.03366859 -0.09545762 0.1802555 -0.009893697
0.03066282 -0.156278 0.1251011 0.03071562 0.069962166 0.061155993 -0.10525868 -0.13549723
-0.013522237 0.17618999 0.107685454 0.05033698 0.12209079 0.18343788 0.044693056 0.059153233
0.046972156 -0.057227004 0.26503125 0.1653712 -0.13622451 -0.04010422 -0.03388256 0.25028098
0.20507555 -0.043326657 -0.098854944 -0.13188753 -0.022369785 -0.019238882 0.16721198 0.12572865
-0.11887577 0.23789075 0.08456335 0.0067501063 0.17010288 0.20840469 -0.074449204 0.12655547
00000000: d5ff 803d f570 2cbe dbcd 5b3e 88b3 713e
00000010: 0297 123e c83b 2c3e afbf 653d dd46 413e
00000020: a9a3 ff3c 5664 2e3d 3b54 cabd 1f21 11bd
00000030: 4b6f 72bd 51eb 80bd 7549 bd3d 3086 243e
00000040: cb64 1bbd cffd a7bd 9472 913d dda5 fdbc
00000050: 13e8 093d 497f c3bd e694 383e 2c19 22bc
00000060: 9830 fb3c 5707 20be 811a 003e 539f fb3c
00000070: 5348 8f3d b57e 7a3d dd91 d7bd c9bf 0abe
00000080: 5f8c 5dbc 266b 343e 318a dc3d 262e 4e3d
00000090: bc0a fa3d 24d7 3b3e 1110 373d a94a 723d
000000a0: e065 403d dd66 6abd 2db2 873e 1157 293e
000000b0: 707e 0bbe 5344 24bd 70c8 0abd d424 803e
000000c0: 53ff 513e 4b77 31bd 7674 cabd 860d 07be
000000d0: d740 b7bc dc9a 9dbc 9e39 2b3e 03bf 003e
000000e0: 2475 f3bd a299 733e 8d2f ad3d ff2f dd3b
000000f0: 732f 2e3e 0a68 553e d378 98bd c297 013e

network.6.weight f4 [1, 64]
0.108653255 -0.07278226 0.10212995 0.103368096 0.06823855 0.06693487 0.115194105 0.073284574
-0.11467404 -0.07999374 -0.11647553 -0.031129602 -0.09219056 -0.11312988 0.1080092 0.14037035
-0.07495373 -0.03191025 0.08926748 -0.06301905 -0.08108777 -0.1375672 0.07518917 -0.051619567
0.03286854 -0.08257615 0.09308556 -0.059243042 0.0464924 0.07634235 -0.06905172 -0.04976897
-0.052841548 0.054692462 0.038924355 -0.13117671 0.06927716 0.074875616 0.08333805 0.019765673
0.009055259 -0.14522539 0.10265598 0.06619448 -0.086383894 -0.04081943 -0.038102362 0.083391234
0.058477107 -0.05805352 -0.035224717 -0.062020347 -0.072624646 0.024836294 0.04617577 0.064317
-0.09117817 0.10748815 0.028201412 0.048295304 0.06305456 0.09340716 -0.06290271 0.022752848
00000000: 9985 de3d de0e 95bd 8229 d13d a7b2 d33d
00000010: a7c0 8b3d 2615 893d e3ea eb3d 3916 963d
00000020: 39da eabd c2d3 a3bd b98a eebd 8203 ffbc
00000030: 68ce bcbd a3b0 e7bd ed33 dd3d 3fbd 0f3e
00000040: 5781 99bd 53b4 02bd ded1 b63d 2210 81bd
00000050: 5811 a6bd 6bde 0cbe c8fc 993d 0a6f 53bd
00000060: 2aa1 063d af1d a9bd a4a3 be3d d5a8 72bd
00000070: d16e 3e3d 6159 9c3d fd6a 8dbd 8cda 4bbd
00000080: 6170 58bd 3405 603d 256f 1f3d 3053 06be
00000090: 2fe1 8d3d 6358 993d 24ad aa3d 9feb a13c
000000a0: 825c 143c f7b5 14be 4c3d d23d f990 873d
000000b0: 0aea b0bd 4632 27bd 3911 1cbd 06c9 aa3d
000000c0: b185 6f3d 87c9 6dbd cb47 10bd 0c09 7ebd
000000d0: 3bbc 94bd 7c75 cb3c ce22 3d3d a2b8 833d
000000e0: 9fbb babd bf22 dc3d a606 e73c 4cd1 453d
000000f0: c022 813d 414c bf3d 23d3 80bd 2e64 ba3c

network2.0.weight f4 [128, 64]
0.093327366 0.1619914 0.044134956 -0.12889767 -0.009184595 0.028197533 0.012479453 0.05831769
0.07951762 0.053210467 -0.0444838 0.0065599126 0.08973519 0.0055670533 0.07570112 0.11356707
0.16789979 0.08445891 -0.056811128 -0.022435538 -0.020638354 -0.016429367 -0.0033129265 0.028127575
0.02220215 -0.07391413 0.07227947 0.04515103 0.019938283 -0.0011425418 -0.11300678 -0.10051819
-0.030224789 0.024217516 -0.009652984 -0.050633527 -0.16668798 0.07954936 -0.09873173 -0.0108712185
0.04074295 0.08699875 0.04257301 -0.109311245 0.06353648 -0.02107428 0.08023239 0.08096751
0.062323835 0.0709359 -0.017928416 0.07692879 0.03827386 -0.04856756 -0.065084726 0.06801879
0.15332359 0.080445975 0.14607066 -0.01588673 0.0018514933 -0.06531264 0.043364223 -0.033640366
-0.052210175 0.06393028 0.103165 0.08646479 -0.031130867 0.13141783 0.117039286 0.08283746
0.16145842 -0.029121375 0.054202966 0.008858921 -0.03172869 -0.07702413 -0.04841859 -0.12330876
0.078915276 -0.11491521 -0.04773673 -0.02658699 -0.0030539555 0.0415469 -0.03236768 -0.06422047
0.0048081037 -0.020481532 0.03752515 -0.08248705 0.062280618 0.036379002 0.107013814 0.11447768
0.027244857 0.16426778 0.11845733 0.11876328 0.025306702 0.13198175 0.22957847 0.117671326
-0.15311858 0.008893167 -0.046348237 0.028314421 -0.11816138 -0.06734461 -0.06773183 -0.039328657
-0.029019995 0.07328739 0.020703448 -0.11221622 -0.12086854 0.058211517 -0.041927718 0.09087313
0.053736307 -0.030866664 0.08625071 0.054688532 -0.060360286 -0.0040546968 0.1775872 -0.052782122
-0.13626356 0.030331511 -0.042952478 0.018140709 0.0010807605 0.07297177 0.041864827 0.022750244
0.026996385 -0.05293733 0.021701755 0.010316764 -0.04568627 -0.0412428 0.051356535 -0.00063433376
-0.03103592 -0.06495554 -0.07601235 0.006010526 0.16429526 0.13912298 -0.07168585 0.054340076
-0.037367966 -0.026538234 0.09108433 0.07908311 0.039544255 -0.03831537 -0.0981858 -0.03146127
-0.027363999 0.016602362 -0.061221782 0.14711502 0.06481838 0.006213736 0.21513216 0.027972858
-0.1057885 -0.0014656844 0.16278207 0.12627834 -0.059768997 0.1692215 0.13568614 0.019354094
0.05670465 0.06387394 0.14290345 0.031179154 0.006567891 -0.082869776 -0.07346645 -0.003101519
0.029813912 -0.046930097 -0.0522772 0.0035774694 -0.045419957 0.028001143 0.06854951 -0.049027942
0.031920113 -0.09775283 0.026048612 -0.097724885 -0.056770686 0.09632589 -0.10482823 -0.06005906
0.058353238 0.09449911 0.093581304 0.0055390447 -0.03157087 0.008068968 -0.06152883 0.013054412
0.09193141 -0.047645446 0.037002638 -0.057479642 -0.08201836 0.10966715 0.049452636 0.080948316
-0.043853067 0.12633643 0.14960346 0.09881775 -0.017096037 0.07978521 0.020090332 0.00085039984
-0.006414728 0.066367365 -0.048486795 -0.021386784 0.0837742 -0.13807067 -0.029161818 0.014398372
-0.03561097 -0.1424549 0.011847816 0.048782136 0.03518519 0.06469944 -0.11801716 -0.050230417
-0.082598455 -0.05607569 -0.019605309 -0.13105993 -0.117674686 -0.120839335 -0.16426708 -0.18558285
-0.12444677 -0.060191393 -0.0031885023 0.019985767 -0.01637134 0.014713723 -0.06345335 -0.10892962
00000000: 6b22 bf3d 13e1 253e dbc6 343d c0fd 03be
00000010: fc7a 16bc 83fe e63c 9f76 4c3c 88de 6e3d
00000020: 22da a23d 38f3 593d a534 36bd 89f4 d63b
00000030: 15c7 b73d d46b b63b 3009 9b3d da95 e83d
00000040: eced 2b3e cbf8 ac3d c9b2 68bd bcca b7bc
00000050: c411 a9bc e196 86bc af1d 59bb cd6b e63c
00000060: 49e1 b53c 4b60 97bd 4207 943d 49f0 383d
00000070: 9c55 a33c 57c1 95ba 1970 e7bd 7bdc cdbd
00000080: fa99 f7bc d063 c63c 8d27 1ebc 1a65 4fbd
00000090: 41b0 2abe c6ea a23d dc33 cabd 321d 32bc
000000a0: 14e2 263d 672c b23d 0961 2e3d 93de dfbd
000000b0: 6a1f 823d f8a3 acbc e150 a43d 4bd2 a53d
000000c0: 4747 7f3d d746 913d 9dde 92bc d78c 9d3d
000000d0: 0dc5 1c3d c7ee 46bd 244b 85bd 6f4d 8b3d
000000e0: dc00 1d3e dcc0 a43d 8c93 153e e324 82bc
000000f0: cead f23a a2c2 85bd af9e 313d 7bca 09bd
00000100: 56da 55bd e1ed 823d 2c48 d33d 7414 b13d
00000110: 2906 ffbc 6592 063e 4bb2 ef3d b0a6 a93d
00000120: 5b55 253e f38f eebc ee03 5e3d 0225 113c
00000130: f1f5 01bd d4be 9dbd 9252 46bd 4e89 fcbd
00000140: 559e a13d aa58 ebbd 9787 43bd f6cc d9bc
00000150: df24 48bb 152d 2a3d f993 04bd 0686 83bd
00000160: 4c8d 9d3b e3c8 a7bc f9b3 193d f8ee a8bd
00000170: f619 7f3d 2602 153d 0f2a db3d 4673 ea3d
00000180: 9b30 df3c d035 283e c299 f23d 2a3a f33d
00000190: 0050 cf3c 3926 073e 9e16 6b3e aafd f03d
000001a0: 1ecb 1cbe a5b4 113c a6d7 3dbd a5f3 e73c
000001b0: 98fe f1bd f9eb 89bd fcb6 8abd 1617 21bd
000001c0: 57bb edbc b317 963d 479a a93c 9ed1 e5bd
000001d0: ed89 f7bd 336f 6e3d 66bc 2bbd b11b ba3d
000001e0: 9a1a 5c3d 16dc fcbc 36a4 b03d 1501 603d
000001f0: 593c 77bd 43dd 84bb 6bd9 353e 1132 58bd
00000200: ad88 0bbe ca79 f83c f0ee 2fbd d39b 943c
00000210: 4ea8 8d3a 3972 953d 747a 2b3d b85e ba3c
00000220: 8627 dd3c d0d4 58bd e1c7 b13c a507 293c
00000230: 8721 3bbd 36ee 28bd 3b5b 523d 6b49 26ba
00000240: 0b3f febc 6907 85bd 5dac 9bbd f2f3 c43b
00000250: 043d 283e 4176 0e3e 08d0 92bd b393 5e3d
00000260: 270f 19bd b666 d9bc 6c8a ba3d 53f6 a13d
00000270: 28f9 213d 94f0 1cbd a315 c9bd 88dd 00bd
00000280: 772a e0bc ad01 883c b1c3 7abd 52a5 163e
00000290: 80bf 843d 989c cb3b 9b4b 5c3e 5627 e53c
000002a0: a4a7 d8bd 351c c0ba 58b0 263e 1c4f 013e
000002b0: 56d0 74bd 6748 2d3e 4ff1 0a3e 7a8c 9e3c
000002c0: 2343 683d 57d0 823d 4855 123e 6d6b ff3c
000002d0: 7737 d73b a1b7 a9bd 9475 96bd db42 4bbb
000002e0: 4e3c f43c c639 40bd 9e20 56bd fa73 6a3b
000002f0: 470a 3abd a762 e53c af63 8c3d 86d1 48bd
00000300: aabe 023d a332 c8bd e663 d53c fc23 c8bd
00000310: 6188 68bd 8246 c53d 2fb0 d6bd 7d00 76bd
00000320: ce03 6f3d c088 c13d 8ea7 bf3d e080 b53b
00000330: 7550 01bd b433 043c a805 7cbd 2ce2 553c
00000340: 8946 bc3d df27 43bd 1490 173d c66f 6bbd
00000350: 3ef9 a7bd 2c99 e03d d98e 4a3d 3bc8 a53d
00000360: 469f 33bd 565e 013e a631 193e f660 ca3d
00000370: fd0c 8cbc 6e66 a33d 7b94 a43c 5eed 5e3a
00000380: a332 d2bb 9deb 873d 179a 46bd 5633 afbc
00000390: cf91 ab3d 6662 0dbe c4e4 eebc 26e7 6b3c
000003a0: cfdc 11bd b3df 11be 581d 423c c7cf 473d
000003b0: 591e 103d 2481 843d fbb2 f1bd 69be 4dbd
000003c0: 6129 a9bd 9faf 65bd 509b a0bc 9334 06be
000003d0: 6dff f0bd 9d7a f7bd a135 28be 6e09 3ebe
000003e0: f3dd febd 408b 76bd 31f6 50bb 31b9 a33c
000003f0: 301d 86bc d411 713c d4f3 81bd 7e16 dfbd

network2.0.bias f4 [128]
0.075979896 0.07626534 0.06955114 -0.17780371 -0.250044 -0.17514369 -0.26444754 -0.015925812
-0.18235926 -0.0106166955 0.031137647 -0.16683856 -0.12589121 -0.1113427 -0.08152586 0.004665953
-0.19897859 -0.12398485 0.07921849 0.025104977 -0.013539323 -0.097874776 -0.085746296 0.09232224
-0.101000205 -0.15953662 -0.03128476 -0.05704165 0.053266674 -0.042384144 -0.047240403 -0.12985843
-0.07098289 0.110736914 -0.015716944 -0.21099122 -0.09871766 0.1283474 0.045393314 -0.0882168
-0.062061265 0.05625359 -0.14586015 -0.047781855 -0.0063834507 0.043400135 -0.05822269 -0.081919804
-0.25750664 0.021023639 -0.14552093 -0.13841389 0.020147605 -0.15079688 -0.11228033 -0.14871901
-0.018246852 -0.017996496 -0.15691414 -0.12401386 0.049680747 0.0836012 0.08219765 0.03352073
0.019137295 -0.0052128364 0.040243767 -0.15990272 -0.15349117 -0.11839855 -0.17853412 0.10330158
0.17363629 -0.15037549 -0.0046156356 -0.20594119 -0.09633282 -0.065495044 -0.17617732 0.08793493
-0.13862991 -0.13634218 -0.23064461 -0.055178273 -0.073053144 -0.0876643 0.015114531 -0.12880673
-0.10689777 0.025275685 -0.01502073 0.06256104 -0.07436173 -0.023207214 -0.05276862 0.10741558
-0.21228786 0.06473528 0.059857104 0.07758252 0.10883099 -0.065171055 -0.014866262 -0.039856907
-0.08920403 0.064768024 -0.11369099 0.05434777 0.02908747 -0.0799441 0.07559667 -0.13717563
-0.010644959 -0.03133869 -0.1140747 -0.06765653 -0.107030734 -0.06573811 0.018481323 -0.06722282
-0.12778652 -0.08924984 -0.075002946 -0.1573771 -0.18180275 0.07575084 0.014840774 0.06679315
00000000: 599b 9b3d 0131 9c3d d470 8e3d 2d12 36be
00000010: c405 80be de58 33be ab65 87be d976 82bc
00000020: 63bc 3abe a6f1 2dbc 6114 ff3c bad7 2abe
00000030: a0e9 00be a407 e4bd 08f7 a6bd dae4 983b
00000040: 0bc1 4bbe c5eb fdbd 4e3d a23d f4a8 cd3c
00000050: 09d4 5dbc 9272 c8bd c19b afbd 7113 bd3d
00000060: 32d9 cebd 915d 23be 7324 00bd 81a4 69bd
00000070: 282e 5a3d ff9a 2dbd 277f 41bd 9cf9 04be
00000080: 7a5f 91bd 09ca e23d d2c0 80bc 150e 58be
00000090: 7c2c cabd 806d 033e 57ee 393d 02ab b4bd
000000a0: f433 7ebd 2a6a 663d 5d5c 15be e8b6 43bd
000000b0: 442c d1bb 57c4 313d ea7a 6ebd 92c5 a7bd
000000c0: e9d7 83be c439 ac3c 7003 15be 5fbc 0dbe
000000d0: 970c a53c 7f6a 1abe 3bf3 e5bd cc49 18be
000000e0: 6c7a 95bc 636d 93bc 1aae 20be fbfa fdbd
000000f0: 0a7e 4b3d 1b37 ab3d 3e57 a83d 084d 093d
00000100: d1c5 9c3c 71d0 aabb a6d6 243d 8abd 23be
00000110: ca2c 1dbe f07a f2bd a6d1 36be c78f d33d
00000120: b6cd 313e 08fc 19be c23e 97bb 3fe2 52be
00000130: 244a c5bd 4422 86bd d467 34be 3b17 b43d
00000140: 00f5 0dbe 499d 0bbe 1a2e 6cbe 9d02 62bd
00000150: e39c 95bd 5789 b3bd f0a2 773c e9e5 03be
00000160: 38ed dabd f40e cf3c 8219 76bc 0120 803d
00000170: f64a 98bd 0e1d bebc e923 58bd b3fc db3d
00000180: fd61 59be ee93 843d b92c 753d 96e3 9e3d
00000190: c8e2 de3d 6778 85bd 9f91 73bc ff40 23bd
000001a0: 9ab0 b6bd 19a5 843d d2d6 e8bd c49b 5e3d
000001b0: d948 ee3c bbb9 a3bd 6dd2 9a3d c577 0cbe
000001c0: 3268 2ebc 005d 00bd ff9f e9bd 828f 8abd
000001d0: ee32 dbbd b4a1 86bd 2566 973c 1eac 89bd
000001e0: 78da 02be 9fc8 b6bd 259b 99bd 7627 21be
000001f0: 802a 3abe 4223 9b3d b826 733c d9ca 883d

network2.3.weight f4 [64, 128]
-0.018434212 -0.016099043 0.08994613 -0.004375235 0.008564112 -0.070396885 -0.019871108 0.078977115
-0.0882021 0.02447007 -0.028226227 -0.01892643 -0.027685374 -0.06875707 0.043952327 0.03921962
0.016703589 -0.1122086 0.14372256 -0.039361328 0.035769437 0.03406142 -0.017150136 -0.018994477
0.11943619 0.025090354 0.022202821 -0.012883451 0.04366232 0.080223985 0.031637616 0.0026647316
0.078611016 0.023562377 0.01736466 -0.035238147 -0.017435992 0.15248264 0.024610296 -0.010315216
0.08323158 0.056939173 0.015401817 0.034009606 0.09045776 0.10631769 0.08024946 0.03475344
-0.0027578988 -0.03929792 -0.13603249 0.03411651 0.024871586 0.04570193 -0.0090879835 0.017019836
0.07729414 -0.027956232 -0.13454692 -0.049172275 -0.062448323 0.06890478 0.029875811 0.08665496
0.06199295 -0.03632798 0.072446465 0.07385792 0.0799505 -0.0003670414 -0.08021947 0.035696935
0.073221184 0.07125909 0.054204714 0.03964512 0.038232185 -0.026707504 -0.06140948 -0.041204404
0.028963009 0.028498068 0.00839499 -0.01399982 -0.0760326 0.013073416 -0.04705572 -0.04774162
0.0040842546 0.022257451 0.06789167 0.046397503 -0.02145229 -0.026656358 0.0021058216 -0.018043373
-0.060131397 0.019185431 0.05373625 0.0020171555 -0.011629795 -0.006423613 -0.01351241 -0.028746214
-0.1272545 0.012886385 0.065416634 0.0350734 -0.020434381 0.03972158 -0.067312635 -0.029942049
-0.009371816 0.07426341 -0.07105122 -0.0045933584 -0.053507596 -0.034861363 -0.030328916 -0.004863378
-0.04596158 0.054454744 0.037694518 0.016139843 0.037489284 -0.0059915814 0.08283288 0.082525134
-0.040344425 0.073540166 0.036612827 -0.059752543 -0.045836594 -0.027952295 -0.1290479 0.0005660732
-0.038938865 0.062299866 0.06528922 0.08810963 -0.044279497 -0.062518366 -0.022963641 -0.027320856
-0.09923508 0.0060507315 -0.0021050724 -0.03566066 0.06480174 0.07078801 0.033832543 0.06651074
-0.045174856 -0.08579061 0.0651373 -0.020680912 0.040278576 0.07456494 0.08123643 -0.050354637
-0.05889434 0.027808867 -0.021492945 -0.034590323 -0.099195674 0.03830456 0.025887288 0.05136087
0.0784935 0.01616857 -0.062228877 0.14360934 0.08713552 0.110039316 -0.035958964 0.04396614
-0.11289425 -0.13625021 -0.056410454 -0.04192286 0.06898512 -0.06686614 -0.0016527196 -0.11168261
-0.04843356 -0.05536644 -0.10277197 -0.018681053 0.029266374 -0.020015636 0.024769232 -0.007576631
-0.07036803 0.08080408 -0.040117823 0.012577108 -0.04080654 -0.09147582 0.0053467383 0.08235798
-0.014566165 -0.058512185 -0.04036659 -0.07036575 -0.07780406 -0.106755234 -0.07923653 0.01630464
0.07304669 -0.057953306 -0.08865409 0.034717843 -0.02323363 0.015617671 0.043980815 -0.114596196
-0.11964191 0.032983392 -0.08746384 -0.019191595 -0.1353471 0.064296305 -0.02207449 0.048241384
-0.111518934 0.120890275 0.038514808 0.043911785 0.0026233883 -0.002204496 0.0865072 0.096485145
-0.09816269 0.04498022 -0.1340079 0.05439968 -0.036115315 -0.0069313087 -0.03766289 0.03754378
0.09309103 0.08849257 -0.033701397 0.006755083 -0.07256054 -0.10159944 -0.07333953 -0.10585454
0.04363889 -0.07804155 0.12688853 -0.019407455 0.050672784 0.07056697 -0.034683883 0.030312415
00000000: 5803 97bc 24e2 83bc ad35 b83d 225e 8fbb
00000010: 7d50 0c3c 3e2c 90bd bcc8 a2bc c1be a13d
00000020: 4da3 b4bd 7575 c83c b03a e7bc 9a0b 9bbc
00000030: 70cc e2bc 82d0 8cbd 5b07 343d c1a4 203d
00000040: f7d5 883c 9fcd e5bd 022c 133e 5839 21bd
00000050: f982 123d fd83 0b3d 717e 8cbc 4e9a 9bbc
00000060: f69a f43d 498a cd3c b1e2 b53c 1c15 53bc
00000070: 43d7 323d 794c a43d 7296 013d c7a2 2e3b
00000080: d0fe a03d e305 c13c 5540 8e3c e055 10bd
00000090: edd5 8ebc 6924 1c3e 889b c93c 2701 29bc
000000a0: 5275 aa3d 0d39 693d e757 7c3c a84d 0b3d
000000b0: eb41 b93d 17bd d93d d459 a43d a059 0e3d
000000c0: ddbd 34bb dbf6 20bd 1a4c 0bbe c1bd 0b3d
000000d0: 7fbf cb3c f231 3b3d c4e5 14bc 2f6d 8b3c
000000e0: 644c 9e3d 7804 e5bc abc6 09be de68 49bd
000000f0: d0c9 7fbd f31d 8d3d 1ebe f43c 2878 b13d
00000100: 52ec 7d3d a6cc 14bd d05e 943d d242 973d
00000110: 16bd a33d 766f c0b9 1b4a a4bd f336 123d
00000120: fdf4 953d 49f0 913d c305 5e3d ec62 223d
00000130: 5a99 1c3d b2c9 dabc 8288 7bbd f3c5 28bd
00000140: d543 ed3c c874 e93c 248b 093c 805f 65bc
00000150: fbb6 9bbd e231 563c 80bd 40bd b88c 43bd
00000160: 36d5 853b 4255 b63c ca0a 8b3d 4f0b 3e3d
00000170: b6bc afbc 6f5e dabc d301 0a3b b2cf 93bc
00000180: 574c 76bd c42a 9d3c 8b1a 5c3d 4132 043b
00000190: e58a 3ebc 2c7d d2bb 2863 5dbc 2e7d ebbc
000001a0: 014f 02be 6b21 533c 28f9 853d 20a9 0f3d
000001b0: 0166 a7bc 18b3 223d 35db 89bd 0749 f5bc
000001c0: 3f8c 19bc 6a17 983d 4d83 91bd e283 96bb
000001d0: c82a 5bbd caca 0ebd 5974 f8bc f95c 9fbb
000001e0: 3642 3cbd f00b 5f3d 9165 1a3d b437 843c
000001f0: 5d8e 193d 0755 c4bb 49a4 a93d f002 a93d
00000200: 3240 25bd 3a9c 963d 55f7 153d 15bf 74bd
00000210: 27bf 3bbd 36fc e4bc 2225 04be 8864 143a
00000220: 5c7e 1fbd 252e 7f3d 5bb6 853d d272 b43d
00000230: 6b5e 35bd a109 80bd 3f1e bcbc fdcf dfbc
00000240: c33b cbbd 3745 c63b 41f5 09bb ea10 12bd
00000250: c6b6 843d 4ef9 903d fe93 0a3d c836 883d
00000260: 4509 39bd fdb2 afbd b466 853d 046b a9bc
00000270: 26fb 243d 81b5 983d 495f a63d aa40 4ebd
00000280: 313b 71bd 6ccf e33c f911 b0bc 95ae 0dbd
00000290: 1a27 cbbd 3ee5 1c3d 9411 d43c c75f 523d
000002a0: 33c1 a03d f373 843c b5e3 7ebd 540e 133e
000002b0: 1c74 b23d 4b5c e13d b549 13bd d715 343d
000002c0: 1a35 e7bd 2d85 0bbe a60e 67bd 4eb7 2bbd
000002d0: 1248 8d3d 1df1 88bd 11a0 d8ba dab9 e4bd
000002e0: 4562 46bd ecc7 62bd 1c7a d2bd 0209 99bc
000002f0: 09c0 ef3c d5f7 a3bc d8e8 ca3c 6345 f8bb
00000300: 1d1d 90bd 9c7c a53d 9652 24bd 3710 4e3c
00000310: c224 27bd ad57 bbbd b133 af3b 4dab a83d
00000320: eda6 6ebc 79aa 6fbd 7057 25bd eb1b 90bd
00000330: bc57 9fbd 7da2 dabd c346 a2bd 4f91 853c
00000340: 8199 953d 7260 6dbd 4790 b5bd 4c34 0e3d
00000350: 7454 bebc 43e1 7f3c 3a25 343d 69b1 eabd
00000360: d106 f5bd 9819 073d 3e20 b3bd b137 9dbc
00000370: 6e98 0abe c8ad 833d 90d5 b4bc c298 453d
00000380: 0a64 e4bd 5295 f73d b4c1 1d3d d8dc 333d
00000390: 27ed 2b3b 4e79 10bb b02a b13d 019a c53d
000003a0: 8509 c9bd 2e3d 383d 5e39 09be 33d2 5e3d
000003b0: a7ed 13bd 0820 e3bb 6744 1abd 82c7 193d
000003c0: 83a6 be3d 983b b53d 7a0a 0abd be59 dd3b
000003d0: 9f9a 94bd 5e13 d0bd 0933 96bd 44ca d8bd
000003e0: b1be 323d 40d4 9fbd 11ef 013e 62fc 9ebc
000003f0: 448e 4f3d 6a85 903d b010 0ebd be51 f83c

network2.3.bias f4 [64]
0.14315803 0.005106796 0.021078562 -0.06943705 0.09442685 0.17555103 0.20904039 0.032701895
0.013798613 0.031036232 -0.027515562 -0.110053726 0.039078925 0.21066193 -0.06707316 0.06098059
-0.06803703 0.14673847 0.04847166 -0.1392102 0.022207784 -0.055480693 0.039597433 -0.019165907
0.010793444 0.00014698532 -0.10940735 0.14269766 -0.046486687 0.033497076 -0.105398655 -0.06350824
0.10265593 0.0141819175 0.2859156 -0.084869124 0.006278764 0.081785746 0.024573501 -0.10108821
-0.044941653 0.13786428 -0.053845305 -0.09520995 0.11423507 0.0074609513 0.01075841 0.101342455
-0.01118558 0.07618563 -0.06260084 0.23373781 0.070022136 -0.021839587 -0.01991563 -0.015882237
-0.044270303 -0.08276696 -0.07813434 -0.06513291 -0.026635932 -0.033644527 0.059599135 -0.01593264
00000000: 0598 123e e956 a73b f3ac ac3c 0335 8ebd
00000010: dd62 c13d a6c3 333e af0e 563e 6cf2 053d
00000020: 9413 623c b23f fe3c 5168 e1bc d963 e1bd
00000030: 3911 203d c3b7 573e a75d 89bd c8c6 793d
00000040: 0057 8bbd 9c42 163e 388a 463d 1e8d 0ebe
00000050: 19ed b53c b93f 63bd eb30 223d d201 9dbc
00000060: fcd6 303c 1220 1a39 f610 e0bd 561f 123e
00000070: d368 3ebd 3b34 093d 40db d7bd 9c10 82bd
00000080: 463d d23d 465b 683c 8863 923e ddcf adbd
00000090: 17be cd3b 497f a73d 5e4e c93c 5607 cfbd
000000a0: bd14 38bd 4b2c 0d3e e58c 5cbd 6ffd c2bd
000000b0: 14f4 e93d ff7a f43b 0b44 303c a28c cf3d
000000c0: b943 37bc 3607 9c3d df34 80bd f758 6f3e
000000d0: c467 8f3d efe8 b2bc 1a26 a3bc 771b 82bc
000000e0: c754 35bd b981 a9bd e604 a0bd 6764 85bd
000000f0: 9933 dabc d8ce 09bd 391e 743d 2b85 82bc

network2.6.weight f4 [32, 64]
0.10632535 0.08185136 -0.18178715 -0.11570402 0.12940031 0.03656112 0.1340999 -0.0405598
-0.08744657 0.0062899357 0.041774 0.053130195 -0.08865635 0.1608563 -0.091234565 -0.07679366
-0.03471959 0.17993934 -0.06352671 -0.089993306 0.044245675 -0.009172218 0.116609536 -0.12115124
-0.07069156 0.11663785 0.04568944 0.09192883 -0.05790385 0.038396165 0.08389009 -0.12910466
0.028694376 -0.122543134 0.07078823 -0.002489118 -0.20656286 -0.0025628263 0.113841146 -0.046356812
-0.12604572 -0.00042293032 0.1252669 0.010171393 0.13386515 0.06882598 0.054780345 0.12070633
0.052216735 -0.11963956 0.014404133 0.07668426 0.051941205 -0.045158595 0.03798116 -0.05920662
-0.035622768 -0.03743403 -0.01710409 -0.08777694 0.053438365 -0.009465015 -0.030565696 -0.104393035
-0.017166827 0.008029711 0.12373214 0.11268231 0.08772664 0.017856168 -0.07965323 -0.057110716
-0.0054685385 -0.04272572 0.042071424 -0.03110463 -0.09023753 -0.08384945 -0.122455046 -0.020747887
0.030151559 0.035246372 -0.08321664 -0.086084485 -0.1308394 -0.067112885 -0.10856591 -0.0254757
-0.08227217 -0.17075275 -0.055390287 -0.07683203 0.017069545 -0.03567158 0.06349576 -0.015385302
-0.103643045 0.029467233 -0.050685953 -0.0037379875 -0.015208316 -0.0757772 0.037010774 0.08718452
0.054188825 -0.005967661 -0.0052089924 0.09557905 0.123493046 0.048489533 -0.024300052 0.028998792
0.008627239 -0.04607402 0.076359704 -0.0015255694 -0.10004738 0.087842815 0.04335568 0.041678347
-0.043718163 0.13063136 0.11608507 0.03383738 -0.052149966 -0.14759164 0.11354929 0.006844146
0.10597148 0.033239663 -0.06292357 -0.114941664 0.13293938 0.02057998 0.11386675 -0.0849824
0.023360152 -0.07049108 -0.049959145 0.018068433 0.07418795 0.08011464 -0.0014087922 0.027359124
-0.077722386 -0.025004348 0.11900025 -0.022388076 -0.03348242 -0.0774223 0.014992405 -0.07879789
-0.037037503 -0.010422974 -0.0110923685 -0.09958967 -0.12597463 0.054251853 -0.074190825 0.021575626
0.09915526 -0.19139054 -0.006858516 -0.028695837 -0.012475632 0.024259765 -0.022279952 -0.030430466
-0.0922907 0.029822208 0.013879124 0.01523882 -0.000120811324 -0.110957414 -0.03775425 0.0379842
-0.053916834 0.01419327 -0.003976472 -0.03355603 -0.09584556 -0.0339586 -0.099660456 0.10929998
-0.09335753 -0.041014038 0.026952228 -0.11015076 0.021335648 0.04194729 0.13252868 0.017454445
-0.02941476 0.054201074 0.14708774 0.06351633 -0.011718428 0.07012784 -0.034119047 0.076630145
0.10741982 -0.111593984 0.13704528 -0.054467585 0.084668174 0.02512353 -0.010371885 0.13327648
0.048070423 0.019448174 0.03983366 0.09284051 0.040060174 0.14148134 0.004611453 0.10375929
0.1797766 -0.013839354 -0.022516148 -0.07354603 0.13262835 0.057104327 0.028781965 0.059744313
-0.11522786 0.18450399 -0.056282695 0.09719465 0.08927713 0.029304923 -0.023670582 0.06841681
0.0014332769 0.12324573 -0.06325188 0.094265476 -0.031243244 0.12716685 0.13905141 0.013935578
0.11151337 0.0746664 0.06498371 0.15178844 0.056771953 -0.013836043 0.07687193 -0.04160664
0.05890658 0.19007592 0.16981263 0.13153909 0.12817723 0.008236844 -0.096599 0.061080597
00000000: 1bc1 d93d b0a1 a73d 6926 3abe 3bf6 ecbd
00000010: 8481 043e 1dc1 153d 7c51 093e 0822 26bd
00000020: 3017 b3bd ce1b ce3b 371b 2b3d 0c9f 593d
00000030: 7691 b5bd 84b7 243e 30d9 babd ff45 9dbd
00000040: 2136 0ebd 0542 383e 4b1a 82bd 694e b8bd
00000050: f43a 353d 1247 16bc fbd0 ee3d 241e f8bd
00000060: bdc6 90bd d3df ee3d da24 3b3d 2f45 bc3d
00000070: 962c 6dbd 4c45 1d3d 91ce ab3d 0334 04be
00000080: 7810 eb3c e5f7 fabd 6bf9 903d 7820 23bb
00000090: 3785 53be 17f5 27bb 8c25 e93d a4e0 3dbd
000000a0: 2112 01be bfbc ddb9 f745 003e eaa5 263c
000000b0: f213 093e a3f4 8c3d 5b61 603d e134 f73d
000000c0: 37e1 553d 9605 f5bd 50ff 6b3c a30c 9d3d
000000d0: 4dc0 543d 38f8 38bd 2292 1b3d a482 72bd
000000e0: 2ee9 11bd 6d54 19bd e01d 8cbc 65c4 b3bd
000000f0: 30e2 5a3d 2613 1bbc e964 fabc 04cc d5bd
00000100: 72a1 8cbc 0d8f 033c 4767 fd3d fcc5 e63d
00000110: 06aa b33d 1947 923c 3c21 a3bd edec 69bd
00000120: 6d31 b3bb 2a01 2fbd 1653 2c3d 23cf febc
00000130: 74ce b8bd 43b9 abbd b6c9 fabd 79f7 a9bc
00000140: 6700 f73c 805e 103d 7c6d aabd 104d b0bd
00000150: c4fa 05be 7b72 89bd ce57 debd 6ab2 d0bc
00000160: 507e a8bd cfd9 2ebe ede0 62bd 1d5a 9dbd
00000170: 6ed5 8b3c 5d1c 12bd 110a 823d a212 7cbc
00000180: ce42 d4bd 4465 f13c 139c 4fbd 06f9 74bb
00000190: 4d2c 79bc 1431 9bbd 9c98 173d cc8d b23d
000001a0: 1af5 5d3d 5e8c c3bb 32b0 aabb f3be c33d
000001b0: ece9 fc3d f69c 463d e710 c7bc e08e ed3c
000001c0: 4359 0d3c 1db8 3cbd 7a62 9c3d 9df5 c7ba
000001d0: a4e5 ccbd efe6 b33d ba95 313d eab6 2a3d
000001e0: d111 33bd 3ac4 053e 02be ed3d 1199 0a3d
000001f0: 349b 55bd 4322 17be 888c e83d dc44 e03b
00000200: 9307 d93d 5026 083d 13de 80bd 8966 ebbd
00000210: 4321 083e 5997 a83c f832 e93d 410b aebd
00000220: ca5d bf3c a15d 90bd f6a1 4cbd 4004 943c
00000230: daef 973d 2513 a43d 39a7 b8ba 3e20 e03c
00000240: ea2c 9fbd ebd5 ccbc 67b6 f33d 3367 b7bc
00000250: dd24 09bd 958f 9ebd b4a2 753c ca60 a1bd
00000260: a3b4 17bd 1fc5 2abc c4bc 35bc abf5 cbbd
00000270: 7eff 00be 3137 5e3d 5cf1 97bd 5ebf b03c
00000280: ea11 cb3d e2fb 43be 67bd e0bb 8813 ebbc
00000290: 9866 4cbc 6abc c63c 7284 b6bc 5049 f9bc
000002a0: e802 bdbd b44d f43c 4465 633c 3eac 793c
000002b0: 165c fdb8 a43d e3bd 33a4 1abd 5295 1b3d
000002c0: e6d7 5cbd e48a 683c 114d 82bb 0c72 09bd
000002d0: ad4a c4bd 2c18 0bbd c81a ccbd abd8 df3d
000002e0: 3c32 bfbd 56fe 27bd ebca dc3c b996 e1bd
000002f0: 19c8 ae3c ecd0 2b3d 99b5 073e a0fc 8e3c
00000300: 39f7 f0bc f201 5e3d 2b9e 163e da14 823d
00000310: a6fe 3fbc 2f9f 8f3d 6ac0 0bbd 44f0 9c3d
00000320: ecfe db3d 638b e4bd 9955 0c3e 6719 5fbd
00000330: 8266 ad3d dccf cd3c d7ee 29bc a179 083e
00000340: 7ee5 443d c751 9f3c 9f28 233d 2a23 be3d
00000350: 2316 243d 7ce0 103e ac1b 973b c07f d43d
00000360: 5b17 383e 75be 62bc c973 b8bc 4d9f 96bd
00000370: bacf 073e 3ae6 693d 28c8 eb3c 74b6 743d
00000380: 96fc ebbd 9dee 3c3e af88 66bd fd0d c73d
00000390: eed6 b63d e110 f03c cfe8 c1bc 1d1e 8c3d
000003a0: cbdc bb3a 4268 fc3d 348a 81bd 420e c13d
000003b0: d5f1 ffbc 0738 023e 7e63 0e3e 0d52 643c
000003c0: 1f61 e43d b3ea 983d 2e16 853d 6e6e 1b3e
000003d0: b589 683d 92b0 62bc 086f 9d3d b96b 2abd
000003e0: 0748 713d 43a3 423e 5de3 2d3e 2fb2 063e
000003f0: e440 033e d4f3 063c b2d5 c5bd a62f 7a3d

network2.6.bias f4 [32]
0.29625344 -0.03322678 0.022373145 -0.16662061 0.071904846 -0.09986503 -0.029108044 0.46722168
0.21607749 0.21975438 -0.14952956 -0.018280283 0.074631765 -0.11864573 -0.11042219 0.0019300729
0.1053277 -0.049543098 0.16366462 0.026203929 0.025980327 0.104694776 0.06388545 -0.080358334
0.07390345 -0.08286753 0.24401006 0.06317617 -0.06769337 -0.16360827 -0.066449225 0.054400183
00000000: 88ae 973e ce18 08bd e347 b73c 989e 2abe
00000010: d942 933d 0986 ccbd fe73 eebc ae37 ef3e
00000020: 6b43 5d3e 4b07 613e 471e 19be 88c0 95bc
00000030: 8ad8 983d 88fc f2bd 0725 e2bd 80fa fc3a
00000040: 0db6 d73d b4ed 4abd b397 273e 9fa9 d63c
00000050: b2d4 d43c 376a d63d 60d6 823d e992 a4bd
00000060: b15a 973d 74b6 a9bd c6dd 793e 8262 813d
00000070: d2a2 8abd ed88 27be 8816 88bd bad2 5e3d

network2.8.weight f4 [4, 32]
0.026527856 -0.09526457 0.1265019 -0.05484004 -0.090757005 0.02000665 0.05884903 -0.10582688
0.04217916 -0.1546612 0.16246198 0.002148787 -0.14464277 0.0672673 0.052600533 0.11138771
0.10991731 0.06529458 0.13473763 -0.012922615 0.027973281 -0.11702301 0.030974977 0.17699383
-0.14350604 -0.08055001 0.061148595 -0.14265092 -0.07988052 0.025812535 0.1169134 -0.10062748
-0.22476242 0.1394919 -0.07978943 0.12105194 -0.10554702 -0.11974314 0.03549143 -0.053232796
-0.11360281 -0.09888764 0.005680736 -0.11848024 0.09379772 -0.09328228 0.12450148 0.045437146
-0.10342827 -0.1264593 0.16734576 0.046614457 -0.10879376 0.1382454 -0.045779984 -0.080673754
-0.04419158 -0.15029769 -0.007564528 0.003136163 -0.06708621 -0.066451676 -0.14057782 0.13126744
0.060204603 0.128692 0.14866821 -0.23915544 0.19866346 0.12048878 0.004710693 -0.03119239
0.19853714 0.15289296 0.039825942 0.065202095 0.0962563 -0.093382314 -0.13362432 0.068277344
-0.01307004 -0.21067691 0.10754004 0.17021 0.038616873 -0.09142795 -0.06596643 0.056599602
9.700463e-05 0.09327377 0.18067011 0.032054786 -0.11724589 -0.1908509 -0.18441263 0.110793754
-0.10396458 0.18145533 -0.15544634 0.0077676936 0.012925011 0.08343096 0.122129396 -0.34629408
-0.23227692 -0.05301734 0.21187869 0.14356634 -0.07766103 -0.033801172 0.124081254 -0.18859069
-0.109602265 0.042709466 -0.15556607 0.083232544 0.105434254 0.009032252 -0.15059674 0.14257818
0.08864846 0.12115057 -0.245096 -0.086626716 0.04591338 -0.023342319 0.056103062 -0.089509964
00000000: f250 d93c 121a c3bd b789 013e f39f 60bd
00000010: cfde b9bd fce4 a33c ae0b 713d c3bb d8bd
00000020: 0ec4 2c3d 815f 1ebe 6f5c 263e aad2 0c3b
00000030: 3c1d 14be 70c3 893d a873 573d 3d1f e43d
00000040: 541c e13d 2ab9 853d a9f8 093e 60b9 53bc
00000050: 3928 e53c c3a9 efbd 3cbf fd3c df3d 353e
00000060: 3ff3 12be 67f7 a4bd f376 7a3d 1513 12be
00000070: 6698 a3bd cf74 d33c 4b70 ef3d c815 cebd
00000080: 1f28 66be f7d6 0e3e a468 a3bd 14ea f73d
00000090: 0929 d8bd e43b f5bd 765f 113d a20a 5abd
000000a0: 97a8 e8bd 9a85 cabd 7825 ba3b c5a5 f2bd
000000b0: 0519 c03d c80a bfbd a2fa fe3d 4d1c 3a3d
000000c0: 33d2 d3bd 8c7e 01be b05c 2b3e cdee 3e3d
000000d0: 43cf debd 3490 0d3e cb83 3bbd 4838 a5bd
000000e0: 3b02 35bd a3e7 19be dcdf f7bb 1688 4d3b
000000f0: 7f64 89bd d117 88bd a2f3 0fbe f96a 063e
00000100: 1a99 763d d6c7 033e 7b3c 183e 2ae5 74be
00000110: 6f6e 4b3e d2c2 f63d 285c 9a3b 2f87 ffbc
00000120: 524d 4b3e f98f 1c3e 8720 233d ad88 853d
00000130: 0622 c53d 3a3f bfbd d0d4 08be fed4 8b3d
00000140: b923 56bc b0bb 57be f43d dc3d 884b 2e3e
00000150: ba2c 1e3d 943e bbbd 6819 87bd fcd4 673d
00000160: f76e cb38 5106 bf3d 9601 393e e14b 033d
00000170: 9d1e f0bd 6b6e 43be aad6 3cbe d6e7 e23d
00000180: 62eb d4bd 6dcf 393e 532d 1fbe 2388 fe3b
00000190: 6dc3 533c dadd aa3d fa1e fa3d 754d b1be
000001a0: 00da 6dbe b628 59bd baf6 583e 0e03 133e
000001b0: bf0c 9fbd 1973 0abd 501e fe3d eb1d 41be
000001c0: 2777 e0bd 1ff0 2e3d b64c 1fbe d375 aa3d
000001d0: eaed d73d 03fc 133c 0836 1abe 0400 123e
000001e0: 538d b53d ca1d f83d 72fa 7abe 5969 b1bd
000001f0: ab0f 3c3d 6438 bfbc 53cc 653d 0051 b7bd

network2.8.bias f4 [4]
-0.042281304 0.039928347 0.17775638 -0.10721021
00000000: 292f 2dbd e88b 233d c505 363e 0791 dbbd
